{"class_name": "Model", "backend": "tensorflow", "config": {"layers": [{"class_name": "InputLayer", "name": "inputs", "config": {"batch_input_shape": [null, 4096, 12], "dtype": "float32", "sparse": false, "name": "inputs"}, "inbound_nodes": []}, {"class_name": "SeparableConv1D", "name": "separable_conv1d_1", "config": {"bias_initializer": {"class_name": "Zeros", "config": {}}, "depth_multiplier": 1, "trainable": true, "name": "separable_conv1d_1", "filters": 32, "padding": "same", "dilation_rate": [1], "strides": [1], "pointwise_initializer": {"class_name": "VarianceScaling", "config": {"scale": 1.0, "mode": "fan_avg", "distribution": "uniform", "seed": null}}, "depthwise_regularizer": null, "depthwise_initializer": {"class_name": "VarianceScaling", "config": {"scale": 1.0, "mode": "fan_avg", "distribution": "uniform", "seed": null}}, "pointwise_constraint": null, "activation": "linear", "activity_regularizer": null, "bias_constraint": null, "data_format": "channels_last", "use_bias": true, "kernel_size": [16], "depthwise_constraint": null, "pointwise_regularizer": null, "bias_regularizer": null}, "inbound_nodes": [[["inputs", 0, 0, {}]]]}, {"class_name": "SeparableConv1D", "name": "separable_conv1d_2", "config": {"bias_initializer": {"class_name": "Zeros", "config": {}}, "depth_multiplier": 1, "trainable": true, "name": "separable_conv1d_2", "filters": 32, "padding": "same", "dilation_rate": [1], "strides": [1], "pointwise_initializer": {"class_name": "VarianceScaling", "config": {"scale": 1.0, "mode": "fan_avg", "distribution": "uniform", "seed": null}}, "depthwise_regularizer": null, "depthwise_initializer": {"class_name": "VarianceScaling", "config": {"scale": 1.0, "mode": "fan_avg", "distribution": "uniform", "seed": null}}, "pointwise_constraint": null, "activation": "linear", "activity_regularizer": null, "bias_constraint": null, "data_format": "channels_last", "use_bias": true, "kernel_size": [32], "depthwise_constraint": null, "pointwise_regularizer": null, "bias_regularizer": null}, "inbound_nodes": [[["inputs", 0, 0, {}]]]}, {"class_name": "Concatenate", "name": "concatenate_1", "config": {"axis": 2, "trainable": true, "name": "concatenate_1"}, "inbound_nodes": [[["separable_conv1d_1", 0, 0, {}], ["separable_conv1d_2", 0, 0, {}]]]}, {"class_name": "SeparableConv1D", "name": "separable_conv1d_3", "config": {"bias_initializer": {"class_name": "Zeros", "config": {}}, "depth_multiplier": 1, "trainable": true, "name": "separable_conv1d_3", "filters": 32, "padding": "same", "dilation_rate": [1], "strides": [1], "pointwise_initializer": {"class_name": "VarianceScaling", "config": {"scale": 1.0, "mode": "fan_avg", "distribution": "uniform", "seed": null}}, "depthwise_regularizer": null, "depthwise_initializer": {"class_name": "VarianceScaling", "config": {"scale": 1.0, "mode": "fan_avg", "distribution": "uniform", "seed": null}}, "pointwise_constraint": null, "activation": "linear", "activity_regularizer": null, "bias_constraint": null, "data_format": "channels_last", "use_bias": true, "kernel_size": [1], "depthwise_constraint": null, "pointwise_regularizer": null, "bias_regularizer": null}, "inbound_nodes": [[["concatenate_1", 0, 0, {}]]]}, {"class_name": "BatchNormalization", "name": "batch_normalization_1", "config": {"gamma_initializer": {"class_name": "Ones", "config": {}}, "trainable": true, "name": "batch_normalization_1", "momentum": 0.99, "moving_mean_initializer": {"class_name": "Zeros", "config": {}}, "axis": -1, "center": true, "beta_initializer": {"class_name": "Zeros", "config": {}}, "gamma_constraint": null, "epsilon": 0.001, "gamma_regularizer": null, "beta_constraint": null, "scale": true, "beta_regularizer": null, "moving_variance_initializer": {"class_name": "Ones", "config": {}}}, "inbound_nodes": [[["separable_conv1d_3", 0, 0, {}]]]}, {"class_name": "Activation", "name": "activation_1", "config": {"activation": "relu", "trainable": true, "name": "activation_1"}, "inbound_nodes": [[["batch_normalization_1", 0, 0, {}]]]}, {"class_name": "BatchNormalization", "name": "batch_normalization_2", "config": {"gamma_initializer": {"class_name": "Ones", "config": {}}, "trainable": true, "name": "batch_normalization_2", "momentum": 0.99, "moving_mean_initializer": {"class_name": "Zeros", "config": {}}, "axis": -1, "center": true, "beta_initializer": {"class_name": "Zeros", "config": {}}, "gamma_constraint": null, "epsilon": 0.001, "gamma_regularizer": null, "beta_constraint": null, "scale": true, "beta_regularizer": null, "moving_variance_initializer": {"class_name": "Ones", "config": {}}}, "inbound_nodes": [[["activation_1", 0, 0, {}]]]}, {"class_name": "Activation", "name": "activation_2", "config": {"activation": "relu", "trainable": true, "name": "activation_2"}, "inbound_nodes": [[["batch_normalization_2", 0, 0, {}]]]}, {"class_name": "SeparableConv1D", "name": "separable_conv1d_4", "config": {"bias_initializer": {"class_name": "Zeros", "config": {}}, "depth_multiplier": 1, "trainable": true, "name": "separable_conv1d_4", "filters": 32, "padding": "same", "dilation_rate": [1], "strides": [1], "pointwise_initializer": {"class_name": "VarianceScaling", "config": {"scale": 1.0, "mode": "fan_avg", "distribution": "uniform", "seed": null}}, "depthwise_regularizer": null, "depthwise_initializer": {"class_name": "VarianceScaling", "config": {"scale": 1.0, "mode": "fan_avg", "distribution": "uniform", "seed": null}}, "pointwise_constraint": null, "activation": "linear", "activity_regularizer": null, "bias_constraint": null, "data_format": "channels_last", "use_bias": true, "kernel_size": [16], "depthwise_constraint": null, "pointwise_regularizer": null, "bias_regularizer": null}, "inbound_nodes": [[["activation_2", 0, 0, {}]]]}, {"class_name": "SeparableConv1D", "name": "separable_conv1d_5", "config": {"bias_initializer": {"class_name": "Zeros", "config": {}}, "depth_multiplier": 1, "trainable": true, "name": "separable_conv1d_5", "filters": 32, "padding": "same", "dilation_rate": [1], "strides": [1], "pointwise_initializer": {"class_name": "VarianceScaling", "config": {"scale": 1.0, "mode": "fan_avg", "distribution": "uniform", "seed": null}}, "depthwise_regularizer": null, "depthwise_initializer": {"class_name": "VarianceScaling", "config": {"scale": 1.0, "mode": "fan_avg", "distribution": "uniform", "seed": null}}, "pointwise_constraint": null, "activation": "linear", "activity_regularizer": null, "bias_constraint": null, "data_format": "channels_last", "use_bias": true, "kernel_size": [32], "depthwise_constraint": null, "pointwise_regularizer": null, "bias_regularizer": null}, "inbound_nodes": [[["activation_2", 0, 0, {}]]]}, {"class_name": "Concatenate", "name": "concatenate_2", "config": {"axis": 2, "trainable": true, "name": "concatenate_2"}, "inbound_nodes": [[["separable_conv1d_4", 0, 0, {}], ["separable_conv1d_5", 0, 0, {}]]]}, {"class_name": "SeparableConv1D", "name": "separable_conv1d_6", "config": {"bias_initializer": {"class_name": "Zeros", "config": {}}, "depth_multiplier": 1, "trainable": true, "name": "separable_conv1d_6", "filters": 32, "padding": "same", "dilation_rate": [1], "strides": [1], "pointwise_initializer": {"class_name": "VarianceScaling", "config": {"scale": 1.0, "mode": "fan_avg", "distribution": "uniform", "seed": null}}, "depthwise_regularizer": null, "depthwise_initializer": {"class_name": "VarianceScaling", "config": {"scale": 1.0, "mode": "fan_avg", "distribution": "uniform", "seed": null}}, "pointwise_constraint": null, "activation": "linear", "activity_regularizer": null, "bias_constraint": null, "data_format": "channels_last", "use_bias": true, "kernel_size": [1], "depthwise_constraint": null, "pointwise_regularizer": null, "bias_regularizer": null}, "inbound_nodes": [[["concatenate_2", 0, 0, {}]]]}, {"class_name": "BatchNormalization", "name": "batch_normalization_3", "config": {"gamma_initializer": {"class_name": "Ones", "config": {}}, "trainable": true, "name": "batch_normalization_3", "momentum": 0.99, "moving_mean_initializer": {"class_name": "Zeros", "config": {}}, "axis": -1, "center": true, "beta_initializer": {"class_name": "Zeros", "config": {}}, "gamma_constraint": null, "epsilon": 0.001, "gamma_regularizer": null, "beta_constraint": null, "scale": true, "beta_regularizer": null, "moving_variance_initializer": {"class_name": "Ones", "config": {}}}, "inbound_nodes": [[["separable_conv1d_6", 0, 0, {}]]]}, {"class_name": "Activation", "name": "activation_3", "config": {"activation": "relu", "trainable": true, "name": "activation_3"}, "inbound_nodes": [[["batch_normalization_3", 0, 0, {}]]]}, {"class_name": "BatchNormalization", "name": "batch_normalization_4", "config": {"gamma_initializer": {"class_name": "Ones", "config": {}}, "trainable": true, "name": "batch_normalization_4", "momentum": 0.99, "moving_mean_initializer": {"class_name": "Zeros", "config": {}}, "axis": -1, "center": true, "beta_initializer": {"class_name": "Zeros", "config": {}}, "gamma_constraint": null, "epsilon": 0.001, "gamma_regularizer": null, "beta_constraint": null, "scale": true, "beta_regularizer": null, "moving_variance_initializer": {"class_name": "Ones", "config": {}}}, "inbound_nodes": [[["activation_3", 0, 0, {}]]]}, {"class_name": "Activation", "name": "activation_4", "config": {"activation": "relu", "trainable": true, "name": "activation_4"}, "inbound_nodes": [[["batch_normalization_4", 0, 0, {}]]]}, {"class_name": "Dropout", "name": "dropout_1", "config": {"seed": null, "trainable": true, "name": "dropout_1", "noise_shape": null, "rate": 0.3}, "inbound_nodes": [[["activation_4", 0, 0, {}]]]}, {"class_name": "SeparableConv1D", "name": "separable_conv1d_7", "config": {"bias_initializer": {"class_name": "Zeros", "config": {}}, "depth_multiplier": 1, "trainable": true, "name": "separable_conv1d_7", "filters": 32, "padding": "same", "dilation_rate": [1], "strides": [1], "pointwise_initializer": {"class_name": "VarianceScaling", "config": {"scale": 1.0, "mode": "fan_avg", "distribution": "uniform", "seed": null}}, "depthwise_regularizer": null, "depthwise_initializer": {"class_name": "VarianceScaling", "config": {"scale": 1.0, "mode": "fan_avg", "distribution": "uniform", "seed": null}}, "pointwise_constraint": null, "activation": "linear", "activity_regularizer": null, "bias_constraint": null, "data_format": "channels_last", "use_bias": true, "kernel_size": [16], "depthwise_constraint": null, "pointwise_regularizer": null, "bias_regularizer": null}, "inbound_nodes": [[["dropout_1", 0, 0, {}]]]}, {"class_name": "SeparableConv1D", "name": "separable_conv1d_8", "config": {"bias_initializer": {"class_name": "Zeros", "config": {}}, "depth_multiplier": 1, "trainable": true, "name": "separable_conv1d_8", "filters": 32, "padding": "same", "dilation_rate": [1], "strides": [1], "pointwise_initializer": {"class_name": "VarianceScaling", "config": {"scale": 1.0, "mode": "fan_avg", "distribution": "uniform", "seed": null}}, "depthwise_regularizer": null, "depthwise_initializer": {"class_name": "VarianceScaling", "config": {"scale": 1.0, "mode": "fan_avg", "distribution": "uniform", "seed": null}}, "pointwise_constraint": null, "activation": "linear", "activity_regularizer": null, "bias_constraint": null, "data_format": "channels_last", "use_bias": true, "kernel_size": [32], "depthwise_constraint": null, "pointwise_regularizer": null, "bias_regularizer": null}, "inbound_nodes": [[["dropout_1", 0, 0, {}]]]}, {"class_name": "Concatenate", "name": "concatenate_3", "config": {"axis": 2, "trainable": true, "name": "concatenate_3"}, "inbound_nodes": [[["separable_conv1d_7", 0, 0, {}], ["separable_conv1d_8", 0, 0, {}]]]}, {"class_name": "SeparableConv1D", "name": "separable_conv1d_9", "config": {"bias_initializer": {"class_name": "Zeros", "config": {}}, "depth_multiplier": 1, "trainable": true, "name": "separable_conv1d_9", "filters": 32, "padding": "same", "dilation_rate": [1], "strides": [1], "pointwise_initializer": {"class_name": "VarianceScaling", "config": {"scale": 1.0, "mode": "fan_avg", "distribution": "uniform", "seed": null}}, "depthwise_regularizer": null, "depthwise_initializer": {"class_name": "VarianceScaling", "config": {"scale": 1.0, "mode": "fan_avg", "distribution": "uniform", "seed": null}}, "pointwise_constraint": null, "activation": "linear", "activity_regularizer": null, "bias_constraint": null, "data_format": "channels_last", "use_bias": true, "kernel_size": [1], "depthwise_constraint": null, "pointwise_regularizer": null, "bias_regularizer": null}, "inbound_nodes": [[["concatenate_3", 0, 0, {}]]]}, {"class_name": "BatchNormalization", "name": "batch_normalization_5", "config": {"gamma_initializer": {"class_name": "Ones", "config": {}}, "trainable": true, "name": "batch_normalization_5", "momentum": 0.99, "moving_mean_initializer": {"class_name": "Zeros", "config": {}}, "axis": -1, "center": true, "beta_initializer": {"class_name": "Zeros", "config": {}}, "gamma_constraint": null, "epsilon": 0.001, "gamma_regularizer": null, "beta_constraint": null, "scale": true, "beta_regularizer": null, "moving_variance_initializer": {"class_name": "Ones", "config": {}}}, "inbound_nodes": [[["separable_conv1d_9", 0, 0, {}]]]}, {"class_name": "MaxPooling1D", "name": "max_pooling1d_1", "config": {"pool_size": [1], "strides": [1], "trainable": true, "name": "max_pooling1d_1", "data_format": "channels_last", "padding": "valid"}, "inbound_nodes": [[["activation_2", 0, 0, {}]]]}, {"class_name": "Activation", "name": "activation_5", "config": {"activation": "relu", "trainable": true, "name": "activation_5"}, "inbound_nodes": [[["batch_normalization_5", 0, 0, {}]]]}, {"class_name": "Add", "name": "add_1", "config": {"trainable": true, "name": "add_1"}, "inbound_nodes": [[["max_pooling1d_1", 0, 0, {}], ["activation_5", 0, 0, {}]]]}, {"class_name": "BatchNormalization", "name": "batch_normalization_6", "config": {"gamma_initializer": {"class_name": "Ones", "config": {}}, "trainable": true, "name": "batch_normalization_6", "momentum": 0.99, "moving_mean_initializer": {"class_name": "Zeros", "config": {}}, "axis": -1, "center": true, "beta_initializer": {"class_name": "Zeros", "config": {}}, "gamma_constraint": null, "epsilon": 0.001, "gamma_regularizer": null, "beta_constraint": null, "scale": true, "beta_regularizer": null, "moving_variance_initializer": {"class_name": "Ones", "config": {}}}, "inbound_nodes": [[["add_1", 0, 0, {}]]]}, {"class_name": "Activation", "name": "activation_6", "config": {"activation": "relu", "trainable": true, "name": "activation_6"}, "inbound_nodes": [[["batch_normalization_6", 0, 0, {}]]]}, {"class_name": "SeparableConv1D", "name": "separable_conv1d_10", "config": {"bias_initializer": {"class_name": "Zeros", "config": {}}, "depth_multiplier": 1, "trainable": true, "name": "separable_conv1d_10", "filters": 32, "padding": "same", "dilation_rate": [1], "strides": [2], "pointwise_initializer": {"class_name": "VarianceScaling", "config": {"scale": 1.0, "mode": "fan_avg", "distribution": "uniform", "seed": null}}, "depthwise_regularizer": null, "depthwise_initializer": {"class_name": "VarianceScaling", "config": {"scale": 1.0, "mode": "fan_avg", "distribution": "uniform", "seed": null}}, "pointwise_constraint": null, "activation": "linear", "activity_regularizer": null, "bias_constraint": null, "data_format": "channels_last", "use_bias": true, "kernel_size": [16], "depthwise_constraint": null, "pointwise_regularizer": null, "bias_regularizer": null}, "inbound_nodes": [[["activation_6", 0, 0, {}]]]}, {"class_name": "SeparableConv1D", "name": "separable_conv1d_11", "config": {"bias_initializer": {"class_name": "Zeros", "config": {}}, "depth_multiplier": 1, "trainable": true, "name": "separable_conv1d_11", "filters": 32, "padding": "same", "dilation_rate": [1], "strides": [2], "pointwise_initializer": {"class_name": "VarianceScaling", "config": {"scale": 1.0, "mode": "fan_avg", "distribution": "uniform", "seed": null}}, "depthwise_regularizer": null, "depthwise_initializer": {"class_name": "VarianceScaling", "config": {"scale": 1.0, "mode": "fan_avg", "distribution": "uniform", "seed": null}}, "pointwise_constraint": null, "activation": "linear", "activity_regularizer": null, "bias_constraint": null, "data_format": "channels_last", "use_bias": true, "kernel_size": [32], "depthwise_constraint": null, "pointwise_regularizer": null, "bias_regularizer": null}, "inbound_nodes": [[["activation_6", 0, 0, {}]]]}, {"class_name": "Concatenate", "name": "concatenate_4", "config": {"axis": 2, "trainable": true, "name": "concatenate_4"}, "inbound_nodes": [[["separable_conv1d_10", 0, 0, {}], ["separable_conv1d_11", 0, 0, {}]]]}, {"class_name": "SeparableConv1D", "name": "separable_conv1d_12", "config": {"bias_initializer": {"class_name": "Zeros", "config": {}}, "depth_multiplier": 1, "trainable": true, "name": "separable_conv1d_12", "filters": 32, "padding": "same", "dilation_rate": [1], "strides": [1], "pointwise_initializer": {"class_name": "VarianceScaling", "config": {"scale": 1.0, "mode": "fan_avg", "distribution": "uniform", "seed": null}}, "depthwise_regularizer": null, "depthwise_initializer": {"class_name": "VarianceScaling", "config": {"scale": 1.0, "mode": "fan_avg", "distribution": "uniform", "seed": null}}, "pointwise_constraint": null, "activation": "linear", "activity_regularizer": null, "bias_constraint": null, "data_format": "channels_last", "use_bias": true, "kernel_size": [2], "depthwise_constraint": null, "pointwise_regularizer": null, "bias_regularizer": null}, "inbound_nodes": [[["concatenate_4", 0, 0, {}]]]}, {"class_name": "BatchNormalization", "name": "batch_normalization_7", "config": {"gamma_initializer": {"class_name": "Ones", "config": {}}, "trainable": true, "name": "batch_normalization_7", "momentum": 0.99, "moving_mean_initializer": {"class_name": "Zeros", "config": {}}, "axis": -1, "center": true, "beta_initializer": {"class_name": "Zeros", "config": {}}, "gamma_constraint": null, "epsilon": 0.001, "gamma_regularizer": null, "beta_constraint": null, "scale": true, "beta_regularizer": null, "moving_variance_initializer": {"class_name": "Ones", "config": {}}}, "inbound_nodes": [[["separable_conv1d_12", 0, 0, {}]]]}, {"class_name": "Activation", "name": "activation_7", "config": {"activation": "relu", "trainable": true, "name": "activation_7"}, "inbound_nodes": [[["batch_normalization_7", 0, 0, {}]]]}, {"class_name": "BatchNormalization", "name": "batch_normalization_8", "config": {"gamma_initializer": {"class_name": "Ones", "config": {}}, "trainable": true, "name": "batch_normalization_8", "momentum": 0.99, "moving_mean_initializer": {"class_name": "Zeros", "config": {}}, "axis": -1, "center": true, "beta_initializer": {"class_name": "Zeros", "config": {}}, "gamma_constraint": null, "epsilon": 0.001, "gamma_regularizer": null, "beta_constraint": null, "scale": true, "beta_regularizer": null, "moving_variance_initializer": {"class_name": "Ones", "config": {}}}, "inbound_nodes": [[["activation_7", 0, 0, {}]]]}, {"class_name": "Activation", "name": "activation_8", "config": {"activation": "relu", "trainable": true, "name": "activation_8"}, "inbound_nodes": [[["batch_normalization_8", 0, 0, {}]]]}, {"class_name": "Dropout", "name": "dropout_2", "config": {"seed": null, "trainable": true, "name": "dropout_2", "noise_shape": null, "rate": 0.3}, "inbound_nodes": [[["activation_8", 0, 0, {}]]]}, {"class_name": "SeparableConv1D", "name": "separable_conv1d_13", "config": {"bias_initializer": {"class_name": "Zeros", "config": {}}, "depth_multiplier": 1, "trainable": true, "name": "separable_conv1d_13", "filters": 32, "padding": "same", "dilation_rate": [1], "strides": [1], "pointwise_initializer": {"class_name": "VarianceScaling", "config": {"scale": 1.0, "mode": "fan_avg", "distribution": "uniform", "seed": null}}, "depthwise_regularizer": null, "depthwise_initializer": {"class_name": "VarianceScaling", "config": {"scale": 1.0, "mode": "fan_avg", "distribution": "uniform", "seed": null}}, "pointwise_constraint": null, "activation": "linear", "activity_regularizer": null, "bias_constraint": null, "data_format": "channels_last", "use_bias": true, "kernel_size": [16], "depthwise_constraint": null, "pointwise_regularizer": null, "bias_regularizer": null}, "inbound_nodes": [[["dropout_2", 0, 0, {}]]]}, {"class_name": "SeparableConv1D", "name": "separable_conv1d_14", "config": {"bias_initializer": {"class_name": "Zeros", "config": {}}, "depth_multiplier": 1, "trainable": true, "name": "separable_conv1d_14", "filters": 32, "padding": "same", "dilation_rate": [1], "strides": [1], "pointwise_initializer": {"class_name": "VarianceScaling", "config": {"scale": 1.0, "mode": "fan_avg", "distribution": "uniform", "seed": null}}, "depthwise_regularizer": null, "depthwise_initializer": {"class_name": "VarianceScaling", "config": {"scale": 1.0, "mode": "fan_avg", "distribution": "uniform", "seed": null}}, "pointwise_constraint": null, "activation": "linear", "activity_regularizer": null, "bias_constraint": null, "data_format": "channels_last", "use_bias": true, "kernel_size": [32], "depthwise_constraint": null, "pointwise_regularizer": null, "bias_regularizer": null}, "inbound_nodes": [[["dropout_2", 0, 0, {}]]]}, {"class_name": "Concatenate", "name": "concatenate_5", "config": {"axis": 2, "trainable": true, "name": "concatenate_5"}, "inbound_nodes": [[["separable_conv1d_13", 0, 0, {}], ["separable_conv1d_14", 0, 0, {}]]]}, {"class_name": "SeparableConv1D", "name": "separable_conv1d_15", "config": {"bias_initializer": {"class_name": "Zeros", "config": {}}, "depth_multiplier": 1, "trainable": true, "name": "separable_conv1d_15", "filters": 32, "padding": "same", "dilation_rate": [1], "strides": [1], "pointwise_initializer": {"class_name": "VarianceScaling", "config": {"scale": 1.0, "mode": "fan_avg", "distribution": "uniform", "seed": null}}, "depthwise_regularizer": null, "depthwise_initializer": {"class_name": "VarianceScaling", "config": {"scale": 1.0, "mode": "fan_avg", "distribution": "uniform", "seed": null}}, "pointwise_constraint": null, "activation": "linear", "activity_regularizer": null, "bias_constraint": null, "data_format": "channels_last", "use_bias": true, "kernel_size": [1], "depthwise_constraint": null, "pointwise_regularizer": null, "bias_regularizer": null}, "inbound_nodes": [[["concatenate_5", 0, 0, {}]]]}, {"class_name": "BatchNormalization", "name": "batch_normalization_9", "config": {"gamma_initializer": {"class_name": "Ones", "config": {}}, "trainable": true, "name": "batch_normalization_9", "momentum": 0.99, "moving_mean_initializer": {"class_name": "Zeros", "config": {}}, "axis": -1, "center": true, "beta_initializer": {"class_name": "Zeros", "config": {}}, "gamma_constraint": null, "epsilon": 0.001, "gamma_regularizer": null, "beta_constraint": null, "scale": true, "beta_regularizer": null, "moving_variance_initializer": {"class_name": "Ones", "config": {}}}, "inbound_nodes": [[["separable_conv1d_15", 0, 0, {}]]]}, {"class_name": "MaxPooling1D", "name": "max_pooling1d_2", "config": {"pool_size": [2], "strides": [2], "trainable": true, "name": "max_pooling1d_2", "data_format": "channels_last", "padding": "valid"}, "inbound_nodes": [[["add_1", 0, 0, {}]]]}, {"class_name": "Activation", "name": "activation_9", "config": {"activation": "relu", "trainable": true, "name": "activation_9"}, "inbound_nodes": [[["batch_normalization_9", 0, 0, {}]]]}, {"class_name": "Add", "name": "add_2", "config": {"trainable": true, "name": "add_2"}, "inbound_nodes": [[["max_pooling1d_2", 0, 0, {}], ["activation_9", 0, 0, {}]]]}, {"class_name": "BatchNormalization", "name": "batch_normalization_10", "config": {"gamma_initializer": {"class_name": "Ones", "config": {}}, "trainable": true, "name": "batch_normalization_10", "momentum": 0.99, "moving_mean_initializer": {"class_name": "Zeros", "config": {}}, "axis": -1, "center": true, "beta_initializer": {"class_name": "Zeros", "config": {}}, "gamma_constraint": null, "epsilon": 0.001, "gamma_regularizer": null, "beta_constraint": null, "scale": true, "beta_regularizer": null, "moving_variance_initializer": {"class_name": "Ones", "config": {}}}, "inbound_nodes": [[["add_2", 0, 0, {}]]]}, {"class_name": "Activation", "name": "activation_10", "config": {"activation": "relu", "trainable": true, "name": "activation_10"}, "inbound_nodes": [[["batch_normalization_10", 0, 0, {}]]]}, {"class_name": "SeparableConv1D", "name": "separable_conv1d_16", "config": {"bias_initializer": {"class_name": "Zeros", "config": {}}, "depth_multiplier": 1, "trainable": true, "name": "separable_conv1d_16", "filters": 32, "padding": "same", "dilation_rate": [1], "strides": [1], "pointwise_initializer": {"class_name": "VarianceScaling", "config": {"scale": 1.0, "mode": "fan_avg", "distribution": "uniform", "seed": null}}, "depthwise_regularizer": null, "depthwise_initializer": {"class_name": "VarianceScaling", "config": {"scale": 1.0, "mode": "fan_avg", "distribution": "uniform", "seed": null}}, "pointwise_constraint": null, "activation": "linear", "activity_regularizer": null, "bias_constraint": null, "data_format": "channels_last", "use_bias": true, "kernel_size": [16], "depthwise_constraint": null, "pointwise_regularizer": null, "bias_regularizer": null}, "inbound_nodes": [[["activation_10", 0, 0, {}]]]}, {"class_name": "SeparableConv1D", "name": "separable_conv1d_17", "config": {"bias_initializer": {"class_name": "Zeros", "config": {}}, "depth_multiplier": 1, "trainable": true, "name": "separable_conv1d_17", "filters": 32, "padding": "same", "dilation_rate": [1], "strides": [1], "pointwise_initializer": {"class_name": "VarianceScaling", "config": {"scale": 1.0, "mode": "fan_avg", "distribution": "uniform", "seed": null}}, "depthwise_regularizer": null, "depthwise_initializer": {"class_name": "VarianceScaling", "config": {"scale": 1.0, "mode": "fan_avg", "distribution": "uniform", "seed": null}}, "pointwise_constraint": null, "activation": "linear", "activity_regularizer": null, "bias_constraint": null, "data_format": "channels_last", "use_bias": true, "kernel_size": [32], "depthwise_constraint": null, "pointwise_regularizer": null, "bias_regularizer": null}, "inbound_nodes": [[["activation_10", 0, 0, {}]]]}, {"class_name": "Concatenate", "name": "concatenate_6", "config": {"axis": 2, "trainable": true, "name": "concatenate_6"}, "inbound_nodes": [[["separable_conv1d_16", 0, 0, {}], ["separable_conv1d_17", 0, 0, {}]]]}, {"class_name": "SeparableConv1D", "name": "separable_conv1d_18", "config": {"bias_initializer": {"class_name": "Zeros", "config": {}}, "depth_multiplier": 1, "trainable": true, "name": "separable_conv1d_18", "filters": 32, "padding": "same", "dilation_rate": [1], "strides": [1], "pointwise_initializer": {"class_name": "VarianceScaling", "config": {"scale": 1.0, "mode": "fan_avg", "distribution": "uniform", "seed": null}}, "depthwise_regularizer": null, "depthwise_initializer": {"class_name": "VarianceScaling", "config": {"scale": 1.0, "mode": "fan_avg", "distribution": "uniform", "seed": null}}, "pointwise_constraint": null, "activation": "linear", "activity_regularizer": null, "bias_constraint": null, "data_format": "channels_last", "use_bias": true, "kernel_size": [1], "depthwise_constraint": null, "pointwise_regularizer": null, "bias_regularizer": null}, "inbound_nodes": [[["concatenate_6", 0, 0, {}]]]}, {"class_name": "BatchNormalization", "name": "batch_normalization_11", "config": {"gamma_initializer": {"class_name": "Ones", "config": {}}, "trainable": true, "name": "batch_normalization_11", "momentum": 0.99, "moving_mean_initializer": {"class_name": "Zeros", "config": {}}, "axis": -1, "center": true, "beta_initializer": {"class_name": "Zeros", "config": {}}, "gamma_constraint": null, "epsilon": 0.001, "gamma_regularizer": null, "beta_constraint": null, "scale": true, "beta_regularizer": null, "moving_variance_initializer": {"class_name": "Ones", "config": {}}}, "inbound_nodes": [[["separable_conv1d_18", 0, 0, {}]]]}, {"class_name": "Activation", "name": "activation_11", "config": {"activation": "relu", "trainable": true, "name": "activation_11"}, "inbound_nodes": [[["batch_normalization_11", 0, 0, {}]]]}, {"class_name": "BatchNormalization", "name": "batch_normalization_12", "config": {"gamma_initializer": {"class_name": "Ones", "config": {}}, "trainable": true, "name": "batch_normalization_12", "momentum": 0.99, "moving_mean_initializer": {"class_name": "Zeros", "config": {}}, "axis": -1, "center": true, "beta_initializer": {"class_name": "Zeros", "config": {}}, "gamma_constraint": null, "epsilon": 0.001, "gamma_regularizer": null, "beta_constraint": null, "scale": true, "beta_regularizer": null, "moving_variance_initializer": {"class_name": "Ones", "config": {}}}, "inbound_nodes": [[["activation_11", 0, 0, {}]]]}, {"class_name": "Activation", "name": "activation_12", "config": {"activation": "relu", "trainable": true, "name": "activation_12"}, "inbound_nodes": [[["batch_normalization_12", 0, 0, {}]]]}, {"class_name": "Dropout", "name": "dropout_3", "config": {"seed": null, "trainable": true, "name": "dropout_3", "noise_shape": null, "rate": 0.3}, "inbound_nodes": [[["activation_12", 0, 0, {}]]]}, {"class_name": "SeparableConv1D", "name": "separable_conv1d_19", "config": {"bias_initializer": {"class_name": "Zeros", "config": {}}, "depth_multiplier": 1, "trainable": true, "name": "separable_conv1d_19", "filters": 32, "padding": "same", "dilation_rate": [1], "strides": [1], "pointwise_initializer": {"class_name": "VarianceScaling", "config": {"scale": 1.0, "mode": "fan_avg", "distribution": "uniform", "seed": null}}, "depthwise_regularizer": null, "depthwise_initializer": {"class_name": "VarianceScaling", "config": {"scale": 1.0, "mode": "fan_avg", "distribution": "uniform", "seed": null}}, "pointwise_constraint": null, "activation": "linear", "activity_regularizer": null, "bias_constraint": null, "data_format": "channels_last", "use_bias": true, "kernel_size": [16], "depthwise_constraint": null, "pointwise_regularizer": null, "bias_regularizer": null}, "inbound_nodes": [[["dropout_3", 0, 0, {}]]]}, {"class_name": "SeparableConv1D", "name": "separable_conv1d_20", "config": {"bias_initializer": {"class_name": "Zeros", "config": {}}, "depth_multiplier": 1, "trainable": true, "name": "separable_conv1d_20", "filters": 32, "padding": "same", "dilation_rate": [1], "strides": [1], "pointwise_initializer": {"class_name": "VarianceScaling", "config": {"scale": 1.0, "mode": "fan_avg", "distribution": "uniform", "seed": null}}, "depthwise_regularizer": null, "depthwise_initializer": {"class_name": "VarianceScaling", "config": {"scale": 1.0, "mode": "fan_avg", "distribution": "uniform", "seed": null}}, "pointwise_constraint": null, "activation": "linear", "activity_regularizer": null, "bias_constraint": null, "data_format": "channels_last", "use_bias": true, "kernel_size": [32], "depthwise_constraint": null, "pointwise_regularizer": null, "bias_regularizer": null}, "inbound_nodes": [[["dropout_3", 0, 0, {}]]]}, {"class_name": "Concatenate", "name": "concatenate_7", "config": {"axis": 2, "trainable": true, "name": "concatenate_7"}, "inbound_nodes": [[["separable_conv1d_19", 0, 0, {}], ["separable_conv1d_20", 0, 0, {}]]]}, {"class_name": "SeparableConv1D", "name": "separable_conv1d_21", "config": {"bias_initializer": {"class_name": "Zeros", "config": {}}, "depth_multiplier": 1, "trainable": true, "name": "separable_conv1d_21", "filters": 32, "padding": "same", "dilation_rate": [1], "strides": [1], "pointwise_initializer": {"class_name": "VarianceScaling", "config": {"scale": 1.0, "mode": "fan_avg", "distribution": "uniform", "seed": null}}, "depthwise_regularizer": null, "depthwise_initializer": {"class_name": "VarianceScaling", "config": {"scale": 1.0, "mode": "fan_avg", "distribution": "uniform", "seed": null}}, "pointwise_constraint": null, "activation": "linear", "activity_regularizer": null, "bias_constraint": null, "data_format": "channels_last", "use_bias": true, "kernel_size": [1], "depthwise_constraint": null, "pointwise_regularizer": null, "bias_regularizer": null}, "inbound_nodes": [[["concatenate_7", 0, 0, {}]]]}, {"class_name": "BatchNormalization", "name": "batch_normalization_13", "config": {"gamma_initializer": {"class_name": "Ones", "config": {}}, "trainable": true, "name": "batch_normalization_13", "momentum": 0.99, "moving_mean_initializer": {"class_name": "Zeros", "config": {}}, "axis": -1, "center": true, "beta_initializer": {"class_name": "Zeros", "config": {}}, "gamma_constraint": null, "epsilon": 0.001, "gamma_regularizer": null, "beta_constraint": null, "scale": true, "beta_regularizer": null, "moving_variance_initializer": {"class_name": "Ones", "config": {}}}, "inbound_nodes": [[["separable_conv1d_21", 0, 0, {}]]]}, {"class_name": "MaxPooling1D", "name": "max_pooling1d_3", "config": {"pool_size": [1], "strides": [1], "trainable": true, "name": "max_pooling1d_3", "data_format": "channels_last", "padding": "valid"}, "inbound_nodes": [[["add_2", 0, 0, {}]]]}, {"class_name": "Activation", "name": "activation_13", "config": {"activation": "relu", "trainable": true, "name": "activation_13"}, "inbound_nodes": [[["batch_normalization_13", 0, 0, {}]]]}, {"class_name": "Add", "name": "add_3", "config": {"trainable": true, "name": "add_3"}, "inbound_nodes": [[["max_pooling1d_3", 0, 0, {}], ["activation_13", 0, 0, {}]]]}, {"class_name": "BatchNormalization", "name": "batch_normalization_14", "config": {"gamma_initializer": {"class_name": "Ones", "config": {}}, "trainable": true, "name": "batch_normalization_14", "momentum": 0.99, "moving_mean_initializer": {"class_name": "Zeros", "config": {}}, "axis": -1, "center": true, "beta_initializer": {"class_name": "Zeros", "config": {}}, "gamma_constraint": null, "epsilon": 0.001, "gamma_regularizer": null, "beta_constraint": null, "scale": true, "beta_regularizer": null, "moving_variance_initializer": {"class_name": "Ones", "config": {}}}, "inbound_nodes": [[["add_3", 0, 0, {}]]]}, {"class_name": "Activation", "name": "activation_14", "config": {"activation": "relu", "trainable": true, "name": "activation_14"}, "inbound_nodes": [[["batch_normalization_14", 0, 0, {}]]]}, {"class_name": "SeparableConv1D", "name": "separable_conv1d_22", "config": {"bias_initializer": {"class_name": "Zeros", "config": {}}, "depth_multiplier": 1, "trainable": true, "name": "separable_conv1d_22", "filters": 32, "padding": "same", "dilation_rate": [1], "strides": [2], "pointwise_initializer": {"class_name": "VarianceScaling", "config": {"scale": 1.0, "mode": "fan_avg", "distribution": "uniform", "seed": null}}, "depthwise_regularizer": null, "depthwise_initializer": {"class_name": "VarianceScaling", "config": {"scale": 1.0, "mode": "fan_avg", "distribution": "uniform", "seed": null}}, "pointwise_constraint": null, "activation": "linear", "activity_regularizer": null, "bias_constraint": null, "data_format": "channels_last", "use_bias": true, "kernel_size": [16], "depthwise_constraint": null, "pointwise_regularizer": null, "bias_regularizer": null}, "inbound_nodes": [[["activation_14", 0, 0, {}]]]}, {"class_name": "SeparableConv1D", "name": "separable_conv1d_23", "config": {"bias_initializer": {"class_name": "Zeros", "config": {}}, "depth_multiplier": 1, "trainable": true, "name": "separable_conv1d_23", "filters": 32, "padding": "same", "dilation_rate": [1], "strides": [2], "pointwise_initializer": {"class_name": "VarianceScaling", "config": {"scale": 1.0, "mode": "fan_avg", "distribution": "uniform", "seed": null}}, "depthwise_regularizer": null, "depthwise_initializer": {"class_name": "VarianceScaling", "config": {"scale": 1.0, "mode": "fan_avg", "distribution": "uniform", "seed": null}}, "pointwise_constraint": null, "activation": "linear", "activity_regularizer": null, "bias_constraint": null, "data_format": "channels_last", "use_bias": true, "kernel_size": [32], "depthwise_constraint": null, "pointwise_regularizer": null, "bias_regularizer": null}, "inbound_nodes": [[["activation_14", 0, 0, {}]]]}, {"class_name": "Concatenate", "name": "concatenate_8", "config": {"axis": 2, "trainable": true, "name": "concatenate_8"}, "inbound_nodes": [[["separable_conv1d_22", 0, 0, {}], ["separable_conv1d_23", 0, 0, {}]]]}, {"class_name": "SeparableConv1D", "name": "separable_conv1d_24", "config": {"bias_initializer": {"class_name": "Zeros", "config": {}}, "depth_multiplier": 1, "trainable": true, "name": "separable_conv1d_24", "filters": 32, "padding": "same", "dilation_rate": [1], "strides": [1], "pointwise_initializer": {"class_name": "VarianceScaling", "config": {"scale": 1.0, "mode": "fan_avg", "distribution": "uniform", "seed": null}}, "depthwise_regularizer": null, "depthwise_initializer": {"class_name": "VarianceScaling", "config": {"scale": 1.0, "mode": "fan_avg", "distribution": "uniform", "seed": null}}, "pointwise_constraint": null, "activation": "linear", "activity_regularizer": null, "bias_constraint": null, "data_format": "channels_last", "use_bias": true, "kernel_size": [2], "depthwise_constraint": null, "pointwise_regularizer": null, "bias_regularizer": null}, "inbound_nodes": [[["concatenate_8", 0, 0, {}]]]}, {"class_name": "BatchNormalization", "name": "batch_normalization_15", "config": {"gamma_initializer": {"class_name": "Ones", "config": {}}, "trainable": true, "name": "batch_normalization_15", "momentum": 0.99, "moving_mean_initializer": {"class_name": "Zeros", "config": {}}, "axis": -1, "center": true, "beta_initializer": {"class_name": "Zeros", "config": {}}, "gamma_constraint": null, "epsilon": 0.001, "gamma_regularizer": null, "beta_constraint": null, "scale": true, "beta_regularizer": null, "moving_variance_initializer": {"class_name": "Ones", "config": {}}}, "inbound_nodes": [[["separable_conv1d_24", 0, 0, {}]]]}, {"class_name": "Activation", "name": "activation_15", "config": {"activation": "relu", "trainable": true, "name": "activation_15"}, "inbound_nodes": [[["batch_normalization_15", 0, 0, {}]]]}, {"class_name": "BatchNormalization", "name": "batch_normalization_16", "config": {"gamma_initializer": {"class_name": "Ones", "config": {}}, "trainable": true, "name": "batch_normalization_16", "momentum": 0.99, "moving_mean_initializer": {"class_name": "Zeros", "config": {}}, "axis": -1, "center": true, "beta_initializer": {"class_name": "Zeros", "config": {}}, "gamma_constraint": null, "epsilon": 0.001, "gamma_regularizer": null, "beta_constraint": null, "scale": true, "beta_regularizer": null, "moving_variance_initializer": {"class_name": "Ones", "config": {}}}, "inbound_nodes": [[["activation_15", 0, 0, {}]]]}, {"class_name": "Activation", "name": "activation_16", "config": {"activation": "relu", "trainable": true, "name": "activation_16"}, "inbound_nodes": [[["batch_normalization_16", 0, 0, {}]]]}, {"class_name": "Dropout", "name": "dropout_4", "config": {"seed": null, "trainable": true, "name": "dropout_4", "noise_shape": null, "rate": 0.3}, "inbound_nodes": [[["activation_16", 0, 0, {}]]]}, {"class_name": "SeparableConv1D", "name": "separable_conv1d_25", "config": {"bias_initializer": {"class_name": "Zeros", "config": {}}, "depth_multiplier": 1, "trainable": true, "name": "separable_conv1d_25", "filters": 32, "padding": "same", "dilation_rate": [1], "strides": [1], "pointwise_initializer": {"class_name": "VarianceScaling", "config": {"scale": 1.0, "mode": "fan_avg", "distribution": "uniform", "seed": null}}, "depthwise_regularizer": null, "depthwise_initializer": {"class_name": "VarianceScaling", "config": {"scale": 1.0, "mode": "fan_avg", "distribution": "uniform", "seed": null}}, "pointwise_constraint": null, "activation": "linear", "activity_regularizer": null, "bias_constraint": null, "data_format": "channels_last", "use_bias": true, "kernel_size": [16], "depthwise_constraint": null, "pointwise_regularizer": null, "bias_regularizer": null}, "inbound_nodes": [[["dropout_4", 0, 0, {}]]]}, {"class_name": "SeparableConv1D", "name": "separable_conv1d_26", "config": {"bias_initializer": {"class_name": "Zeros", "config": {}}, "depth_multiplier": 1, "trainable": true, "name": "separable_conv1d_26", "filters": 32, "padding": "same", "dilation_rate": [1], "strides": [1], "pointwise_initializer": {"class_name": "VarianceScaling", "config": {"scale": 1.0, "mode": "fan_avg", "distribution": "uniform", "seed": null}}, "depthwise_regularizer": null, "depthwise_initializer": {"class_name": "VarianceScaling", "config": {"scale": 1.0, "mode": "fan_avg", "distribution": "uniform", "seed": null}}, "pointwise_constraint": null, "activation": "linear", "activity_regularizer": null, "bias_constraint": null, "data_format": "channels_last", "use_bias": true, "kernel_size": [32], "depthwise_constraint": null, "pointwise_regularizer": null, "bias_regularizer": null}, "inbound_nodes": [[["dropout_4", 0, 0, {}]]]}, {"class_name": "Concatenate", "name": "concatenate_9", "config": {"axis": 2, "trainable": true, "name": "concatenate_9"}, "inbound_nodes": [[["separable_conv1d_25", 0, 0, {}], ["separable_conv1d_26", 0, 0, {}]]]}, {"class_name": "SeparableConv1D", "name": "separable_conv1d_27", "config": {"bias_initializer": {"class_name": "Zeros", "config": {}}, "depth_multiplier": 1, "trainable": true, "name": "separable_conv1d_27", "filters": 32, "padding": "same", "dilation_rate": [1], "strides": [1], "pointwise_initializer": {"class_name": "VarianceScaling", "config": {"scale": 1.0, "mode": "fan_avg", "distribution": "uniform", "seed": null}}, "depthwise_regularizer": null, "depthwise_initializer": {"class_name": "VarianceScaling", "config": {"scale": 1.0, "mode": "fan_avg", "distribution": "uniform", "seed": null}}, "pointwise_constraint": null, "activation": "linear", "activity_regularizer": null, "bias_constraint": null, "data_format": "channels_last", "use_bias": true, "kernel_size": [1], "depthwise_constraint": null, "pointwise_regularizer": null, "bias_regularizer": null}, "inbound_nodes": [[["concatenate_9", 0, 0, {}]]]}, {"class_name": "BatchNormalization", "name": "batch_normalization_17", "config": {"gamma_initializer": {"class_name": "Ones", "config": {}}, "trainable": true, "name": "batch_normalization_17", "momentum": 0.99, "moving_mean_initializer": {"class_name": "Zeros", "config": {}}, "axis": -1, "center": true, "beta_initializer": {"class_name": "Zeros", "config": {}}, "gamma_constraint": null, "epsilon": 0.001, "gamma_regularizer": null, "beta_constraint": null, "scale": true, "beta_regularizer": null, "moving_variance_initializer": {"class_name": "Ones", "config": {}}}, "inbound_nodes": [[["separable_conv1d_27", 0, 0, {}]]]}, {"class_name": "MaxPooling1D", "name": "max_pooling1d_4", "config": {"pool_size": [2], "strides": [2], "trainable": true, "name": "max_pooling1d_4", "data_format": "channels_last", "padding": "valid"}, "inbound_nodes": [[["add_3", 0, 0, {}]]]}, {"class_name": "Activation", "name": "activation_17", "config": {"activation": "relu", "trainable": true, "name": "activation_17"}, "inbound_nodes": [[["batch_normalization_17", 0, 0, {}]]]}, {"class_name": "Add", "name": "add_4", "config": {"trainable": true, "name": "add_4"}, "inbound_nodes": [[["max_pooling1d_4", 0, 0, {}], ["activation_17", 0, 0, {}]]]}, {"class_name": "BatchNormalization", "name": "batch_normalization_18", "config": {"gamma_initializer": {"class_name": "Ones", "config": {}}, "trainable": true, "name": "batch_normalization_18", "momentum": 0.99, "moving_mean_initializer": {"class_name": "Zeros", "config": {}}, "axis": -1, "center": true, "beta_initializer": {"class_name": "Zeros", "config": {}}, "gamma_constraint": null, "epsilon": 0.001, "gamma_regularizer": null, "beta_constraint": null, "scale": true, "beta_regularizer": null, "moving_variance_initializer": {"class_name": "Ones", "config": {}}}, "inbound_nodes": [[["add_4", 0, 0, {}]]]}, {"class_name": "Activation", "name": "activation_18", "config": {"activation": "relu", "trainable": true, "name": "activation_18"}, "inbound_nodes": [[["batch_normalization_18", 0, 0, {}]]]}, {"class_name": "SeparableConv1D", "name": "separable_conv1d_28", "config": {"bias_initializer": {"class_name": "Zeros", "config": {}}, "depth_multiplier": 1, "trainable": true, "name": "separable_conv1d_28", "filters": 64, "padding": "same", "dilation_rate": [1], "strides": [1], "pointwise_initializer": {"class_name": "VarianceScaling", "config": {"scale": 1.0, "mode": "fan_avg", "distribution": "uniform", "seed": null}}, "depthwise_regularizer": null, "depthwise_initializer": {"class_name": "VarianceScaling", "config": {"scale": 1.0, "mode": "fan_avg", "distribution": "uniform", "seed": null}}, "pointwise_constraint": null, "activation": "linear", "activity_regularizer": null, "bias_constraint": null, "data_format": "channels_last", "use_bias": true, "kernel_size": [16], "depthwise_constraint": null, "pointwise_regularizer": null, "bias_regularizer": null}, "inbound_nodes": [[["activation_18", 0, 0, {}]]]}, {"class_name": "SeparableConv1D", "name": "separable_conv1d_29", "config": {"bias_initializer": {"class_name": "Zeros", "config": {}}, "depth_multiplier": 1, "trainable": true, "name": "separable_conv1d_29", "filters": 64, "padding": "same", "dilation_rate": [1], "strides": [1], "pointwise_initializer": {"class_name": "VarianceScaling", "config": {"scale": 1.0, "mode": "fan_avg", "distribution": "uniform", "seed": null}}, "depthwise_regularizer": null, "depthwise_initializer": {"class_name": "VarianceScaling", "config": {"scale": 1.0, "mode": "fan_avg", "distribution": "uniform", "seed": null}}, "pointwise_constraint": null, "activation": "linear", "activity_regularizer": null, "bias_constraint": null, "data_format": "channels_last", "use_bias": true, "kernel_size": [32], "depthwise_constraint": null, "pointwise_regularizer": null, "bias_regularizer": null}, "inbound_nodes": [[["activation_18", 0, 0, {}]]]}, {"class_name": "Concatenate", "name": "concatenate_10", "config": {"axis": 2, "trainable": true, "name": "concatenate_10"}, "inbound_nodes": [[["separable_conv1d_28", 0, 0, {}], ["separable_conv1d_29", 0, 0, {}]]]}, {"class_name": "SeparableConv1D", "name": "separable_conv1d_30", "config": {"bias_initializer": {"class_name": "Zeros", "config": {}}, "depth_multiplier": 1, "trainable": true, "name": "separable_conv1d_30", "filters": 64, "padding": "same", "dilation_rate": [1], "strides": [1], "pointwise_initializer": {"class_name": "VarianceScaling", "config": {"scale": 1.0, "mode": "fan_avg", "distribution": "uniform", "seed": null}}, "depthwise_regularizer": null, "depthwise_initializer": {"class_name": "VarianceScaling", "config": {"scale": 1.0, "mode": "fan_avg", "distribution": "uniform", "seed": null}}, "pointwise_constraint": null, "activation": "linear", "activity_regularizer": null, "bias_constraint": null, "data_format": "channels_last", "use_bias": true, "kernel_size": [1], "depthwise_constraint": null, "pointwise_regularizer": null, "bias_regularizer": null}, "inbound_nodes": [[["concatenate_10", 0, 0, {}]]]}, {"class_name": "BatchNormalization", "name": "batch_normalization_19", "config": {"gamma_initializer": {"class_name": "Ones", "config": {}}, "trainable": true, "name": "batch_normalization_19", "momentum": 0.99, "moving_mean_initializer": {"class_name": "Zeros", "config": {}}, "axis": -1, "center": true, "beta_initializer": {"class_name": "Zeros", "config": {}}, "gamma_constraint": null, "epsilon": 0.001, "gamma_regularizer": null, "beta_constraint": null, "scale": true, "beta_regularizer": null, "moving_variance_initializer": {"class_name": "Ones", "config": {}}}, "inbound_nodes": [[["separable_conv1d_30", 0, 0, {}]]]}, {"class_name": "Activation", "name": "activation_19", "config": {"activation": "relu", "trainable": true, "name": "activation_19"}, "inbound_nodes": [[["batch_normalization_19", 0, 0, {}]]]}, {"class_name": "BatchNormalization", "name": "batch_normalization_20", "config": {"gamma_initializer": {"class_name": "Ones", "config": {}}, "trainable": true, "name": "batch_normalization_20", "momentum": 0.99, "moving_mean_initializer": {"class_name": "Zeros", "config": {}}, "axis": -1, "center": true, "beta_initializer": {"class_name": "Zeros", "config": {}}, "gamma_constraint": null, "epsilon": 0.001, "gamma_regularizer": null, "beta_constraint": null, "scale": true, "beta_regularizer": null, "moving_variance_initializer": {"class_name": "Ones", "config": {}}}, "inbound_nodes": [[["activation_19", 0, 0, {}]]]}, {"class_name": "Activation", "name": "activation_20", "config": {"activation": "relu", "trainable": true, "name": "activation_20"}, "inbound_nodes": [[["batch_normalization_20", 0, 0, {}]]]}, {"class_name": "Dropout", "name": "dropout_5", "config": {"seed": null, "trainable": true, "name": "dropout_5", "noise_shape": null, "rate": 0.3}, "inbound_nodes": [[["activation_20", 0, 0, {}]]]}, {"class_name": "SeparableConv1D", "name": "separable_conv1d_31", "config": {"bias_initializer": {"class_name": "Zeros", "config": {}}, "depth_multiplier": 1, "trainable": true, "name": "separable_conv1d_31", "filters": 64, "padding": "same", "dilation_rate": [1], "strides": [1], "pointwise_initializer": {"class_name": "VarianceScaling", "config": {"scale": 1.0, "mode": "fan_avg", "distribution": "uniform", "seed": null}}, "depthwise_regularizer": null, "depthwise_initializer": {"class_name": "VarianceScaling", "config": {"scale": 1.0, "mode": "fan_avg", "distribution": "uniform", "seed": null}}, "pointwise_constraint": null, "activation": "linear", "activity_regularizer": null, "bias_constraint": null, "data_format": "channels_last", "use_bias": true, "kernel_size": [16], "depthwise_constraint": null, "pointwise_regularizer": null, "bias_regularizer": null}, "inbound_nodes": [[["dropout_5", 0, 0, {}]]]}, {"class_name": "SeparableConv1D", "name": "separable_conv1d_32", "config": {"bias_initializer": {"class_name": "Zeros", "config": {}}, "depth_multiplier": 1, "trainable": true, "name": "separable_conv1d_32", "filters": 64, "padding": "same", "dilation_rate": [1], "strides": [1], "pointwise_initializer": {"class_name": "VarianceScaling", "config": {"scale": 1.0, "mode": "fan_avg", "distribution": "uniform", "seed": null}}, "depthwise_regularizer": null, "depthwise_initializer": {"class_name": "VarianceScaling", "config": {"scale": 1.0, "mode": "fan_avg", "distribution": "uniform", "seed": null}}, "pointwise_constraint": null, "activation": "linear", "activity_regularizer": null, "bias_constraint": null, "data_format": "channels_last", "use_bias": true, "kernel_size": [32], "depthwise_constraint": null, "pointwise_regularizer": null, "bias_regularizer": null}, "inbound_nodes": [[["dropout_5", 0, 0, {}]]]}, {"class_name": "Concatenate", "name": "concatenate_11", "config": {"axis": 2, "trainable": true, "name": "concatenate_11"}, "inbound_nodes": [[["separable_conv1d_31", 0, 0, {}], ["separable_conv1d_32", 0, 0, {}]]]}, {"class_name": "SeparableConv1D", "name": "separable_conv1d_33", "config": {"bias_initializer": {"class_name": "Zeros", "config": {}}, "depth_multiplier": 1, "trainable": true, "name": "separable_conv1d_33", "filters": 64, "padding": "same", "dilation_rate": [1], "strides": [1], "pointwise_initializer": {"class_name": "VarianceScaling", "config": {"scale": 1.0, "mode": "fan_avg", "distribution": "uniform", "seed": null}}, "depthwise_regularizer": null, "depthwise_initializer": {"class_name": "VarianceScaling", "config": {"scale": 1.0, "mode": "fan_avg", "distribution": "uniform", "seed": null}}, "pointwise_constraint": null, "activation": "linear", "activity_regularizer": null, "bias_constraint": null, "data_format": "channels_last", "use_bias": true, "kernel_size": [1], "depthwise_constraint": null, "pointwise_regularizer": null, "bias_regularizer": null}, "inbound_nodes": [[["concatenate_11", 0, 0, {}]]]}, {"class_name": "MaxPooling1D", "name": "max_pooling1d_5", "config": {"pool_size": [1], "strides": [1], "trainable": true, "name": "max_pooling1d_5", "data_format": "channels_last", "padding": "valid"}, "inbound_nodes": [[["add_4", 0, 0, {}]]]}, {"class_name": "BatchNormalization", "name": "batch_normalization_21", "config": {"gamma_initializer": {"class_name": "Ones", "config": {}}, "trainable": true, "name": "batch_normalization_21", "momentum": 0.99, "moving_mean_initializer": {"class_name": "Zeros", "config": {}}, "axis": -1, "center": true, "beta_initializer": {"class_name": "Zeros", "config": {}}, "gamma_constraint": null, "epsilon": 0.001, "gamma_regularizer": null, "beta_constraint": null, "scale": true, "beta_regularizer": null, "moving_variance_initializer": {"class_name": "Ones", "config": {}}}, "inbound_nodes": [[["separable_conv1d_33", 0, 0, {}]]]}, {"class_name": "Lambda", "name": "lambda_1", "config": {"function": ["4wEAAAAAAAAAAgAAAAQAAABTAAAAcygAAAB0AABqAQB8AACDAQB9AQB0AABqAgB8AAB8AQBnAgBk\nAQBkAgCDAQFTKQNO2gRheGlz6QIAAAApA9oBS9oKemVyb3NfbGlrZdoLY29uY2F0ZW5hdGUpAtoB\neNoBeakAcggAAAD6Ni9tZWRpYS91dXNlci9kYXRhLzk5NS1JQ1UgIHBsdXNlIGZldHVyZS9zcmMv\nbmV0d29yay5wedoHemVyb3BhZKQAAABzBAAAAAABDwE=\n", null, null], "trainable": true, "name": "lambda_1", "function_type": "lambda", "output_shape_type": "lambda", "arguments": {}, "output_shape": ["4wEAAAAAAAAAAgAAAAQAAABTAAAAczwAAAB0AAB8AACDAQB9AQB0AQB8AQCDAQBkAQBrAgBzJAB0\nAgCCAQB8AQBkAgAFGWQCADkDPHQDAHwBAIMBAFMpA07pAwAAAOkCAAAAKQTaBGxpc3TaA2xlbtoO\nQXNzZXJ0aW9uRXJyb3LaBXR1cGxlKQLaC2lucHV0X3NoYXBl2gVzaGFwZakAcgkAAAD6Ni9tZWRp\nYS91dXNlci9kYXRhLzk5NS1JQ1UgIHBsdXNlIGZldHVyZS9zcmMvbmV0d29yay5wedoUemVyb3Bh\nZF9vdXRwdXRfc2hhcGWoAAAAcwgAAAAAAQwBGAEOAQ==\n", null, null]}, "inbound_nodes": [[["max_pooling1d_5", 0, 0, {}]]]}, {"class_name": "Activation", "name": "activation_21", "config": {"activation": "relu", "trainable": true, "name": "activation_21"}, "inbound_nodes": [[["batch_normalization_21", 0, 0, {}]]]}, {"class_name": "Add", "name": "add_5", "config": {"trainable": true, "name": "add_5"}, "inbound_nodes": [[["lambda_1", 0, 0, {}], ["activation_21", 0, 0, {}]]]}, {"class_name": "BatchNormalization", "name": "batch_normalization_22", "config": {"gamma_initializer": {"class_name": "Ones", "config": {}}, "trainable": true, "name": "batch_normalization_22", "momentum": 0.99, "moving_mean_initializer": {"class_name": "Zeros", "config": {}}, "axis": -1, "center": true, "beta_initializer": {"class_name": "Zeros", "config": {}}, "gamma_constraint": null, "epsilon": 0.001, "gamma_regularizer": null, "beta_constraint": null, "scale": true, "beta_regularizer": null, "moving_variance_initializer": {"class_name": "Ones", "config": {}}}, "inbound_nodes": [[["add_5", 0, 0, {}]]]}, {"class_name": "Activation", "name": "activation_22", "config": {"activation": "relu", "trainable": true, "name": "activation_22"}, "inbound_nodes": [[["batch_normalization_22", 0, 0, {}]]]}, {"class_name": "SeparableConv1D", "name": "separable_conv1d_34", "config": {"bias_initializer": {"class_name": "Zeros", "config": {}}, "depth_multiplier": 1, "trainable": true, "name": "separable_conv1d_34", "filters": 64, "padding": "same", "dilation_rate": [1], "strides": [2], "pointwise_initializer": {"class_name": "VarianceScaling", "config": {"scale": 1.0, "mode": "fan_avg", "distribution": "uniform", "seed": null}}, "depthwise_regularizer": null, "depthwise_initializer": {"class_name": "VarianceScaling", "config": {"scale": 1.0, "mode": "fan_avg", "distribution": "uniform", "seed": null}}, "pointwise_constraint": null, "activation": "linear", "activity_regularizer": null, "bias_constraint": null, "data_format": "channels_last", "use_bias": true, "kernel_size": [16], "depthwise_constraint": null, "pointwise_regularizer": null, "bias_regularizer": null}, "inbound_nodes": [[["activation_22", 0, 0, {}]]]}, {"class_name": "SeparableConv1D", "name": "separable_conv1d_35", "config": {"bias_initializer": {"class_name": "Zeros", "config": {}}, "depth_multiplier": 1, "trainable": true, "name": "separable_conv1d_35", "filters": 64, "padding": "same", "dilation_rate": [1], "strides": [2], "pointwise_initializer": {"class_name": "VarianceScaling", "config": {"scale": 1.0, "mode": "fan_avg", "distribution": "uniform", "seed": null}}, "depthwise_regularizer": null, "depthwise_initializer": {"class_name": "VarianceScaling", "config": {"scale": 1.0, "mode": "fan_avg", "distribution": "uniform", "seed": null}}, "pointwise_constraint": null, "activation": "linear", "activity_regularizer": null, "bias_constraint": null, "data_format": "channels_last", "use_bias": true, "kernel_size": [32], "depthwise_constraint": null, "pointwise_regularizer": null, "bias_regularizer": null}, "inbound_nodes": [[["activation_22", 0, 0, {}]]]}, {"class_name": "Concatenate", "name": "concatenate_12", "config": {"axis": 2, "trainable": true, "name": "concatenate_12"}, "inbound_nodes": [[["separable_conv1d_34", 0, 0, {}], ["separable_conv1d_35", 0, 0, {}]]]}, {"class_name": "SeparableConv1D", "name": "separable_conv1d_36", "config": {"bias_initializer": {"class_name": "Zeros", "config": {}}, "depth_multiplier": 1, "trainable": true, "name": "separable_conv1d_36", "filters": 64, "padding": "same", "dilation_rate": [1], "strides": [1], "pointwise_initializer": {"class_name": "VarianceScaling", "config": {"scale": 1.0, "mode": "fan_avg", "distribution": "uniform", "seed": null}}, "depthwise_regularizer": null, "depthwise_initializer": {"class_name": "VarianceScaling", "config": {"scale": 1.0, "mode": "fan_avg", "distribution": "uniform", "seed": null}}, "pointwise_constraint": null, "activation": "linear", "activity_regularizer": null, "bias_constraint": null, "data_format": "channels_last", "use_bias": true, "kernel_size": [2], "depthwise_constraint": null, "pointwise_regularizer": null, "bias_regularizer": null}, "inbound_nodes": [[["concatenate_12", 0, 0, {}]]]}, {"class_name": "BatchNormalization", "name": "batch_normalization_23", "config": {"gamma_initializer": {"class_name": "Ones", "config": {}}, "trainable": true, "name": "batch_normalization_23", "momentum": 0.99, "moving_mean_initializer": {"class_name": "Zeros", "config": {}}, "axis": -1, "center": true, "beta_initializer": {"class_name": "Zeros", "config": {}}, "gamma_constraint": null, "epsilon": 0.001, "gamma_regularizer": null, "beta_constraint": null, "scale": true, "beta_regularizer": null, "moving_variance_initializer": {"class_name": "Ones", "config": {}}}, "inbound_nodes": [[["separable_conv1d_36", 0, 0, {}]]]}, {"class_name": "Activation", "name": "activation_23", "config": {"activation": "relu", "trainable": true, "name": "activation_23"}, "inbound_nodes": [[["batch_normalization_23", 0, 0, {}]]]}, {"class_name": "BatchNormalization", "name": "batch_normalization_24", "config": {"gamma_initializer": {"class_name": "Ones", "config": {}}, "trainable": true, "name": "batch_normalization_24", "momentum": 0.99, "moving_mean_initializer": {"class_name": "Zeros", "config": {}}, "axis": -1, "center": true, "beta_initializer": {"class_name": "Zeros", "config": {}}, "gamma_constraint": null, "epsilon": 0.001, "gamma_regularizer": null, "beta_constraint": null, "scale": true, "beta_regularizer": null, "moving_variance_initializer": {"class_name": "Ones", "config": {}}}, "inbound_nodes": [[["activation_23", 0, 0, {}]]]}, {"class_name": "Activation", "name": "activation_24", "config": {"activation": "relu", "trainable": true, "name": "activation_24"}, "inbound_nodes": [[["batch_normalization_24", 0, 0, {}]]]}, {"class_name": "Dropout", "name": "dropout_6", "config": {"seed": null, "trainable": true, "name": "dropout_6", "noise_shape": null, "rate": 0.3}, "inbound_nodes": [[["activation_24", 0, 0, {}]]]}, {"class_name": "SeparableConv1D", "name": "separable_conv1d_37", "config": {"bias_initializer": {"class_name": "Zeros", "config": {}}, "depth_multiplier": 1, "trainable": true, "name": "separable_conv1d_37", "filters": 64, "padding": "same", "dilation_rate": [1], "strides": [1], "pointwise_initializer": {"class_name": "VarianceScaling", "config": {"scale": 1.0, "mode": "fan_avg", "distribution": "uniform", "seed": null}}, "depthwise_regularizer": null, "depthwise_initializer": {"class_name": "VarianceScaling", "config": {"scale": 1.0, "mode": "fan_avg", "distribution": "uniform", "seed": null}}, "pointwise_constraint": null, "activation": "linear", "activity_regularizer": null, "bias_constraint": null, "data_format": "channels_last", "use_bias": true, "kernel_size": [16], "depthwise_constraint": null, "pointwise_regularizer": null, "bias_regularizer": null}, "inbound_nodes": [[["dropout_6", 0, 0, {}]]]}, {"class_name": "SeparableConv1D", "name": "separable_conv1d_38", "config": {"bias_initializer": {"class_name": "Zeros", "config": {}}, "depth_multiplier": 1, "trainable": true, "name": "separable_conv1d_38", "filters": 64, "padding": "same", "dilation_rate": [1], "strides": [1], "pointwise_initializer": {"class_name": "VarianceScaling", "config": {"scale": 1.0, "mode": "fan_avg", "distribution": "uniform", "seed": null}}, "depthwise_regularizer": null, "depthwise_initializer": {"class_name": "VarianceScaling", "config": {"scale": 1.0, "mode": "fan_avg", "distribution": "uniform", "seed": null}}, "pointwise_constraint": null, "activation": "linear", "activity_regularizer": null, "bias_constraint": null, "data_format": "channels_last", "use_bias": true, "kernel_size": [32], "depthwise_constraint": null, "pointwise_regularizer": null, "bias_regularizer": null}, "inbound_nodes": [[["dropout_6", 0, 0, {}]]]}, {"class_name": "Concatenate", "name": "concatenate_13", "config": {"axis": 2, "trainable": true, "name": "concatenate_13"}, "inbound_nodes": [[["separable_conv1d_37", 0, 0, {}], ["separable_conv1d_38", 0, 0, {}]]]}, {"class_name": "SeparableConv1D", "name": "separable_conv1d_39", "config": {"bias_initializer": {"class_name": "Zeros", "config": {}}, "depth_multiplier": 1, "trainable": true, "name": "separable_conv1d_39", "filters": 64, "padding": "same", "dilation_rate": [1], "strides": [1], "pointwise_initializer": {"class_name": "VarianceScaling", "config": {"scale": 1.0, "mode": "fan_avg", "distribution": "uniform", "seed": null}}, "depthwise_regularizer": null, "depthwise_initializer": {"class_name": "VarianceScaling", "config": {"scale": 1.0, "mode": "fan_avg", "distribution": "uniform", "seed": null}}, "pointwise_constraint": null, "activation": "linear", "activity_regularizer": null, "bias_constraint": null, "data_format": "channels_last", "use_bias": true, "kernel_size": [1], "depthwise_constraint": null, "pointwise_regularizer": null, "bias_regularizer": null}, "inbound_nodes": [[["concatenate_13", 0, 0, {}]]]}, {"class_name": "BatchNormalization", "name": "batch_normalization_25", "config": {"gamma_initializer": {"class_name": "Ones", "config": {}}, "trainable": true, "name": "batch_normalization_25", "momentum": 0.99, "moving_mean_initializer": {"class_name": "Zeros", "config": {}}, "axis": -1, "center": true, "beta_initializer": {"class_name": "Zeros", "config": {}}, "gamma_constraint": null, "epsilon": 0.001, "gamma_regularizer": null, "beta_constraint": null, "scale": true, "beta_regularizer": null, "moving_variance_initializer": {"class_name": "Ones", "config": {}}}, "inbound_nodes": [[["separable_conv1d_39", 0, 0, {}]]]}, {"class_name": "MaxPooling1D", "name": "max_pooling1d_6", "config": {"pool_size": [2], "strides": [2], "trainable": true, "name": "max_pooling1d_6", "data_format": "channels_last", "padding": "valid"}, "inbound_nodes": [[["add_5", 0, 0, {}]]]}, {"class_name": "Activation", "name": "activation_25", "config": {"activation": "relu", "trainable": true, "name": "activation_25"}, "inbound_nodes": [[["batch_normalization_25", 0, 0, {}]]]}, {"class_name": "Add", "name": "add_6", "config": {"trainable": true, "name": "add_6"}, "inbound_nodes": [[["max_pooling1d_6", 0, 0, {}], ["activation_25", 0, 0, {}]]]}, {"class_name": "BatchNormalization", "name": "batch_normalization_26", "config": {"gamma_initializer": {"class_name": "Ones", "config": {}}, "trainable": true, "name": "batch_normalization_26", "momentum": 0.99, "moving_mean_initializer": {"class_name": "Zeros", "config": {}}, "axis": -1, "center": true, "beta_initializer": {"class_name": "Zeros", "config": {}}, "gamma_constraint": null, "epsilon": 0.001, "gamma_regularizer": null, "beta_constraint": null, "scale": true, "beta_regularizer": null, "moving_variance_initializer": {"class_name": "Ones", "config": {}}}, "inbound_nodes": [[["add_6", 0, 0, {}]]]}, {"class_name": "Activation", "name": "activation_26", "config": {"activation": "relu", "trainable": true, "name": "activation_26"}, "inbound_nodes": [[["batch_normalization_26", 0, 0, {}]]]}, {"class_name": "SeparableConv1D", "name": "separable_conv1d_40", "config": {"bias_initializer": {"class_name": "Zeros", "config": {}}, "depth_multiplier": 1, "trainable": true, "name": "separable_conv1d_40", "filters": 64, "padding": "same", "dilation_rate": [1], "strides": [1], "pointwise_initializer": {"class_name": "VarianceScaling", "config": {"scale": 1.0, "mode": "fan_avg", "distribution": "uniform", "seed": null}}, "depthwise_regularizer": null, "depthwise_initializer": {"class_name": "VarianceScaling", "config": {"scale": 1.0, "mode": "fan_avg", "distribution": "uniform", "seed": null}}, "pointwise_constraint": null, "activation": "linear", "activity_regularizer": null, "bias_constraint": null, "data_format": "channels_last", "use_bias": true, "kernel_size": [16], "depthwise_constraint": null, "pointwise_regularizer": null, "bias_regularizer": null}, "inbound_nodes": [[["activation_26", 0, 0, {}]]]}, {"class_name": "SeparableConv1D", "name": "separable_conv1d_41", "config": {"bias_initializer": {"class_name": "Zeros", "config": {}}, "depth_multiplier": 1, "trainable": true, "name": "separable_conv1d_41", "filters": 64, "padding": "same", "dilation_rate": [1], "strides": [1], "pointwise_initializer": {"class_name": "VarianceScaling", "config": {"scale": 1.0, "mode": "fan_avg", "distribution": "uniform", "seed": null}}, "depthwise_regularizer": null, "depthwise_initializer": {"class_name": "VarianceScaling", "config": {"scale": 1.0, "mode": "fan_avg", "distribution": "uniform", "seed": null}}, "pointwise_constraint": null, "activation": "linear", "activity_regularizer": null, "bias_constraint": null, "data_format": "channels_last", "use_bias": true, "kernel_size": [32], "depthwise_constraint": null, "pointwise_regularizer": null, "bias_regularizer": null}, "inbound_nodes": [[["activation_26", 0, 0, {}]]]}, {"class_name": "Concatenate", "name": "concatenate_14", "config": {"axis": 2, "trainable": true, "name": "concatenate_14"}, "inbound_nodes": [[["separable_conv1d_40", 0, 0, {}], ["separable_conv1d_41", 0, 0, {}]]]}, {"class_name": "SeparableConv1D", "name": "separable_conv1d_42", "config": {"bias_initializer": {"class_name": "Zeros", "config": {}}, "depth_multiplier": 1, "trainable": true, "name": "separable_conv1d_42", "filters": 64, "padding": "same", "dilation_rate": [1], "strides": [1], "pointwise_initializer": {"class_name": "VarianceScaling", "config": {"scale": 1.0, "mode": "fan_avg", "distribution": "uniform", "seed": null}}, "depthwise_regularizer": null, "depthwise_initializer": {"class_name": "VarianceScaling", "config": {"scale": 1.0, "mode": "fan_avg", "distribution": "uniform", "seed": null}}, "pointwise_constraint": null, "activation": "linear", "activity_regularizer": null, "bias_constraint": null, "data_format": "channels_last", "use_bias": true, "kernel_size": [1], "depthwise_constraint": null, "pointwise_regularizer": null, "bias_regularizer": null}, "inbound_nodes": [[["concatenate_14", 0, 0, {}]]]}, {"class_name": "BatchNormalization", "name": "batch_normalization_27", "config": {"gamma_initializer": {"class_name": "Ones", "config": {}}, "trainable": true, "name": "batch_normalization_27", "momentum": 0.99, "moving_mean_initializer": {"class_name": "Zeros", "config": {}}, "axis": -1, "center": true, "beta_initializer": {"class_name": "Zeros", "config": {}}, "gamma_constraint": null, "epsilon": 0.001, "gamma_regularizer": null, "beta_constraint": null, "scale": true, "beta_regularizer": null, "moving_variance_initializer": {"class_name": "Ones", "config": {}}}, "inbound_nodes": [[["separable_conv1d_42", 0, 0, {}]]]}, {"class_name": "Activation", "name": "activation_27", "config": {"activation": "relu", "trainable": true, "name": "activation_27"}, "inbound_nodes": [[["batch_normalization_27", 0, 0, {}]]]}, {"class_name": "BatchNormalization", "name": "batch_normalization_28", "config": {"gamma_initializer": {"class_name": "Ones", "config": {}}, "trainable": true, "name": "batch_normalization_28", "momentum": 0.99, "moving_mean_initializer": {"class_name": "Zeros", "config": {}}, "axis": -1, "center": true, "beta_initializer": {"class_name": "Zeros", "config": {}}, "gamma_constraint": null, "epsilon": 0.001, "gamma_regularizer": null, "beta_constraint": null, "scale": true, "beta_regularizer": null, "moving_variance_initializer": {"class_name": "Ones", "config": {}}}, "inbound_nodes": [[["activation_27", 0, 0, {}]]]}, {"class_name": "Activation", "name": "activation_28", "config": {"activation": "relu", "trainable": true, "name": "activation_28"}, "inbound_nodes": [[["batch_normalization_28", 0, 0, {}]]]}, {"class_name": "Dropout", "name": "dropout_7", "config": {"seed": null, "trainable": true, "name": "dropout_7", "noise_shape": null, "rate": 0.3}, "inbound_nodes": [[["activation_28", 0, 0, {}]]]}, {"class_name": "SeparableConv1D", "name": "separable_conv1d_43", "config": {"bias_initializer": {"class_name": "Zeros", "config": {}}, "depth_multiplier": 1, "trainable": true, "name": "separable_conv1d_43", "filters": 64, "padding": "same", "dilation_rate": [1], "strides": [1], "pointwise_initializer": {"class_name": "VarianceScaling", "config": {"scale": 1.0, "mode": "fan_avg", "distribution": "uniform", "seed": null}}, "depthwise_regularizer": null, "depthwise_initializer": {"class_name": "VarianceScaling", "config": {"scale": 1.0, "mode": "fan_avg", "distribution": "uniform", "seed": null}}, "pointwise_constraint": null, "activation": "linear", "activity_regularizer": null, "bias_constraint": null, "data_format": "channels_last", "use_bias": true, "kernel_size": [16], "depthwise_constraint": null, "pointwise_regularizer": null, "bias_regularizer": null}, "inbound_nodes": [[["dropout_7", 0, 0, {}]]]}, {"class_name": "SeparableConv1D", "name": "separable_conv1d_44", "config": {"bias_initializer": {"class_name": "Zeros", "config": {}}, "depth_multiplier": 1, "trainable": true, "name": "separable_conv1d_44", "filters": 64, "padding": "same", "dilation_rate": [1], "strides": [1], "pointwise_initializer": {"class_name": "VarianceScaling", "config": {"scale": 1.0, "mode": "fan_avg", "distribution": "uniform", "seed": null}}, "depthwise_regularizer": null, "depthwise_initializer": {"class_name": "VarianceScaling", "config": {"scale": 1.0, "mode": "fan_avg", "distribution": "uniform", "seed": null}}, "pointwise_constraint": null, "activation": "linear", "activity_regularizer": null, "bias_constraint": null, "data_format": "channels_last", "use_bias": true, "kernel_size": [32], "depthwise_constraint": null, "pointwise_regularizer": null, "bias_regularizer": null}, "inbound_nodes": [[["dropout_7", 0, 0, {}]]]}, {"class_name": "Concatenate", "name": "concatenate_15", "config": {"axis": 2, "trainable": true, "name": "concatenate_15"}, "inbound_nodes": [[["separable_conv1d_43", 0, 0, {}], ["separable_conv1d_44", 0, 0, {}]]]}, {"class_name": "SeparableConv1D", "name": "separable_conv1d_45", "config": {"bias_initializer": {"class_name": "Zeros", "config": {}}, "depth_multiplier": 1, "trainable": true, "name": "separable_conv1d_45", "filters": 64, "padding": "same", "dilation_rate": [1], "strides": [1], "pointwise_initializer": {"class_name": "VarianceScaling", "config": {"scale": 1.0, "mode": "fan_avg", "distribution": "uniform", "seed": null}}, "depthwise_regularizer": null, "depthwise_initializer": {"class_name": "VarianceScaling", "config": {"scale": 1.0, "mode": "fan_avg", "distribution": "uniform", "seed": null}}, "pointwise_constraint": null, "activation": "linear", "activity_regularizer": null, "bias_constraint": null, "data_format": "channels_last", "use_bias": true, "kernel_size": [1], "depthwise_constraint": null, "pointwise_regularizer": null, "bias_regularizer": null}, "inbound_nodes": [[["concatenate_15", 0, 0, {}]]]}, {"class_name": "BatchNormalization", "name": "batch_normalization_29", "config": {"gamma_initializer": {"class_name": "Ones", "config": {}}, "trainable": true, "name": "batch_normalization_29", "momentum": 0.99, "moving_mean_initializer": {"class_name": "Zeros", "config": {}}, "axis": -1, "center": true, "beta_initializer": {"class_name": "Zeros", "config": {}}, "gamma_constraint": null, "epsilon": 0.001, "gamma_regularizer": null, "beta_constraint": null, "scale": true, "beta_regularizer": null, "moving_variance_initializer": {"class_name": "Ones", "config": {}}}, "inbound_nodes": [[["separable_conv1d_45", 0, 0, {}]]]}, {"class_name": "MaxPooling1D", "name": "max_pooling1d_7", "config": {"pool_size": [1], "strides": [1], "trainable": true, "name": "max_pooling1d_7", "data_format": "channels_last", "padding": "valid"}, "inbound_nodes": [[["add_6", 0, 0, {}]]]}, {"class_name": "Activation", "name": "activation_29", "config": {"activation": "relu", "trainable": true, "name": "activation_29"}, "inbound_nodes": [[["batch_normalization_29", 0, 0, {}]]]}, {"class_name": "Add", "name": "add_7", "config": {"trainable": true, "name": "add_7"}, "inbound_nodes": [[["max_pooling1d_7", 0, 0, {}], ["activation_29", 0, 0, {}]]]}, {"class_name": "BatchNormalization", "name": "batch_normalization_30", "config": {"gamma_initializer": {"class_name": "Ones", "config": {}}, "trainable": true, "name": "batch_normalization_30", "momentum": 0.99, "moving_mean_initializer": {"class_name": "Zeros", "config": {}}, "axis": -1, "center": true, "beta_initializer": {"class_name": "Zeros", "config": {}}, "gamma_constraint": null, "epsilon": 0.001, "gamma_regularizer": null, "beta_constraint": null, "scale": true, "beta_regularizer": null, "moving_variance_initializer": {"class_name": "Ones", "config": {}}}, "inbound_nodes": [[["add_7", 0, 0, {}]]]}, {"class_name": "Activation", "name": "activation_30", "config": {"activation": "relu", "trainable": true, "name": "activation_30"}, "inbound_nodes": [[["batch_normalization_30", 0, 0, {}]]]}, {"class_name": "SeparableConv1D", "name": "separable_conv1d_46", "config": {"bias_initializer": {"class_name": "Zeros", "config": {}}, "depth_multiplier": 1, "trainable": true, "name": "separable_conv1d_46", "filters": 64, "padding": "same", "dilation_rate": [1], "strides": [2], "pointwise_initializer": {"class_name": "VarianceScaling", "config": {"scale": 1.0, "mode": "fan_avg", "distribution": "uniform", "seed": null}}, "depthwise_regularizer": null, "depthwise_initializer": {"class_name": "VarianceScaling", "config": {"scale": 1.0, "mode": "fan_avg", "distribution": "uniform", "seed": null}}, "pointwise_constraint": null, "activation": "linear", "activity_regularizer": null, "bias_constraint": null, "data_format": "channels_last", "use_bias": true, "kernel_size": [16], "depthwise_constraint": null, "pointwise_regularizer": null, "bias_regularizer": null}, "inbound_nodes": [[["activation_30", 0, 0, {}]]]}, {"class_name": "SeparableConv1D", "name": "separable_conv1d_47", "config": {"bias_initializer": {"class_name": "Zeros", "config": {}}, "depth_multiplier": 1, "trainable": true, "name": "separable_conv1d_47", "filters": 64, "padding": "same", "dilation_rate": [1], "strides": [2], "pointwise_initializer": {"class_name": "VarianceScaling", "config": {"scale": 1.0, "mode": "fan_avg", "distribution": "uniform", "seed": null}}, "depthwise_regularizer": null, "depthwise_initializer": {"class_name": "VarianceScaling", "config": {"scale": 1.0, "mode": "fan_avg", "distribution": "uniform", "seed": null}}, "pointwise_constraint": null, "activation": "linear", "activity_regularizer": null, "bias_constraint": null, "data_format": "channels_last", "use_bias": true, "kernel_size": [32], "depthwise_constraint": null, "pointwise_regularizer": null, "bias_regularizer": null}, "inbound_nodes": [[["activation_30", 0, 0, {}]]]}, {"class_name": "Concatenate", "name": "concatenate_16", "config": {"axis": 2, "trainable": true, "name": "concatenate_16"}, "inbound_nodes": [[["separable_conv1d_46", 0, 0, {}], ["separable_conv1d_47", 0, 0, {}]]]}, {"class_name": "SeparableConv1D", "name": "separable_conv1d_48", "config": {"bias_initializer": {"class_name": "Zeros", "config": {}}, "depth_multiplier": 1, "trainable": true, "name": "separable_conv1d_48", "filters": 64, "padding": "same", "dilation_rate": [1], "strides": [1], "pointwise_initializer": {"class_name": "VarianceScaling", "config": {"scale": 1.0, "mode": "fan_avg", "distribution": "uniform", "seed": null}}, "depthwise_regularizer": null, "depthwise_initializer": {"class_name": "VarianceScaling", "config": {"scale": 1.0, "mode": "fan_avg", "distribution": "uniform", "seed": null}}, "pointwise_constraint": null, "activation": "linear", "activity_regularizer": null, "bias_constraint": null, "data_format": "channels_last", "use_bias": true, "kernel_size": [2], "depthwise_constraint": null, "pointwise_regularizer": null, "bias_regularizer": null}, "inbound_nodes": [[["concatenate_16", 0, 0, {}]]]}, {"class_name": "BatchNormalization", "name": "batch_normalization_31", "config": {"gamma_initializer": {"class_name": "Ones", "config": {}}, "trainable": true, "name": "batch_normalization_31", "momentum": 0.99, "moving_mean_initializer": {"class_name": "Zeros", "config": {}}, "axis": -1, "center": true, "beta_initializer": {"class_name": "Zeros", "config": {}}, "gamma_constraint": null, "epsilon": 0.001, "gamma_regularizer": null, "beta_constraint": null, "scale": true, "beta_regularizer": null, "moving_variance_initializer": {"class_name": "Ones", "config": {}}}, "inbound_nodes": [[["separable_conv1d_48", 0, 0, {}]]]}, {"class_name": "Activation", "name": "activation_31", "config": {"activation": "relu", "trainable": true, "name": "activation_31"}, "inbound_nodes": [[["batch_normalization_31", 0, 0, {}]]]}, {"class_name": "BatchNormalization", "name": "batch_normalization_32", "config": {"gamma_initializer": {"class_name": "Ones", "config": {}}, "trainable": true, "name": "batch_normalization_32", "momentum": 0.99, "moving_mean_initializer": {"class_name": "Zeros", "config": {}}, "axis": -1, "center": true, "beta_initializer": {"class_name": "Zeros", "config": {}}, "gamma_constraint": null, "epsilon": 0.001, "gamma_regularizer": null, "beta_constraint": null, "scale": true, "beta_regularizer": null, "moving_variance_initializer": {"class_name": "Ones", "config": {}}}, "inbound_nodes": [[["activation_31", 0, 0, {}]]]}, {"class_name": "Activation", "name": "activation_32", "config": {"activation": "relu", "trainable": true, "name": "activation_32"}, "inbound_nodes": [[["batch_normalization_32", 0, 0, {}]]]}, {"class_name": "Dropout", "name": "dropout_8", "config": {"seed": null, "trainable": true, "name": "dropout_8", "noise_shape": null, "rate": 0.3}, "inbound_nodes": [[["activation_32", 0, 0, {}]]]}, {"class_name": "SeparableConv1D", "name": "separable_conv1d_49", "config": {"bias_initializer": {"class_name": "Zeros", "config": {}}, "depth_multiplier": 1, "trainable": true, "name": "separable_conv1d_49", "filters": 64, "padding": "same", "dilation_rate": [1], "strides": [1], "pointwise_initializer": {"class_name": "VarianceScaling", "config": {"scale": 1.0, "mode": "fan_avg", "distribution": "uniform", "seed": null}}, "depthwise_regularizer": null, "depthwise_initializer": {"class_name": "VarianceScaling", "config": {"scale": 1.0, "mode": "fan_avg", "distribution": "uniform", "seed": null}}, "pointwise_constraint": null, "activation": "linear", "activity_regularizer": null, "bias_constraint": null, "data_format": "channels_last", "use_bias": true, "kernel_size": [16], "depthwise_constraint": null, "pointwise_regularizer": null, "bias_regularizer": null}, "inbound_nodes": [[["dropout_8", 0, 0, {}]]]}, {"class_name": "SeparableConv1D", "name": "separable_conv1d_50", "config": {"bias_initializer": {"class_name": "Zeros", "config": {}}, "depth_multiplier": 1, "trainable": true, "name": "separable_conv1d_50", "filters": 64, "padding": "same", "dilation_rate": [1], "strides": [1], "pointwise_initializer": {"class_name": "VarianceScaling", "config": {"scale": 1.0, "mode": "fan_avg", "distribution": "uniform", "seed": null}}, "depthwise_regularizer": null, "depthwise_initializer": {"class_name": "VarianceScaling", "config": {"scale": 1.0, "mode": "fan_avg", "distribution": "uniform", "seed": null}}, "pointwise_constraint": null, "activation": "linear", "activity_regularizer": null, "bias_constraint": null, "data_format": "channels_last", "use_bias": true, "kernel_size": [32], "depthwise_constraint": null, "pointwise_regularizer": null, "bias_regularizer": null}, "inbound_nodes": [[["dropout_8", 0, 0, {}]]]}, {"class_name": "Concatenate", "name": "concatenate_17", "config": {"axis": 2, "trainable": true, "name": "concatenate_17"}, "inbound_nodes": [[["separable_conv1d_49", 0, 0, {}], ["separable_conv1d_50", 0, 0, {}]]]}, {"class_name": "SeparableConv1D", "name": "separable_conv1d_51", "config": {"bias_initializer": {"class_name": "Zeros", "config": {}}, "depth_multiplier": 1, "trainable": true, "name": "separable_conv1d_51", "filters": 64, "padding": "same", "dilation_rate": [1], "strides": [1], "pointwise_initializer": {"class_name": "VarianceScaling", "config": {"scale": 1.0, "mode": "fan_avg", "distribution": "uniform", "seed": null}}, "depthwise_regularizer": null, "depthwise_initializer": {"class_name": "VarianceScaling", "config": {"scale": 1.0, "mode": "fan_avg", "distribution": "uniform", "seed": null}}, "pointwise_constraint": null, "activation": "linear", "activity_regularizer": null, "bias_constraint": null, "data_format": "channels_last", "use_bias": true, "kernel_size": [1], "depthwise_constraint": null, "pointwise_regularizer": null, "bias_regularizer": null}, "inbound_nodes": [[["concatenate_17", 0, 0, {}]]]}, {"class_name": "BatchNormalization", "name": "batch_normalization_33", "config": {"gamma_initializer": {"class_name": "Ones", "config": {}}, "trainable": true, "name": "batch_normalization_33", "momentum": 0.99, "moving_mean_initializer": {"class_name": "Zeros", "config": {}}, "axis": -1, "center": true, "beta_initializer": {"class_name": "Zeros", "config": {}}, "gamma_constraint": null, "epsilon": 0.001, "gamma_regularizer": null, "beta_constraint": null, "scale": true, "beta_regularizer": null, "moving_variance_initializer": {"class_name": "Ones", "config": {}}}, "inbound_nodes": [[["separable_conv1d_51", 0, 0, {}]]]}, {"class_name": "MaxPooling1D", "name": "max_pooling1d_8", "config": {"pool_size": [2], "strides": [2], "trainable": true, "name": "max_pooling1d_8", "data_format": "channels_last", "padding": "valid"}, "inbound_nodes": [[["add_7", 0, 0, {}]]]}, {"class_name": "Activation", "name": "activation_33", "config": {"activation": "relu", "trainable": true, "name": "activation_33"}, "inbound_nodes": [[["batch_normalization_33", 0, 0, {}]]]}, {"class_name": "Add", "name": "add_8", "config": {"trainable": true, "name": "add_8"}, "inbound_nodes": [[["max_pooling1d_8", 0, 0, {}], ["activation_33", 0, 0, {}]]]}, {"class_name": "BatchNormalization", "name": "batch_normalization_34", "config": {"gamma_initializer": {"class_name": "Ones", "config": {}}, "trainable": true, "name": "batch_normalization_34", "momentum": 0.99, "moving_mean_initializer": {"class_name": "Zeros", "config": {}}, "axis": -1, "center": true, "beta_initializer": {"class_name": "Zeros", "config": {}}, "gamma_constraint": null, "epsilon": 0.001, "gamma_regularizer": null, "beta_constraint": null, "scale": true, "beta_regularizer": null, "moving_variance_initializer": {"class_name": "Ones", "config": {}}}, "inbound_nodes": [[["add_8", 0, 0, {}]]]}, {"class_name": "Activation", "name": "activation_34", "config": {"activation": "relu", "trainable": true, "name": "activation_34"}, "inbound_nodes": [[["batch_normalization_34", 0, 0, {}]]]}, {"class_name": "SeparableConv1D", "name": "separable_conv1d_52", "config": {"bias_initializer": {"class_name": "Zeros", "config": {}}, "depth_multiplier": 1, "trainable": true, "name": "separable_conv1d_52", "filters": 128, "padding": "same", "dilation_rate": [1], "strides": [1], "pointwise_initializer": {"class_name": "VarianceScaling", "config": {"scale": 1.0, "mode": "fan_avg", "distribution": "uniform", "seed": null}}, "depthwise_regularizer": null, "depthwise_initializer": {"class_name": "VarianceScaling", "config": {"scale": 1.0, "mode": "fan_avg", "distribution": "uniform", "seed": null}}, "pointwise_constraint": null, "activation": "linear", "activity_regularizer": null, "bias_constraint": null, "data_format": "channels_last", "use_bias": true, "kernel_size": [16], "depthwise_constraint": null, "pointwise_regularizer": null, "bias_regularizer": null}, "inbound_nodes": [[["activation_34", 0, 0, {}]]]}, {"class_name": "SeparableConv1D", "name": "separable_conv1d_53", "config": {"bias_initializer": {"class_name": "Zeros", "config": {}}, "depth_multiplier": 1, "trainable": true, "name": "separable_conv1d_53", "filters": 128, "padding": "same", "dilation_rate": [1], "strides": [1], "pointwise_initializer": {"class_name": "VarianceScaling", "config": {"scale": 1.0, "mode": "fan_avg", "distribution": "uniform", "seed": null}}, "depthwise_regularizer": null, "depthwise_initializer": {"class_name": "VarianceScaling", "config": {"scale": 1.0, "mode": "fan_avg", "distribution": "uniform", "seed": null}}, "pointwise_constraint": null, "activation": "linear", "activity_regularizer": null, "bias_constraint": null, "data_format": "channels_last", "use_bias": true, "kernel_size": [32], "depthwise_constraint": null, "pointwise_regularizer": null, "bias_regularizer": null}, "inbound_nodes": [[["activation_34", 0, 0, {}]]]}, {"class_name": "Concatenate", "name": "concatenate_18", "config": {"axis": 2, "trainable": true, "name": "concatenate_18"}, "inbound_nodes": [[["separable_conv1d_52", 0, 0, {}], ["separable_conv1d_53", 0, 0, {}]]]}, {"class_name": "SeparableConv1D", "name": "separable_conv1d_54", "config": {"bias_initializer": {"class_name": "Zeros", "config": {}}, "depth_multiplier": 1, "trainable": true, "name": "separable_conv1d_54", "filters": 128, "padding": "same", "dilation_rate": [1], "strides": [1], "pointwise_initializer": {"class_name": "VarianceScaling", "config": {"scale": 1.0, "mode": "fan_avg", "distribution": "uniform", "seed": null}}, "depthwise_regularizer": null, "depthwise_initializer": {"class_name": "VarianceScaling", "config": {"scale": 1.0, "mode": "fan_avg", "distribution": "uniform", "seed": null}}, "pointwise_constraint": null, "activation": "linear", "activity_regularizer": null, "bias_constraint": null, "data_format": "channels_last", "use_bias": true, "kernel_size": [1], "depthwise_constraint": null, "pointwise_regularizer": null, "bias_regularizer": null}, "inbound_nodes": [[["concatenate_18", 0, 0, {}]]]}, {"class_name": "BatchNormalization", "name": "batch_normalization_35", "config": {"gamma_initializer": {"class_name": "Ones", "config": {}}, "trainable": true, "name": "batch_normalization_35", "momentum": 0.99, "moving_mean_initializer": {"class_name": "Zeros", "config": {}}, "axis": -1, "center": true, "beta_initializer": {"class_name": "Zeros", "config": {}}, "gamma_constraint": null, "epsilon": 0.001, "gamma_regularizer": null, "beta_constraint": null, "scale": true, "beta_regularizer": null, "moving_variance_initializer": {"class_name": "Ones", "config": {}}}, "inbound_nodes": [[["separable_conv1d_54", 0, 0, {}]]]}, {"class_name": "Activation", "name": "activation_35", "config": {"activation": "relu", "trainable": true, "name": "activation_35"}, "inbound_nodes": [[["batch_normalization_35", 0, 0, {}]]]}, {"class_name": "BatchNormalization", "name": "batch_normalization_36", "config": {"gamma_initializer": {"class_name": "Ones", "config": {}}, "trainable": true, "name": "batch_normalization_36", "momentum": 0.99, "moving_mean_initializer": {"class_name": "Zeros", "config": {}}, "axis": -1, "center": true, "beta_initializer": {"class_name": "Zeros", "config": {}}, "gamma_constraint": null, "epsilon": 0.001, "gamma_regularizer": null, "beta_constraint": null, "scale": true, "beta_regularizer": null, "moving_variance_initializer": {"class_name": "Ones", "config": {}}}, "inbound_nodes": [[["activation_35", 0, 0, {}]]]}, {"class_name": "Activation", "name": "activation_36", "config": {"activation": "relu", "trainable": true, "name": "activation_36"}, "inbound_nodes": [[["batch_normalization_36", 0, 0, {}]]]}, {"class_name": "Dropout", "name": "dropout_9", "config": {"seed": null, "trainable": true, "name": "dropout_9", "noise_shape": null, "rate": 0.3}, "inbound_nodes": [[["activation_36", 0, 0, {}]]]}, {"class_name": "SeparableConv1D", "name": "separable_conv1d_55", "config": {"bias_initializer": {"class_name": "Zeros", "config": {}}, "depth_multiplier": 1, "trainable": true, "name": "separable_conv1d_55", "filters": 128, "padding": "same", "dilation_rate": [1], "strides": [1], "pointwise_initializer": {"class_name": "VarianceScaling", "config": {"scale": 1.0, "mode": "fan_avg", "distribution": "uniform", "seed": null}}, "depthwise_regularizer": null, "depthwise_initializer": {"class_name": "VarianceScaling", "config": {"scale": 1.0, "mode": "fan_avg", "distribution": "uniform", "seed": null}}, "pointwise_constraint": null, "activation": "linear", "activity_regularizer": null, "bias_constraint": null, "data_format": "channels_last", "use_bias": true, "kernel_size": [16], "depthwise_constraint": null, "pointwise_regularizer": null, "bias_regularizer": null}, "inbound_nodes": [[["dropout_9", 0, 0, {}]]]}, {"class_name": "SeparableConv1D", "name": "separable_conv1d_56", "config": {"bias_initializer": {"class_name": "Zeros", "config": {}}, "depth_multiplier": 1, "trainable": true, "name": "separable_conv1d_56", "filters": 128, "padding": "same", "dilation_rate": [1], "strides": [1], "pointwise_initializer": {"class_name": "VarianceScaling", "config": {"scale": 1.0, "mode": "fan_avg", "distribution": "uniform", "seed": null}}, "depthwise_regularizer": null, "depthwise_initializer": {"class_name": "VarianceScaling", "config": {"scale": 1.0, "mode": "fan_avg", "distribution": "uniform", "seed": null}}, "pointwise_constraint": null, "activation": "linear", "activity_regularizer": null, "bias_constraint": null, "data_format": "channels_last", "use_bias": true, "kernel_size": [32], "depthwise_constraint": null, "pointwise_regularizer": null, "bias_regularizer": null}, "inbound_nodes": [[["dropout_9", 0, 0, {}]]]}, {"class_name": "Concatenate", "name": "concatenate_19", "config": {"axis": 2, "trainable": true, "name": "concatenate_19"}, "inbound_nodes": [[["separable_conv1d_55", 0, 0, {}], ["separable_conv1d_56", 0, 0, {}]]]}, {"class_name": "SeparableConv1D", "name": "separable_conv1d_57", "config": {"bias_initializer": {"class_name": "Zeros", "config": {}}, "depth_multiplier": 1, "trainable": true, "name": "separable_conv1d_57", "filters": 128, "padding": "same", "dilation_rate": [1], "strides": [1], "pointwise_initializer": {"class_name": "VarianceScaling", "config": {"scale": 1.0, "mode": "fan_avg", "distribution": "uniform", "seed": null}}, "depthwise_regularizer": null, "depthwise_initializer": {"class_name": "VarianceScaling", "config": {"scale": 1.0, "mode": "fan_avg", "distribution": "uniform", "seed": null}}, "pointwise_constraint": null, "activation": "linear", "activity_regularizer": null, "bias_constraint": null, "data_format": "channels_last", "use_bias": true, "kernel_size": [1], "depthwise_constraint": null, "pointwise_regularizer": null, "bias_regularizer": null}, "inbound_nodes": [[["concatenate_19", 0, 0, {}]]]}, {"class_name": "MaxPooling1D", "name": "max_pooling1d_9", "config": {"pool_size": [1], "strides": [1], "trainable": true, "name": "max_pooling1d_9", "data_format": "channels_last", "padding": "valid"}, "inbound_nodes": [[["add_8", 0, 0, {}]]]}, {"class_name": "BatchNormalization", "name": "batch_normalization_37", "config": {"gamma_initializer": {"class_name": "Ones", "config": {}}, "trainable": true, "name": "batch_normalization_37", "momentum": 0.99, "moving_mean_initializer": {"class_name": "Zeros", "config": {}}, "axis": -1, "center": true, "beta_initializer": {"class_name": "Zeros", "config": {}}, "gamma_constraint": null, "epsilon": 0.001, "gamma_regularizer": null, "beta_constraint": null, "scale": true, "beta_regularizer": null, "moving_variance_initializer": {"class_name": "Ones", "config": {}}}, "inbound_nodes": [[["separable_conv1d_57", 0, 0, {}]]]}, {"class_name": "Lambda", "name": "lambda_2", "config": {"function": ["4wEAAAAAAAAAAgAAAAQAAABTAAAAcygAAAB0AABqAQB8AACDAQB9AQB0AABqAgB8AAB8AQBnAgBk\nAQBkAgCDAQFTKQNO2gRheGlz6QIAAAApA9oBS9oKemVyb3NfbGlrZdoLY29uY2F0ZW5hdGUpAtoB\neNoBeakAcggAAAD6Ni9tZWRpYS91dXNlci9kYXRhLzk5NS1JQ1UgIHBsdXNlIGZldHVyZS9zcmMv\nbmV0d29yay5wedoHemVyb3BhZKQAAABzBAAAAAABDwE=\n", null, null], "trainable": true, "name": "lambda_2", "function_type": "lambda", "output_shape_type": "lambda", "arguments": {}, "output_shape": ["4wEAAAAAAAAAAgAAAAQAAABTAAAAczwAAAB0AAB8AACDAQB9AQB0AQB8AQCDAQBkAQBrAgBzJAB0\nAgCCAQB8AQBkAgAFGWQCADkDPHQDAHwBAIMBAFMpA07pAwAAAOkCAAAAKQTaBGxpc3TaA2xlbtoO\nQXNzZXJ0aW9uRXJyb3LaBXR1cGxlKQLaC2lucHV0X3NoYXBl2gVzaGFwZakAcgkAAAD6Ni9tZWRp\nYS91dXNlci9kYXRhLzk5NS1JQ1UgIHBsdXNlIGZldHVyZS9zcmMvbmV0d29yay5wedoUemVyb3Bh\nZF9vdXRwdXRfc2hhcGWoAAAAcwgAAAAAAQwBGAEOAQ==\n", null, null]}, "inbound_nodes": [[["max_pooling1d_9", 0, 0, {}]]]}, {"class_name": "Activation", "name": "activation_37", "config": {"activation": "relu", "trainable": true, "name": "activation_37"}, "inbound_nodes": [[["batch_normalization_37", 0, 0, {}]]]}, {"class_name": "Add", "name": "add_9", "config": {"trainable": true, "name": "add_9"}, "inbound_nodes": [[["lambda_2", 0, 0, {}], ["activation_37", 0, 0, {}]]]}, {"class_name": "BatchNormalization", "name": "batch_normalization_38", "config": {"gamma_initializer": {"class_name": "Ones", "config": {}}, "trainable": true, "name": "batch_normalization_38", "momentum": 0.99, "moving_mean_initializer": {"class_name": "Zeros", "config": {}}, "axis": -1, "center": true, "beta_initializer": {"class_name": "Zeros", "config": {}}, "gamma_constraint": null, "epsilon": 0.001, "gamma_regularizer": null, "beta_constraint": null, "scale": true, "beta_regularizer": null, "moving_variance_initializer": {"class_name": "Ones", "config": {}}}, "inbound_nodes": [[["add_9", 0, 0, {}]]]}, {"class_name": "Activation", "name": "activation_38", "config": {"activation": "relu", "trainable": true, "name": "activation_38"}, "inbound_nodes": [[["batch_normalization_38", 0, 0, {}]]]}, {"class_name": "SeparableConv1D", "name": "separable_conv1d_58", "config": {"bias_initializer": {"class_name": "Zeros", "config": {}}, "depth_multiplier": 1, "trainable": true, "name": "separable_conv1d_58", "filters": 128, "padding": "same", "dilation_rate": [1], "strides": [2], "pointwise_initializer": {"class_name": "VarianceScaling", "config": {"scale": 1.0, "mode": "fan_avg", "distribution": "uniform", "seed": null}}, "depthwise_regularizer": null, "depthwise_initializer": {"class_name": "VarianceScaling", "config": {"scale": 1.0, "mode": "fan_avg", "distribution": "uniform", "seed": null}}, "pointwise_constraint": null, "activation": "linear", "activity_regularizer": null, "bias_constraint": null, "data_format": "channels_last", "use_bias": true, "kernel_size": [16], "depthwise_constraint": null, "pointwise_regularizer": null, "bias_regularizer": null}, "inbound_nodes": [[["activation_38", 0, 0, {}]]]}, {"class_name": "SeparableConv1D", "name": "separable_conv1d_59", "config": {"bias_initializer": {"class_name": "Zeros", "config": {}}, "depth_multiplier": 1, "trainable": true, "name": "separable_conv1d_59", "filters": 128, "padding": "same", "dilation_rate": [1], "strides": [2], "pointwise_initializer": {"class_name": "VarianceScaling", "config": {"scale": 1.0, "mode": "fan_avg", "distribution": "uniform", "seed": null}}, "depthwise_regularizer": null, "depthwise_initializer": {"class_name": "VarianceScaling", "config": {"scale": 1.0, "mode": "fan_avg", "distribution": "uniform", "seed": null}}, "pointwise_constraint": null, "activation": "linear", "activity_regularizer": null, "bias_constraint": null, "data_format": "channels_last", "use_bias": true, "kernel_size": [32], "depthwise_constraint": null, "pointwise_regularizer": null, "bias_regularizer": null}, "inbound_nodes": [[["activation_38", 0, 0, {}]]]}, {"class_name": "Concatenate", "name": "concatenate_20", "config": {"axis": 2, "trainable": true, "name": "concatenate_20"}, "inbound_nodes": [[["separable_conv1d_58", 0, 0, {}], ["separable_conv1d_59", 0, 0, {}]]]}, {"class_name": "SeparableConv1D", "name": "separable_conv1d_60", "config": {"bias_initializer": {"class_name": "Zeros", "config": {}}, "depth_multiplier": 1, "trainable": true, "name": "separable_conv1d_60", "filters": 128, "padding": "same", "dilation_rate": [1], "strides": [1], "pointwise_initializer": {"class_name": "VarianceScaling", "config": {"scale": 1.0, "mode": "fan_avg", "distribution": "uniform", "seed": null}}, "depthwise_regularizer": null, "depthwise_initializer": {"class_name": "VarianceScaling", "config": {"scale": 1.0, "mode": "fan_avg", "distribution": "uniform", "seed": null}}, "pointwise_constraint": null, "activation": "linear", "activity_regularizer": null, "bias_constraint": null, "data_format": "channels_last", "use_bias": true, "kernel_size": [2], "depthwise_constraint": null, "pointwise_regularizer": null, "bias_regularizer": null}, "inbound_nodes": [[["concatenate_20", 0, 0, {}]]]}, {"class_name": "BatchNormalization", "name": "batch_normalization_39", "config": {"gamma_initializer": {"class_name": "Ones", "config": {}}, "trainable": true, "name": "batch_normalization_39", "momentum": 0.99, "moving_mean_initializer": {"class_name": "Zeros", "config": {}}, "axis": -1, "center": true, "beta_initializer": {"class_name": "Zeros", "config": {}}, "gamma_constraint": null, "epsilon": 0.001, "gamma_regularizer": null, "beta_constraint": null, "scale": true, "beta_regularizer": null, "moving_variance_initializer": {"class_name": "Ones", "config": {}}}, "inbound_nodes": [[["separable_conv1d_60", 0, 0, {}]]]}, {"class_name": "Activation", "name": "activation_39", "config": {"activation": "relu", "trainable": true, "name": "activation_39"}, "inbound_nodes": [[["batch_normalization_39", 0, 0, {}]]]}, {"class_name": "BatchNormalization", "name": "batch_normalization_40", "config": {"gamma_initializer": {"class_name": "Ones", "config": {}}, "trainable": true, "name": "batch_normalization_40", "momentum": 0.99, "moving_mean_initializer": {"class_name": "Zeros", "config": {}}, "axis": -1, "center": true, "beta_initializer": {"class_name": "Zeros", "config": {}}, "gamma_constraint": null, "epsilon": 0.001, "gamma_regularizer": null, "beta_constraint": null, "scale": true, "beta_regularizer": null, "moving_variance_initializer": {"class_name": "Ones", "config": {}}}, "inbound_nodes": [[["activation_39", 0, 0, {}]]]}, {"class_name": "Activation", "name": "activation_40", "config": {"activation": "relu", "trainable": true, "name": "activation_40"}, "inbound_nodes": [[["batch_normalization_40", 0, 0, {}]]]}, {"class_name": "Dropout", "name": "dropout_10", "config": {"seed": null, "trainable": true, "name": "dropout_10", "noise_shape": null, "rate": 0.3}, "inbound_nodes": [[["activation_40", 0, 0, {}]]]}, {"class_name": "SeparableConv1D", "name": "separable_conv1d_61", "config": {"bias_initializer": {"class_name": "Zeros", "config": {}}, "depth_multiplier": 1, "trainable": true, "name": "separable_conv1d_61", "filters": 128, "padding": "same", "dilation_rate": [1], "strides": [1], "pointwise_initializer": {"class_name": "VarianceScaling", "config": {"scale": 1.0, "mode": "fan_avg", "distribution": "uniform", "seed": null}}, "depthwise_regularizer": null, "depthwise_initializer": {"class_name": "VarianceScaling", "config": {"scale": 1.0, "mode": "fan_avg", "distribution": "uniform", "seed": null}}, "pointwise_constraint": null, "activation": "linear", "activity_regularizer": null, "bias_constraint": null, "data_format": "channels_last", "use_bias": true, "kernel_size": [16], "depthwise_constraint": null, "pointwise_regularizer": null, "bias_regularizer": null}, "inbound_nodes": [[["dropout_10", 0, 0, {}]]]}, {"class_name": "SeparableConv1D", "name": "separable_conv1d_62", "config": {"bias_initializer": {"class_name": "Zeros", "config": {}}, "depth_multiplier": 1, "trainable": true, "name": "separable_conv1d_62", "filters": 128, "padding": "same", "dilation_rate": [1], "strides": [1], "pointwise_initializer": {"class_name": "VarianceScaling", "config": {"scale": 1.0, "mode": "fan_avg", "distribution": "uniform", "seed": null}}, "depthwise_regularizer": null, "depthwise_initializer": {"class_name": "VarianceScaling", "config": {"scale": 1.0, "mode": "fan_avg", "distribution": "uniform", "seed": null}}, "pointwise_constraint": null, "activation": "linear", "activity_regularizer": null, "bias_constraint": null, "data_format": "channels_last", "use_bias": true, "kernel_size": [32], "depthwise_constraint": null, "pointwise_regularizer": null, "bias_regularizer": null}, "inbound_nodes": [[["dropout_10", 0, 0, {}]]]}, {"class_name": "Concatenate", "name": "concatenate_21", "config": {"axis": 2, "trainable": true, "name": "concatenate_21"}, "inbound_nodes": [[["separable_conv1d_61", 0, 0, {}], ["separable_conv1d_62", 0, 0, {}]]]}, {"class_name": "SeparableConv1D", "name": "separable_conv1d_63", "config": {"bias_initializer": {"class_name": "Zeros", "config": {}}, "depth_multiplier": 1, "trainable": true, "name": "separable_conv1d_63", "filters": 128, "padding": "same", "dilation_rate": [1], "strides": [1], "pointwise_initializer": {"class_name": "VarianceScaling", "config": {"scale": 1.0, "mode": "fan_avg", "distribution": "uniform", "seed": null}}, "depthwise_regularizer": null, "depthwise_initializer": {"class_name": "VarianceScaling", "config": {"scale": 1.0, "mode": "fan_avg", "distribution": "uniform", "seed": null}}, "pointwise_constraint": null, "activation": "linear", "activity_regularizer": null, "bias_constraint": null, "data_format": "channels_last", "use_bias": true, "kernel_size": [1], "depthwise_constraint": null, "pointwise_regularizer": null, "bias_regularizer": null}, "inbound_nodes": [[["concatenate_21", 0, 0, {}]]]}, {"class_name": "BatchNormalization", "name": "batch_normalization_41", "config": {"gamma_initializer": {"class_name": "Ones", "config": {}}, "trainable": true, "name": "batch_normalization_41", "momentum": 0.99, "moving_mean_initializer": {"class_name": "Zeros", "config": {}}, "axis": -1, "center": true, "beta_initializer": {"class_name": "Zeros", "config": {}}, "gamma_constraint": null, "epsilon": 0.001, "gamma_regularizer": null, "beta_constraint": null, "scale": true, "beta_regularizer": null, "moving_variance_initializer": {"class_name": "Ones", "config": {}}}, "inbound_nodes": [[["separable_conv1d_63", 0, 0, {}]]]}, {"class_name": "MaxPooling1D", "name": "max_pooling1d_10", "config": {"pool_size": [2], "strides": [2], "trainable": true, "name": "max_pooling1d_10", "data_format": "channels_last", "padding": "valid"}, "inbound_nodes": [[["add_9", 0, 0, {}]]]}, {"class_name": "Activation", "name": "activation_41", "config": {"activation": "relu", "trainable": true, "name": "activation_41"}, "inbound_nodes": [[["batch_normalization_41", 0, 0, {}]]]}, {"class_name": "Add", "name": "add_10", "config": {"trainable": true, "name": "add_10"}, "inbound_nodes": [[["max_pooling1d_10", 0, 0, {}], ["activation_41", 0, 0, {}]]]}, {"class_name": "BatchNormalization", "name": "batch_normalization_42", "config": {"gamma_initializer": {"class_name": "Ones", "config": {}}, "trainable": true, "name": "batch_normalization_42", "momentum": 0.99, "moving_mean_initializer": {"class_name": "Zeros", "config": {}}, "axis": -1, "center": true, "beta_initializer": {"class_name": "Zeros", "config": {}}, "gamma_constraint": null, "epsilon": 0.001, "gamma_regularizer": null, "beta_constraint": null, "scale": true, "beta_regularizer": null, "moving_variance_initializer": {"class_name": "Ones", "config": {}}}, "inbound_nodes": [[["add_10", 0, 0, {}]]]}, {"class_name": "Activation", "name": "activation_42", "config": {"activation": "relu", "trainable": true, "name": "activation_42"}, "inbound_nodes": [[["batch_normalization_42", 0, 0, {}]]]}, {"class_name": "SeparableConv1D", "name": "separable_conv1d_64", "config": {"bias_initializer": {"class_name": "Zeros", "config": {}}, "depth_multiplier": 1, "trainable": true, "name": "separable_conv1d_64", "filters": 128, "padding": "same", "dilation_rate": [1], "strides": [1], "pointwise_initializer": {"class_name": "VarianceScaling", "config": {"scale": 1.0, "mode": "fan_avg", "distribution": "uniform", "seed": null}}, "depthwise_regularizer": null, "depthwise_initializer": {"class_name": "VarianceScaling", "config": {"scale": 1.0, "mode": "fan_avg", "distribution": "uniform", "seed": null}}, "pointwise_constraint": null, "activation": "linear", "activity_regularizer": null, "bias_constraint": null, "data_format": "channels_last", "use_bias": true, "kernel_size": [16], "depthwise_constraint": null, "pointwise_regularizer": null, "bias_regularizer": null}, "inbound_nodes": [[["activation_42", 0, 0, {}]]]}, {"class_name": "SeparableConv1D", "name": "separable_conv1d_65", "config": {"bias_initializer": {"class_name": "Zeros", "config": {}}, "depth_multiplier": 1, "trainable": true, "name": "separable_conv1d_65", "filters": 128, "padding": "same", "dilation_rate": [1], "strides": [1], "pointwise_initializer": {"class_name": "VarianceScaling", "config": {"scale": 1.0, "mode": "fan_avg", "distribution": "uniform", "seed": null}}, "depthwise_regularizer": null, "depthwise_initializer": {"class_name": "VarianceScaling", "config": {"scale": 1.0, "mode": "fan_avg", "distribution": "uniform", "seed": null}}, "pointwise_constraint": null, "activation": "linear", "activity_regularizer": null, "bias_constraint": null, "data_format": "channels_last", "use_bias": true, "kernel_size": [32], "depthwise_constraint": null, "pointwise_regularizer": null, "bias_regularizer": null}, "inbound_nodes": [[["activation_42", 0, 0, {}]]]}, {"class_name": "Concatenate", "name": "concatenate_22", "config": {"axis": 2, "trainable": true, "name": "concatenate_22"}, "inbound_nodes": [[["separable_conv1d_64", 0, 0, {}], ["separable_conv1d_65", 0, 0, {}]]]}, {"class_name": "SeparableConv1D", "name": "separable_conv1d_66", "config": {"bias_initializer": {"class_name": "Zeros", "config": {}}, "depth_multiplier": 1, "trainable": true, "name": "separable_conv1d_66", "filters": 128, "padding": "same", "dilation_rate": [1], "strides": [1], "pointwise_initializer": {"class_name": "VarianceScaling", "config": {"scale": 1.0, "mode": "fan_avg", "distribution": "uniform", "seed": null}}, "depthwise_regularizer": null, "depthwise_initializer": {"class_name": "VarianceScaling", "config": {"scale": 1.0, "mode": "fan_avg", "distribution": "uniform", "seed": null}}, "pointwise_constraint": null, "activation": "linear", "activity_regularizer": null, "bias_constraint": null, "data_format": "channels_last", "use_bias": true, "kernel_size": [1], "depthwise_constraint": null, "pointwise_regularizer": null, "bias_regularizer": null}, "inbound_nodes": [[["concatenate_22", 0, 0, {}]]]}, {"class_name": "BatchNormalization", "name": "batch_normalization_43", "config": {"gamma_initializer": {"class_name": "Ones", "config": {}}, "trainable": true, "name": "batch_normalization_43", "momentum": 0.99, "moving_mean_initializer": {"class_name": "Zeros", "config": {}}, "axis": -1, "center": true, "beta_initializer": {"class_name": "Zeros", "config": {}}, "gamma_constraint": null, "epsilon": 0.001, "gamma_regularizer": null, "beta_constraint": null, "scale": true, "beta_regularizer": null, "moving_variance_initializer": {"class_name": "Ones", "config": {}}}, "inbound_nodes": [[["separable_conv1d_66", 0, 0, {}]]]}, {"class_name": "Activation", "name": "activation_43", "config": {"activation": "relu", "trainable": true, "name": "activation_43"}, "inbound_nodes": [[["batch_normalization_43", 0, 0, {}]]]}, {"class_name": "BatchNormalization", "name": "batch_normalization_44", "config": {"gamma_initializer": {"class_name": "Ones", "config": {}}, "trainable": true, "name": "batch_normalization_44", "momentum": 0.99, "moving_mean_initializer": {"class_name": "Zeros", "config": {}}, "axis": -1, "center": true, "beta_initializer": {"class_name": "Zeros", "config": {}}, "gamma_constraint": null, "epsilon": 0.001, "gamma_regularizer": null, "beta_constraint": null, "scale": true, "beta_regularizer": null, "moving_variance_initializer": {"class_name": "Ones", "config": {}}}, "inbound_nodes": [[["activation_43", 0, 0, {}]]]}, {"class_name": "Activation", "name": "activation_44", "config": {"activation": "relu", "trainable": true, "name": "activation_44"}, "inbound_nodes": [[["batch_normalization_44", 0, 0, {}]]]}, {"class_name": "Dropout", "name": "dropout_11", "config": {"seed": null, "trainable": true, "name": "dropout_11", "noise_shape": null, "rate": 0.3}, "inbound_nodes": [[["activation_44", 0, 0, {}]]]}, {"class_name": "SeparableConv1D", "name": "separable_conv1d_67", "config": {"bias_initializer": {"class_name": "Zeros", "config": {}}, "depth_multiplier": 1, "trainable": true, "name": "separable_conv1d_67", "filters": 128, "padding": "same", "dilation_rate": [1], "strides": [1], "pointwise_initializer": {"class_name": "VarianceScaling", "config": {"scale": 1.0, "mode": "fan_avg", "distribution": "uniform", "seed": null}}, "depthwise_regularizer": null, "depthwise_initializer": {"class_name": "VarianceScaling", "config": {"scale": 1.0, "mode": "fan_avg", "distribution": "uniform", "seed": null}}, "pointwise_constraint": null, "activation": "linear", "activity_regularizer": null, "bias_constraint": null, "data_format": "channels_last", "use_bias": true, "kernel_size": [16], "depthwise_constraint": null, "pointwise_regularizer": null, "bias_regularizer": null}, "inbound_nodes": [[["dropout_11", 0, 0, {}]]]}, {"class_name": "SeparableConv1D", "name": "separable_conv1d_68", "config": {"bias_initializer": {"class_name": "Zeros", "config": {}}, "depth_multiplier": 1, "trainable": true, "name": "separable_conv1d_68", "filters": 128, "padding": "same", "dilation_rate": [1], "strides": [1], "pointwise_initializer": {"class_name": "VarianceScaling", "config": {"scale": 1.0, "mode": "fan_avg", "distribution": "uniform", "seed": null}}, "depthwise_regularizer": null, "depthwise_initializer": {"class_name": "VarianceScaling", "config": {"scale": 1.0, "mode": "fan_avg", "distribution": "uniform", "seed": null}}, "pointwise_constraint": null, "activation": "linear", "activity_regularizer": null, "bias_constraint": null, "data_format": "channels_last", "use_bias": true, "kernel_size": [32], "depthwise_constraint": null, "pointwise_regularizer": null, "bias_regularizer": null}, "inbound_nodes": [[["dropout_11", 0, 0, {}]]]}, {"class_name": "Concatenate", "name": "concatenate_23", "config": {"axis": 2, "trainable": true, "name": "concatenate_23"}, "inbound_nodes": [[["separable_conv1d_67", 0, 0, {}], ["separable_conv1d_68", 0, 0, {}]]]}, {"class_name": "SeparableConv1D", "name": "separable_conv1d_69", "config": {"bias_initializer": {"class_name": "Zeros", "config": {}}, "depth_multiplier": 1, "trainable": true, "name": "separable_conv1d_69", "filters": 128, "padding": "same", "dilation_rate": [1], "strides": [1], "pointwise_initializer": {"class_name": "VarianceScaling", "config": {"scale": 1.0, "mode": "fan_avg", "distribution": "uniform", "seed": null}}, "depthwise_regularizer": null, "depthwise_initializer": {"class_name": "VarianceScaling", "config": {"scale": 1.0, "mode": "fan_avg", "distribution": "uniform", "seed": null}}, "pointwise_constraint": null, "activation": "linear", "activity_regularizer": null, "bias_constraint": null, "data_format": "channels_last", "use_bias": true, "kernel_size": [1], "depthwise_constraint": null, "pointwise_regularizer": null, "bias_regularizer": null}, "inbound_nodes": [[["concatenate_23", 0, 0, {}]]]}, {"class_name": "BatchNormalization", "name": "batch_normalization_45", "config": {"gamma_initializer": {"class_name": "Ones", "config": {}}, "trainable": true, "name": "batch_normalization_45", "momentum": 0.99, "moving_mean_initializer": {"class_name": "Zeros", "config": {}}, "axis": -1, "center": true, "beta_initializer": {"class_name": "Zeros", "config": {}}, "gamma_constraint": null, "epsilon": 0.001, "gamma_regularizer": null, "beta_constraint": null, "scale": true, "beta_regularizer": null, "moving_variance_initializer": {"class_name": "Ones", "config": {}}}, "inbound_nodes": [[["separable_conv1d_69", 0, 0, {}]]]}, {"class_name": "MaxPooling1D", "name": "max_pooling1d_11", "config": {"pool_size": [1], "strides": [1], "trainable": true, "name": "max_pooling1d_11", "data_format": "channels_last", "padding": "valid"}, "inbound_nodes": [[["add_10", 0, 0, {}]]]}, {"class_name": "Activation", "name": "activation_45", "config": {"activation": "relu", "trainable": true, "name": "activation_45"}, "inbound_nodes": [[["batch_normalization_45", 0, 0, {}]]]}, {"class_name": "Add", "name": "add_11", "config": {"trainable": true, "name": "add_11"}, "inbound_nodes": [[["max_pooling1d_11", 0, 0, {}], ["activation_45", 0, 0, {}]]]}, {"class_name": "BatchNormalization", "name": "batch_normalization_46", "config": {"gamma_initializer": {"class_name": "Ones", "config": {}}, "trainable": true, "name": "batch_normalization_46", "momentum": 0.99, "moving_mean_initializer": {"class_name": "Zeros", "config": {}}, "axis": -1, "center": true, "beta_initializer": {"class_name": "Zeros", "config": {}}, "gamma_constraint": null, "epsilon": 0.001, "gamma_regularizer": null, "beta_constraint": null, "scale": true, "beta_regularizer": null, "moving_variance_initializer": {"class_name": "Ones", "config": {}}}, "inbound_nodes": [[["add_11", 0, 0, {}]]]}, {"class_name": "Activation", "name": "activation_46", "config": {"activation": "relu", "trainable": true, "name": "activation_46"}, "inbound_nodes": [[["batch_normalization_46", 0, 0, {}]]]}, {"class_name": "SeparableConv1D", "name": "separable_conv1d_70", "config": {"bias_initializer": {"class_name": "Zeros", "config": {}}, "depth_multiplier": 1, "trainable": true, "name": "separable_conv1d_70", "filters": 128, "padding": "same", "dilation_rate": [1], "strides": [2], "pointwise_initializer": {"class_name": "VarianceScaling", "config": {"scale": 1.0, "mode": "fan_avg", "distribution": "uniform", "seed": null}}, "depthwise_regularizer": null, "depthwise_initializer": {"class_name": "VarianceScaling", "config": {"scale": 1.0, "mode": "fan_avg", "distribution": "uniform", "seed": null}}, "pointwise_constraint": null, "activation": "linear", "activity_regularizer": null, "bias_constraint": null, "data_format": "channels_last", "use_bias": true, "kernel_size": [16], "depthwise_constraint": null, "pointwise_regularizer": null, "bias_regularizer": null}, "inbound_nodes": [[["activation_46", 0, 0, {}]]]}, {"class_name": "SeparableConv1D", "name": "separable_conv1d_71", "config": {"bias_initializer": {"class_name": "Zeros", "config": {}}, "depth_multiplier": 1, "trainable": true, "name": "separable_conv1d_71", "filters": 128, "padding": "same", "dilation_rate": [1], "strides": [2], "pointwise_initializer": {"class_name": "VarianceScaling", "config": {"scale": 1.0, "mode": "fan_avg", "distribution": "uniform", "seed": null}}, "depthwise_regularizer": null, "depthwise_initializer": {"class_name": "VarianceScaling", "config": {"scale": 1.0, "mode": "fan_avg", "distribution": "uniform", "seed": null}}, "pointwise_constraint": null, "activation": "linear", "activity_regularizer": null, "bias_constraint": null, "data_format": "channels_last", "use_bias": true, "kernel_size": [32], "depthwise_constraint": null, "pointwise_regularizer": null, "bias_regularizer": null}, "inbound_nodes": [[["activation_46", 0, 0, {}]]]}, {"class_name": "Concatenate", "name": "concatenate_24", "config": {"axis": 2, "trainable": true, "name": "concatenate_24"}, "inbound_nodes": [[["separable_conv1d_70", 0, 0, {}], ["separable_conv1d_71", 0, 0, {}]]]}, {"class_name": "SeparableConv1D", "name": "separable_conv1d_72", "config": {"bias_initializer": {"class_name": "Zeros", "config": {}}, "depth_multiplier": 1, "trainable": true, "name": "separable_conv1d_72", "filters": 128, "padding": "same", "dilation_rate": [1], "strides": [1], "pointwise_initializer": {"class_name": "VarianceScaling", "config": {"scale": 1.0, "mode": "fan_avg", "distribution": "uniform", "seed": null}}, "depthwise_regularizer": null, "depthwise_initializer": {"class_name": "VarianceScaling", "config": {"scale": 1.0, "mode": "fan_avg", "distribution": "uniform", "seed": null}}, "pointwise_constraint": null, "activation": "linear", "activity_regularizer": null, "bias_constraint": null, "data_format": "channels_last", "use_bias": true, "kernel_size": [2], "depthwise_constraint": null, "pointwise_regularizer": null, "bias_regularizer": null}, "inbound_nodes": [[["concatenate_24", 0, 0, {}]]]}, {"class_name": "BatchNormalization", "name": "batch_normalization_47", "config": {"gamma_initializer": {"class_name": "Ones", "config": {}}, "trainable": true, "name": "batch_normalization_47", "momentum": 0.99, "moving_mean_initializer": {"class_name": "Zeros", "config": {}}, "axis": -1, "center": true, "beta_initializer": {"class_name": "Zeros", "config": {}}, "gamma_constraint": null, "epsilon": 0.001, "gamma_regularizer": null, "beta_constraint": null, "scale": true, "beta_regularizer": null, "moving_variance_initializer": {"class_name": "Ones", "config": {}}}, "inbound_nodes": [[["separable_conv1d_72", 0, 0, {}]]]}, {"class_name": "Activation", "name": "activation_47", "config": {"activation": "relu", "trainable": true, "name": "activation_47"}, "inbound_nodes": [[["batch_normalization_47", 0, 0, {}]]]}, {"class_name": "BatchNormalization", "name": "batch_normalization_48", "config": {"gamma_initializer": {"class_name": "Ones", "config": {}}, "trainable": true, "name": "batch_normalization_48", "momentum": 0.99, "moving_mean_initializer": {"class_name": "Zeros", "config": {}}, "axis": -1, "center": true, "beta_initializer": {"class_name": "Zeros", "config": {}}, "gamma_constraint": null, "epsilon": 0.001, "gamma_regularizer": null, "beta_constraint": null, "scale": true, "beta_regularizer": null, "moving_variance_initializer": {"class_name": "Ones", "config": {}}}, "inbound_nodes": [[["activation_47", 0, 0, {}]]]}, {"class_name": "Activation", "name": "activation_48", "config": {"activation": "relu", "trainable": true, "name": "activation_48"}, "inbound_nodes": [[["batch_normalization_48", 0, 0, {}]]]}, {"class_name": "Dropout", "name": "dropout_12", "config": {"seed": null, "trainable": true, "name": "dropout_12", "noise_shape": null, "rate": 0.3}, "inbound_nodes": [[["activation_48", 0, 0, {}]]]}, {"class_name": "SeparableConv1D", "name": "separable_conv1d_73", "config": {"bias_initializer": {"class_name": "Zeros", "config": {}}, "depth_multiplier": 1, "trainable": true, "name": "separable_conv1d_73", "filters": 128, "padding": "same", "dilation_rate": [1], "strides": [1], "pointwise_initializer": {"class_name": "VarianceScaling", "config": {"scale": 1.0, "mode": "fan_avg", "distribution": "uniform", "seed": null}}, "depthwise_regularizer": null, "depthwise_initializer": {"class_name": "VarianceScaling", "config": {"scale": 1.0, "mode": "fan_avg", "distribution": "uniform", "seed": null}}, "pointwise_constraint": null, "activation": "linear", "activity_regularizer": null, "bias_constraint": null, "data_format": "channels_last", "use_bias": true, "kernel_size": [16], "depthwise_constraint": null, "pointwise_regularizer": null, "bias_regularizer": null}, "inbound_nodes": [[["dropout_12", 0, 0, {}]]]}, {"class_name": "SeparableConv1D", "name": "separable_conv1d_74", "config": {"bias_initializer": {"class_name": "Zeros", "config": {}}, "depth_multiplier": 1, "trainable": true, "name": "separable_conv1d_74", "filters": 128, "padding": "same", "dilation_rate": [1], "strides": [1], "pointwise_initializer": {"class_name": "VarianceScaling", "config": {"scale": 1.0, "mode": "fan_avg", "distribution": "uniform", "seed": null}}, "depthwise_regularizer": null, "depthwise_initializer": {"class_name": "VarianceScaling", "config": {"scale": 1.0, "mode": "fan_avg", "distribution": "uniform", "seed": null}}, "pointwise_constraint": null, "activation": "linear", "activity_regularizer": null, "bias_constraint": null, "data_format": "channels_last", "use_bias": true, "kernel_size": [32], "depthwise_constraint": null, "pointwise_regularizer": null, "bias_regularizer": null}, "inbound_nodes": [[["dropout_12", 0, 0, {}]]]}, {"class_name": "Concatenate", "name": "concatenate_25", "config": {"axis": 2, "trainable": true, "name": "concatenate_25"}, "inbound_nodes": [[["separable_conv1d_73", 0, 0, {}], ["separable_conv1d_74", 0, 0, {}]]]}, {"class_name": "SeparableConv1D", "name": "separable_conv1d_75", "config": {"bias_initializer": {"class_name": "Zeros", "config": {}}, "depth_multiplier": 1, "trainable": true, "name": "separable_conv1d_75", "filters": 128, "padding": "same", "dilation_rate": [1], "strides": [1], "pointwise_initializer": {"class_name": "VarianceScaling", "config": {"scale": 1.0, "mode": "fan_avg", "distribution": "uniform", "seed": null}}, "depthwise_regularizer": null, "depthwise_initializer": {"class_name": "VarianceScaling", "config": {"scale": 1.0, "mode": "fan_avg", "distribution": "uniform", "seed": null}}, "pointwise_constraint": null, "activation": "linear", "activity_regularizer": null, "bias_constraint": null, "data_format": "channels_last", "use_bias": true, "kernel_size": [1], "depthwise_constraint": null, "pointwise_regularizer": null, "bias_regularizer": null}, "inbound_nodes": [[["concatenate_25", 0, 0, {}]]]}, {"class_name": "BatchNormalization", "name": "batch_normalization_49", "config": {"gamma_initializer": {"class_name": "Ones", "config": {}}, "trainable": true, "name": "batch_normalization_49", "momentum": 0.99, "moving_mean_initializer": {"class_name": "Zeros", "config": {}}, "axis": -1, "center": true, "beta_initializer": {"class_name": "Zeros", "config": {}}, "gamma_constraint": null, "epsilon": 0.001, "gamma_regularizer": null, "beta_constraint": null, "scale": true, "beta_regularizer": null, "moving_variance_initializer": {"class_name": "Ones", "config": {}}}, "inbound_nodes": [[["separable_conv1d_75", 0, 0, {}]]]}, {"class_name": "MaxPooling1D", "name": "max_pooling1d_12", "config": {"pool_size": [2], "strides": [2], "trainable": true, "name": "max_pooling1d_12", "data_format": "channels_last", "padding": "valid"}, "inbound_nodes": [[["add_11", 0, 0, {}]]]}, {"class_name": "Activation", "name": "activation_49", "config": {"activation": "relu", "trainable": true, "name": "activation_49"}, "inbound_nodes": [[["batch_normalization_49", 0, 0, {}]]]}, {"class_name": "Add", "name": "add_12", "config": {"trainable": true, "name": "add_12"}, "inbound_nodes": [[["max_pooling1d_12", 0, 0, {}], ["activation_49", 0, 0, {}]]]}, {"class_name": "BatchNormalization", "name": "batch_normalization_50", "config": {"gamma_initializer": {"class_name": "Ones", "config": {}}, "trainable": true, "name": "batch_normalization_50", "momentum": 0.99, "moving_mean_initializer": {"class_name": "Zeros", "config": {}}, "axis": -1, "center": true, "beta_initializer": {"class_name": "Zeros", "config": {}}, "gamma_constraint": null, "epsilon": 0.001, "gamma_regularizer": null, "beta_constraint": null, "scale": true, "beta_regularizer": null, "moving_variance_initializer": {"class_name": "Ones", "config": {}}}, "inbound_nodes": [[["add_12", 0, 0, {}]]]}, {"class_name": "Activation", "name": "activation_50", "config": {"activation": "relu", "trainable": true, "name": "activation_50"}, "inbound_nodes": [[["batch_normalization_50", 0, 0, {}]]]}, {"class_name": "SeparableConv1D", "name": "separable_conv1d_76", "config": {"bias_initializer": {"class_name": "Zeros", "config": {}}, "depth_multiplier": 1, "trainable": true, "name": "separable_conv1d_76", "filters": 256, "padding": "same", "dilation_rate": [1], "strides": [1], "pointwise_initializer": {"class_name": "VarianceScaling", "config": {"scale": 1.0, "mode": "fan_avg", "distribution": "uniform", "seed": null}}, "depthwise_regularizer": null, "depthwise_initializer": {"class_name": "VarianceScaling", "config": {"scale": 1.0, "mode": "fan_avg", "distribution": "uniform", "seed": null}}, "pointwise_constraint": null, "activation": "linear", "activity_regularizer": null, "bias_constraint": null, "data_format": "channels_last", "use_bias": true, "kernel_size": [16], "depthwise_constraint": null, "pointwise_regularizer": null, "bias_regularizer": null}, "inbound_nodes": [[["activation_50", 0, 0, {}]]]}, {"class_name": "SeparableConv1D", "name": "separable_conv1d_77", "config": {"bias_initializer": {"class_name": "Zeros", "config": {}}, "depth_multiplier": 1, "trainable": true, "name": "separable_conv1d_77", "filters": 256, "padding": "same", "dilation_rate": [1], "strides": [1], "pointwise_initializer": {"class_name": "VarianceScaling", "config": {"scale": 1.0, "mode": "fan_avg", "distribution": "uniform", "seed": null}}, "depthwise_regularizer": null, "depthwise_initializer": {"class_name": "VarianceScaling", "config": {"scale": 1.0, "mode": "fan_avg", "distribution": "uniform", "seed": null}}, "pointwise_constraint": null, "activation": "linear", "activity_regularizer": null, "bias_constraint": null, "data_format": "channels_last", "use_bias": true, "kernel_size": [32], "depthwise_constraint": null, "pointwise_regularizer": null, "bias_regularizer": null}, "inbound_nodes": [[["activation_50", 0, 0, {}]]]}, {"class_name": "Concatenate", "name": "concatenate_26", "config": {"axis": 2, "trainable": true, "name": "concatenate_26"}, "inbound_nodes": [[["separable_conv1d_76", 0, 0, {}], ["separable_conv1d_77", 0, 0, {}]]]}, {"class_name": "SeparableConv1D", "name": "separable_conv1d_78", "config": {"bias_initializer": {"class_name": "Zeros", "config": {}}, "depth_multiplier": 1, "trainable": true, "name": "separable_conv1d_78", "filters": 256, "padding": "same", "dilation_rate": [1], "strides": [1], "pointwise_initializer": {"class_name": "VarianceScaling", "config": {"scale": 1.0, "mode": "fan_avg", "distribution": "uniform", "seed": null}}, "depthwise_regularizer": null, "depthwise_initializer": {"class_name": "VarianceScaling", "config": {"scale": 1.0, "mode": "fan_avg", "distribution": "uniform", "seed": null}}, "pointwise_constraint": null, "activation": "linear", "activity_regularizer": null, "bias_constraint": null, "data_format": "channels_last", "use_bias": true, "kernel_size": [1], "depthwise_constraint": null, "pointwise_regularizer": null, "bias_regularizer": null}, "inbound_nodes": [[["concatenate_26", 0, 0, {}]]]}, {"class_name": "BatchNormalization", "name": "batch_normalization_51", "config": {"gamma_initializer": {"class_name": "Ones", "config": {}}, "trainable": true, "name": "batch_normalization_51", "momentum": 0.99, "moving_mean_initializer": {"class_name": "Zeros", "config": {}}, "axis": -1, "center": true, "beta_initializer": {"class_name": "Zeros", "config": {}}, "gamma_constraint": null, "epsilon": 0.001, "gamma_regularizer": null, "beta_constraint": null, "scale": true, "beta_regularizer": null, "moving_variance_initializer": {"class_name": "Ones", "config": {}}}, "inbound_nodes": [[["separable_conv1d_78", 0, 0, {}]]]}, {"class_name": "Activation", "name": "activation_51", "config": {"activation": "relu", "trainable": true, "name": "activation_51"}, "inbound_nodes": [[["batch_normalization_51", 0, 0, {}]]]}, {"class_name": "BatchNormalization", "name": "batch_normalization_52", "config": {"gamma_initializer": {"class_name": "Ones", "config": {}}, "trainable": true, "name": "batch_normalization_52", "momentum": 0.99, "moving_mean_initializer": {"class_name": "Zeros", "config": {}}, "axis": -1, "center": true, "beta_initializer": {"class_name": "Zeros", "config": {}}, "gamma_constraint": null, "epsilon": 0.001, "gamma_regularizer": null, "beta_constraint": null, "scale": true, "beta_regularizer": null, "moving_variance_initializer": {"class_name": "Ones", "config": {}}}, "inbound_nodes": [[["activation_51", 0, 0, {}]]]}, {"class_name": "Activation", "name": "activation_52", "config": {"activation": "relu", "trainable": true, "name": "activation_52"}, "inbound_nodes": [[["batch_normalization_52", 0, 0, {}]]]}, {"class_name": "Dropout", "name": "dropout_13", "config": {"seed": null, "trainable": true, "name": "dropout_13", "noise_shape": null, "rate": 0.3}, "inbound_nodes": [[["activation_52", 0, 0, {}]]]}, {"class_name": "SeparableConv1D", "name": "separable_conv1d_79", "config": {"bias_initializer": {"class_name": "Zeros", "config": {}}, "depth_multiplier": 1, "trainable": true, "name": "separable_conv1d_79", "filters": 256, "padding": "same", "dilation_rate": [1], "strides": [1], "pointwise_initializer": {"class_name": "VarianceScaling", "config": {"scale": 1.0, "mode": "fan_avg", "distribution": "uniform", "seed": null}}, "depthwise_regularizer": null, "depthwise_initializer": {"class_name": "VarianceScaling", "config": {"scale": 1.0, "mode": "fan_avg", "distribution": "uniform", "seed": null}}, "pointwise_constraint": null, "activation": "linear", "activity_regularizer": null, "bias_constraint": null, "data_format": "channels_last", "use_bias": true, "kernel_size": [16], "depthwise_constraint": null, "pointwise_regularizer": null, "bias_regularizer": null}, "inbound_nodes": [[["dropout_13", 0, 0, {}]]]}, {"class_name": "SeparableConv1D", "name": "separable_conv1d_80", "config": {"bias_initializer": {"class_name": "Zeros", "config": {}}, "depth_multiplier": 1, "trainable": true, "name": "separable_conv1d_80", "filters": 256, "padding": "same", "dilation_rate": [1], "strides": [1], "pointwise_initializer": {"class_name": "VarianceScaling", "config": {"scale": 1.0, "mode": "fan_avg", "distribution": "uniform", "seed": null}}, "depthwise_regularizer": null, "depthwise_initializer": {"class_name": "VarianceScaling", "config": {"scale": 1.0, "mode": "fan_avg", "distribution": "uniform", "seed": null}}, "pointwise_constraint": null, "activation": "linear", "activity_regularizer": null, "bias_constraint": null, "data_format": "channels_last", "use_bias": true, "kernel_size": [32], "depthwise_constraint": null, "pointwise_regularizer": null, "bias_regularizer": null}, "inbound_nodes": [[["dropout_13", 0, 0, {}]]]}, {"class_name": "Concatenate", "name": "concatenate_27", "config": {"axis": 2, "trainable": true, "name": "concatenate_27"}, "inbound_nodes": [[["separable_conv1d_79", 0, 0, {}], ["separable_conv1d_80", 0, 0, {}]]]}, {"class_name": "SeparableConv1D", "name": "separable_conv1d_81", "config": {"bias_initializer": {"class_name": "Zeros", "config": {}}, "depth_multiplier": 1, "trainable": true, "name": "separable_conv1d_81", "filters": 256, "padding": "same", "dilation_rate": [1], "strides": [1], "pointwise_initializer": {"class_name": "VarianceScaling", "config": {"scale": 1.0, "mode": "fan_avg", "distribution": "uniform", "seed": null}}, "depthwise_regularizer": null, "depthwise_initializer": {"class_name": "VarianceScaling", "config": {"scale": 1.0, "mode": "fan_avg", "distribution": "uniform", "seed": null}}, "pointwise_constraint": null, "activation": "linear", "activity_regularizer": null, "bias_constraint": null, "data_format": "channels_last", "use_bias": true, "kernel_size": [1], "depthwise_constraint": null, "pointwise_regularizer": null, "bias_regularizer": null}, "inbound_nodes": [[["concatenate_27", 0, 0, {}]]]}, {"class_name": "MaxPooling1D", "name": "max_pooling1d_13", "config": {"pool_size": [1], "strides": [1], "trainable": true, "name": "max_pooling1d_13", "data_format": "channels_last", "padding": "valid"}, "inbound_nodes": [[["add_12", 0, 0, {}]]]}, {"class_name": "BatchNormalization", "name": "batch_normalization_53", "config": {"gamma_initializer": {"class_name": "Ones", "config": {}}, "trainable": true, "name": "batch_normalization_53", "momentum": 0.99, "moving_mean_initializer": {"class_name": "Zeros", "config": {}}, "axis": -1, "center": true, "beta_initializer": {"class_name": "Zeros", "config": {}}, "gamma_constraint": null, "epsilon": 0.001, "gamma_regularizer": null, "beta_constraint": null, "scale": true, "beta_regularizer": null, "moving_variance_initializer": {"class_name": "Ones", "config": {}}}, "inbound_nodes": [[["separable_conv1d_81", 0, 0, {}]]]}, {"class_name": "Lambda", "name": "lambda_3", "config": {"function": ["4wEAAAAAAAAAAgAAAAQAAABTAAAAcygAAAB0AABqAQB8AACDAQB9AQB0AABqAgB8AAB8AQBnAgBk\nAQBkAgCDAQFTKQNO2gRheGlz6QIAAAApA9oBS9oKemVyb3NfbGlrZdoLY29uY2F0ZW5hdGUpAtoB\neNoBeakAcggAAAD6Ni9tZWRpYS91dXNlci9kYXRhLzk5NS1JQ1UgIHBsdXNlIGZldHVyZS9zcmMv\nbmV0d29yay5wedoHemVyb3BhZKQAAABzBAAAAAABDwE=\n", null, null], "trainable": true, "name": "lambda_3", "function_type": "lambda", "output_shape_type": "lambda", "arguments": {}, "output_shape": ["4wEAAAAAAAAAAgAAAAQAAABTAAAAczwAAAB0AAB8AACDAQB9AQB0AQB8AQCDAQBkAQBrAgBzJAB0\nAgCCAQB8AQBkAgAFGWQCADkDPHQDAHwBAIMBAFMpA07pAwAAAOkCAAAAKQTaBGxpc3TaA2xlbtoO\nQXNzZXJ0aW9uRXJyb3LaBXR1cGxlKQLaC2lucHV0X3NoYXBl2gVzaGFwZakAcgkAAAD6Ni9tZWRp\nYS91dXNlci9kYXRhLzk5NS1JQ1UgIHBsdXNlIGZldHVyZS9zcmMvbmV0d29yay5wedoUemVyb3Bh\nZF9vdXRwdXRfc2hhcGWoAAAAcwgAAAAAAQwBGAEOAQ==\n", null, null]}, "inbound_nodes": [[["max_pooling1d_13", 0, 0, {}]]]}, {"class_name": "Activation", "name": "activation_53", "config": {"activation": "relu", "trainable": true, "name": "activation_53"}, "inbound_nodes": [[["batch_normalization_53", 0, 0, {}]]]}, {"class_name": "Add", "name": "add_13", "config": {"trainable": true, "name": "add_13"}, "inbound_nodes": [[["lambda_3", 0, 0, {}], ["activation_53", 0, 0, {}]]]}, {"class_name": "BatchNormalization", "name": "batch_normalization_54", "config": {"gamma_initializer": {"class_name": "Ones", "config": {}}, "trainable": true, "name": "batch_normalization_54", "momentum": 0.99, "moving_mean_initializer": {"class_name": "Zeros", "config": {}}, "axis": -1, "center": true, "beta_initializer": {"class_name": "Zeros", "config": {}}, "gamma_constraint": null, "epsilon": 0.001, "gamma_regularizer": null, "beta_constraint": null, "scale": true, "beta_regularizer": null, "moving_variance_initializer": {"class_name": "Ones", "config": {}}}, "inbound_nodes": [[["add_13", 0, 0, {}]]]}, {"class_name": "Activation", "name": "activation_54", "config": {"activation": "relu", "trainable": true, "name": "activation_54"}, "inbound_nodes": [[["batch_normalization_54", 0, 0, {}]]]}, {"class_name": "SeparableConv1D", "name": "separable_conv1d_82", "config": {"bias_initializer": {"class_name": "Zeros", "config": {}}, "depth_multiplier": 1, "trainable": true, "name": "separable_conv1d_82", "filters": 256, "padding": "same", "dilation_rate": [1], "strides": [2], "pointwise_initializer": {"class_name": "VarianceScaling", "config": {"scale": 1.0, "mode": "fan_avg", "distribution": "uniform", "seed": null}}, "depthwise_regularizer": null, "depthwise_initializer": {"class_name": "VarianceScaling", "config": {"scale": 1.0, "mode": "fan_avg", "distribution": "uniform", "seed": null}}, "pointwise_constraint": null, "activation": "linear", "activity_regularizer": null, "bias_constraint": null, "data_format": "channels_last", "use_bias": true, "kernel_size": [16], "depthwise_constraint": null, "pointwise_regularizer": null, "bias_regularizer": null}, "inbound_nodes": [[["activation_54", 0, 0, {}]]]}, {"class_name": "SeparableConv1D", "name": "separable_conv1d_83", "config": {"bias_initializer": {"class_name": "Zeros", "config": {}}, "depth_multiplier": 1, "trainable": true, "name": "separable_conv1d_83", "filters": 256, "padding": "same", "dilation_rate": [1], "strides": [2], "pointwise_initializer": {"class_name": "VarianceScaling", "config": {"scale": 1.0, "mode": "fan_avg", "distribution": "uniform", "seed": null}}, "depthwise_regularizer": null, "depthwise_initializer": {"class_name": "VarianceScaling", "config": {"scale": 1.0, "mode": "fan_avg", "distribution": "uniform", "seed": null}}, "pointwise_constraint": null, "activation": "linear", "activity_regularizer": null, "bias_constraint": null, "data_format": "channels_last", "use_bias": true, "kernel_size": [32], "depthwise_constraint": null, "pointwise_regularizer": null, "bias_regularizer": null}, "inbound_nodes": [[["activation_54", 0, 0, {}]]]}, {"class_name": "Concatenate", "name": "concatenate_28", "config": {"axis": 2, "trainable": true, "name": "concatenate_28"}, "inbound_nodes": [[["separable_conv1d_82", 0, 0, {}], ["separable_conv1d_83", 0, 0, {}]]]}, {"class_name": "SeparableConv1D", "name": "separable_conv1d_84", "config": {"bias_initializer": {"class_name": "Zeros", "config": {}}, "depth_multiplier": 1, "trainable": true, "name": "separable_conv1d_84", "filters": 256, "padding": "same", "dilation_rate": [1], "strides": [1], "pointwise_initializer": {"class_name": "VarianceScaling", "config": {"scale": 1.0, "mode": "fan_avg", "distribution": "uniform", "seed": null}}, "depthwise_regularizer": null, "depthwise_initializer": {"class_name": "VarianceScaling", "config": {"scale": 1.0, "mode": "fan_avg", "distribution": "uniform", "seed": null}}, "pointwise_constraint": null, "activation": "linear", "activity_regularizer": null, "bias_constraint": null, "data_format": "channels_last", "use_bias": true, "kernel_size": [2], "depthwise_constraint": null, "pointwise_regularizer": null, "bias_regularizer": null}, "inbound_nodes": [[["concatenate_28", 0, 0, {}]]]}, {"class_name": "BatchNormalization", "name": "batch_normalization_55", "config": {"gamma_initializer": {"class_name": "Ones", "config": {}}, "trainable": true, "name": "batch_normalization_55", "momentum": 0.99, "moving_mean_initializer": {"class_name": "Zeros", "config": {}}, "axis": -1, "center": true, "beta_initializer": {"class_name": "Zeros", "config": {}}, "gamma_constraint": null, "epsilon": 0.001, "gamma_regularizer": null, "beta_constraint": null, "scale": true, "beta_regularizer": null, "moving_variance_initializer": {"class_name": "Ones", "config": {}}}, "inbound_nodes": [[["separable_conv1d_84", 0, 0, {}]]]}, {"class_name": "Activation", "name": "activation_55", "config": {"activation": "relu", "trainable": true, "name": "activation_55"}, "inbound_nodes": [[["batch_normalization_55", 0, 0, {}]]]}, {"class_name": "BatchNormalization", "name": "batch_normalization_56", "config": {"gamma_initializer": {"class_name": "Ones", "config": {}}, "trainable": true, "name": "batch_normalization_56", "momentum": 0.99, "moving_mean_initializer": {"class_name": "Zeros", "config": {}}, "axis": -1, "center": true, "beta_initializer": {"class_name": "Zeros", "config": {}}, "gamma_constraint": null, "epsilon": 0.001, "gamma_regularizer": null, "beta_constraint": null, "scale": true, "beta_regularizer": null, "moving_variance_initializer": {"class_name": "Ones", "config": {}}}, "inbound_nodes": [[["activation_55", 0, 0, {}]]]}, {"class_name": "Activation", "name": "activation_56", "config": {"activation": "relu", "trainable": true, "name": "activation_56"}, "inbound_nodes": [[["batch_normalization_56", 0, 0, {}]]]}, {"class_name": "Dropout", "name": "dropout_14", "config": {"seed": null, "trainable": true, "name": "dropout_14", "noise_shape": null, "rate": 0.3}, "inbound_nodes": [[["activation_56", 0, 0, {}]]]}, {"class_name": "SeparableConv1D", "name": "separable_conv1d_85", "config": {"bias_initializer": {"class_name": "Zeros", "config": {}}, "depth_multiplier": 1, "trainable": true, "name": "separable_conv1d_85", "filters": 256, "padding": "same", "dilation_rate": [1], "strides": [1], "pointwise_initializer": {"class_name": "VarianceScaling", "config": {"scale": 1.0, "mode": "fan_avg", "distribution": "uniform", "seed": null}}, "depthwise_regularizer": null, "depthwise_initializer": {"class_name": "VarianceScaling", "config": {"scale": 1.0, "mode": "fan_avg", "distribution": "uniform", "seed": null}}, "pointwise_constraint": null, "activation": "linear", "activity_regularizer": null, "bias_constraint": null, "data_format": "channels_last", "use_bias": true, "kernel_size": [16], "depthwise_constraint": null, "pointwise_regularizer": null, "bias_regularizer": null}, "inbound_nodes": [[["dropout_14", 0, 0, {}]]]}, {"class_name": "SeparableConv1D", "name": "separable_conv1d_86", "config": {"bias_initializer": {"class_name": "Zeros", "config": {}}, "depth_multiplier": 1, "trainable": true, "name": "separable_conv1d_86", "filters": 256, "padding": "same", "dilation_rate": [1], "strides": [1], "pointwise_initializer": {"class_name": "VarianceScaling", "config": {"scale": 1.0, "mode": "fan_avg", "distribution": "uniform", "seed": null}}, "depthwise_regularizer": null, "depthwise_initializer": {"class_name": "VarianceScaling", "config": {"scale": 1.0, "mode": "fan_avg", "distribution": "uniform", "seed": null}}, "pointwise_constraint": null, "activation": "linear", "activity_regularizer": null, "bias_constraint": null, "data_format": "channels_last", "use_bias": true, "kernel_size": [32], "depthwise_constraint": null, "pointwise_regularizer": null, "bias_regularizer": null}, "inbound_nodes": [[["dropout_14", 0, 0, {}]]]}, {"class_name": "Concatenate", "name": "concatenate_29", "config": {"axis": 2, "trainable": true, "name": "concatenate_29"}, "inbound_nodes": [[["separable_conv1d_85", 0, 0, {}], ["separable_conv1d_86", 0, 0, {}]]]}, {"class_name": "SeparableConv1D", "name": "separable_conv1d_87", "config": {"bias_initializer": {"class_name": "Zeros", "config": {}}, "depth_multiplier": 1, "trainable": true, "name": "separable_conv1d_87", "filters": 256, "padding": "same", "dilation_rate": [1], "strides": [1], "pointwise_initializer": {"class_name": "VarianceScaling", "config": {"scale": 1.0, "mode": "fan_avg", "distribution": "uniform", "seed": null}}, "depthwise_regularizer": null, "depthwise_initializer": {"class_name": "VarianceScaling", "config": {"scale": 1.0, "mode": "fan_avg", "distribution": "uniform", "seed": null}}, "pointwise_constraint": null, "activation": "linear", "activity_regularizer": null, "bias_constraint": null, "data_format": "channels_last", "use_bias": true, "kernel_size": [1], "depthwise_constraint": null, "pointwise_regularizer": null, "bias_regularizer": null}, "inbound_nodes": [[["concatenate_29", 0, 0, {}]]]}, {"class_name": "BatchNormalization", "name": "batch_normalization_57", "config": {"gamma_initializer": {"class_name": "Ones", "config": {}}, "trainable": true, "name": "batch_normalization_57", "momentum": 0.99, "moving_mean_initializer": {"class_name": "Zeros", "config": {}}, "axis": -1, "center": true, "beta_initializer": {"class_name": "Zeros", "config": {}}, "gamma_constraint": null, "epsilon": 0.001, "gamma_regularizer": null, "beta_constraint": null, "scale": true, "beta_regularizer": null, "moving_variance_initializer": {"class_name": "Ones", "config": {}}}, "inbound_nodes": [[["separable_conv1d_87", 0, 0, {}]]]}, {"class_name": "MaxPooling1D", "name": "max_pooling1d_14", "config": {"pool_size": [2], "strides": [2], "trainable": true, "name": "max_pooling1d_14", "data_format": "channels_last", "padding": "valid"}, "inbound_nodes": [[["add_13", 0, 0, {}]]]}, {"class_name": "Activation", "name": "activation_57", "config": {"activation": "relu", "trainable": true, "name": "activation_57"}, "inbound_nodes": [[["batch_normalization_57", 0, 0, {}]]]}, {"class_name": "Add", "name": "add_14", "config": {"trainable": true, "name": "add_14"}, "inbound_nodes": [[["max_pooling1d_14", 0, 0, {}], ["activation_57", 0, 0, {}]]]}, {"class_name": "BatchNormalization", "name": "batch_normalization_58", "config": {"gamma_initializer": {"class_name": "Ones", "config": {}}, "trainable": true, "name": "batch_normalization_58", "momentum": 0.99, "moving_mean_initializer": {"class_name": "Zeros", "config": {}}, "axis": -1, "center": true, "beta_initializer": {"class_name": "Zeros", "config": {}}, "gamma_constraint": null, "epsilon": 0.001, "gamma_regularizer": null, "beta_constraint": null, "scale": true, "beta_regularizer": null, "moving_variance_initializer": {"class_name": "Ones", "config": {}}}, "inbound_nodes": [[["add_14", 0, 0, {}]]]}, {"class_name": "Activation", "name": "activation_58", "config": {"activation": "relu", "trainable": true, "name": "activation_58"}, "inbound_nodes": [[["batch_normalization_58", 0, 0, {}]]]}, {"class_name": "SeparableConv1D", "name": "separable_conv1d_88", "config": {"bias_initializer": {"class_name": "Zeros", "config": {}}, "depth_multiplier": 1, "trainable": true, "name": "separable_conv1d_88", "filters": 256, "padding": "same", "dilation_rate": [1], "strides": [1], "pointwise_initializer": {"class_name": "VarianceScaling", "config": {"scale": 1.0, "mode": "fan_avg", "distribution": "uniform", "seed": null}}, "depthwise_regularizer": null, "depthwise_initializer": {"class_name": "VarianceScaling", "config": {"scale": 1.0, "mode": "fan_avg", "distribution": "uniform", "seed": null}}, "pointwise_constraint": null, "activation": "linear", "activity_regularizer": null, "bias_constraint": null, "data_format": "channels_last", "use_bias": true, "kernel_size": [16], "depthwise_constraint": null, "pointwise_regularizer": null, "bias_regularizer": null}, "inbound_nodes": [[["activation_58", 0, 0, {}]]]}, {"class_name": "SeparableConv1D", "name": "separable_conv1d_89", "config": {"bias_initializer": {"class_name": "Zeros", "config": {}}, "depth_multiplier": 1, "trainable": true, "name": "separable_conv1d_89", "filters": 256, "padding": "same", "dilation_rate": [1], "strides": [1], "pointwise_initializer": {"class_name": "VarianceScaling", "config": {"scale": 1.0, "mode": "fan_avg", "distribution": "uniform", "seed": null}}, "depthwise_regularizer": null, "depthwise_initializer": {"class_name": "VarianceScaling", "config": {"scale": 1.0, "mode": "fan_avg", "distribution": "uniform", "seed": null}}, "pointwise_constraint": null, "activation": "linear", "activity_regularizer": null, "bias_constraint": null, "data_format": "channels_last", "use_bias": true, "kernel_size": [32], "depthwise_constraint": null, "pointwise_regularizer": null, "bias_regularizer": null}, "inbound_nodes": [[["activation_58", 0, 0, {}]]]}, {"class_name": "Concatenate", "name": "concatenate_30", "config": {"axis": 2, "trainable": true, "name": "concatenate_30"}, "inbound_nodes": [[["separable_conv1d_88", 0, 0, {}], ["separable_conv1d_89", 0, 0, {}]]]}, {"class_name": "SeparableConv1D", "name": "separable_conv1d_90", "config": {"bias_initializer": {"class_name": "Zeros", "config": {}}, "depth_multiplier": 1, "trainable": true, "name": "separable_conv1d_90", "filters": 256, "padding": "same", "dilation_rate": [1], "strides": [1], "pointwise_initializer": {"class_name": "VarianceScaling", "config": {"scale": 1.0, "mode": "fan_avg", "distribution": "uniform", "seed": null}}, "depthwise_regularizer": null, "depthwise_initializer": {"class_name": "VarianceScaling", "config": {"scale": 1.0, "mode": "fan_avg", "distribution": "uniform", "seed": null}}, "pointwise_constraint": null, "activation": "linear", "activity_regularizer": null, "bias_constraint": null, "data_format": "channels_last", "use_bias": true, "kernel_size": [1], "depthwise_constraint": null, "pointwise_regularizer": null, "bias_regularizer": null}, "inbound_nodes": [[["concatenate_30", 0, 0, {}]]]}, {"class_name": "BatchNormalization", "name": "batch_normalization_59", "config": {"gamma_initializer": {"class_name": "Ones", "config": {}}, "trainable": true, "name": "batch_normalization_59", "momentum": 0.99, "moving_mean_initializer": {"class_name": "Zeros", "config": {}}, "axis": -1, "center": true, "beta_initializer": {"class_name": "Zeros", "config": {}}, "gamma_constraint": null, "epsilon": 0.001, "gamma_regularizer": null, "beta_constraint": null, "scale": true, "beta_regularizer": null, "moving_variance_initializer": {"class_name": "Ones", "config": {}}}, "inbound_nodes": [[["separable_conv1d_90", 0, 0, {}]]]}, {"class_name": "Activation", "name": "activation_59", "config": {"activation": "relu", "trainable": true, "name": "activation_59"}, "inbound_nodes": [[["batch_normalization_59", 0, 0, {}]]]}, {"class_name": "BatchNormalization", "name": "batch_normalization_60", "config": {"gamma_initializer": {"class_name": "Ones", "config": {}}, "trainable": true, "name": "batch_normalization_60", "momentum": 0.99, "moving_mean_initializer": {"class_name": "Zeros", "config": {}}, "axis": -1, "center": true, "beta_initializer": {"class_name": "Zeros", "config": {}}, "gamma_constraint": null, "epsilon": 0.001, "gamma_regularizer": null, "beta_constraint": null, "scale": true, "beta_regularizer": null, "moving_variance_initializer": {"class_name": "Ones", "config": {}}}, "inbound_nodes": [[["activation_59", 0, 0, {}]]]}, {"class_name": "Activation", "name": "activation_60", "config": {"activation": "relu", "trainable": true, "name": "activation_60"}, "inbound_nodes": [[["batch_normalization_60", 0, 0, {}]]]}, {"class_name": "Dropout", "name": "dropout_15", "config": {"seed": null, "trainable": true, "name": "dropout_15", "noise_shape": null, "rate": 0.3}, "inbound_nodes": [[["activation_60", 0, 0, {}]]]}, {"class_name": "SeparableConv1D", "name": "separable_conv1d_91", "config": {"bias_initializer": {"class_name": "Zeros", "config": {}}, "depth_multiplier": 1, "trainable": true, "name": "separable_conv1d_91", "filters": 256, "padding": "same", "dilation_rate": [1], "strides": [1], "pointwise_initializer": {"class_name": "VarianceScaling", "config": {"scale": 1.0, "mode": "fan_avg", "distribution": "uniform", "seed": null}}, "depthwise_regularizer": null, "depthwise_initializer": {"class_name": "VarianceScaling", "config": {"scale": 1.0, "mode": "fan_avg", "distribution": "uniform", "seed": null}}, "pointwise_constraint": null, "activation": "linear", "activity_regularizer": null, "bias_constraint": null, "data_format": "channels_last", "use_bias": true, "kernel_size": [16], "depthwise_constraint": null, "pointwise_regularizer": null, "bias_regularizer": null}, "inbound_nodes": [[["dropout_15", 0, 0, {}]]]}, {"class_name": "SeparableConv1D", "name": "separable_conv1d_92", "config": {"bias_initializer": {"class_name": "Zeros", "config": {}}, "depth_multiplier": 1, "trainable": true, "name": "separable_conv1d_92", "filters": 256, "padding": "same", "dilation_rate": [1], "strides": [1], "pointwise_initializer": {"class_name": "VarianceScaling", "config": {"scale": 1.0, "mode": "fan_avg", "distribution": "uniform", "seed": null}}, "depthwise_regularizer": null, "depthwise_initializer": {"class_name": "VarianceScaling", "config": {"scale": 1.0, "mode": "fan_avg", "distribution": "uniform", "seed": null}}, "pointwise_constraint": null, "activation": "linear", "activity_regularizer": null, "bias_constraint": null, "data_format": "channels_last", "use_bias": true, "kernel_size": [32], "depthwise_constraint": null, "pointwise_regularizer": null, "bias_regularizer": null}, "inbound_nodes": [[["dropout_15", 0, 0, {}]]]}, {"class_name": "Concatenate", "name": "concatenate_31", "config": {"axis": 2, "trainable": true, "name": "concatenate_31"}, "inbound_nodes": [[["separable_conv1d_91", 0, 0, {}], ["separable_conv1d_92", 0, 0, {}]]]}, {"class_name": "SeparableConv1D", "name": "separable_conv1d_93", "config": {"bias_initializer": {"class_name": "Zeros", "config": {}}, "depth_multiplier": 1, "trainable": true, "name": "separable_conv1d_93", "filters": 256, "padding": "same", "dilation_rate": [1], "strides": [1], "pointwise_initializer": {"class_name": "VarianceScaling", "config": {"scale": 1.0, "mode": "fan_avg", "distribution": "uniform", "seed": null}}, "depthwise_regularizer": null, "depthwise_initializer": {"class_name": "VarianceScaling", "config": {"scale": 1.0, "mode": "fan_avg", "distribution": "uniform", "seed": null}}, "pointwise_constraint": null, "activation": "linear", "activity_regularizer": null, "bias_constraint": null, "data_format": "channels_last", "use_bias": true, "kernel_size": [1], "depthwise_constraint": null, "pointwise_regularizer": null, "bias_regularizer": null}, "inbound_nodes": [[["concatenate_31", 0, 0, {}]]]}, {"class_name": "BatchNormalization", "name": "batch_normalization_61", "config": {"gamma_initializer": {"class_name": "Ones", "config": {}}, "trainable": true, "name": "batch_normalization_61", "momentum": 0.99, "moving_mean_initializer": {"class_name": "Zeros", "config": {}}, "axis": -1, "center": true, "beta_initializer": {"class_name": "Zeros", "config": {}}, "gamma_constraint": null, "epsilon": 0.001, "gamma_regularizer": null, "beta_constraint": null, "scale": true, "beta_regularizer": null, "moving_variance_initializer": {"class_name": "Ones", "config": {}}}, "inbound_nodes": [[["separable_conv1d_93", 0, 0, {}]]]}, {"class_name": "MaxPooling1D", "name": "max_pooling1d_15", "config": {"pool_size": [1], "strides": [1], "trainable": true, "name": "max_pooling1d_15", "data_format": "channels_last", "padding": "valid"}, "inbound_nodes": [[["add_14", 0, 0, {}]]]}, {"class_name": "Activation", "name": "activation_61", "config": {"activation": "relu", "trainable": true, "name": "activation_61"}, "inbound_nodes": [[["batch_normalization_61", 0, 0, {}]]]}, {"class_name": "Add", "name": "add_15", "config": {"trainable": true, "name": "add_15"}, "inbound_nodes": [[["max_pooling1d_15", 0, 0, {}], ["activation_61", 0, 0, {}]]]}, {"class_name": "BatchNormalization", "name": "batch_normalization_62", "config": {"gamma_initializer": {"class_name": "Ones", "config": {}}, "trainable": true, "name": "batch_normalization_62", "momentum": 0.99, "moving_mean_initializer": {"class_name": "Zeros", "config": {}}, "axis": -1, "center": true, "beta_initializer": {"class_name": "Zeros", "config": {}}, "gamma_constraint": null, "epsilon": 0.001, "gamma_regularizer": null, "beta_constraint": null, "scale": true, "beta_regularizer": null, "moving_variance_initializer": {"class_name": "Ones", "config": {}}}, "inbound_nodes": [[["add_15", 0, 0, {}]]]}, {"class_name": "Activation", "name": "activation_62", "config": {"activation": "relu", "trainable": true, "name": "activation_62"}, "inbound_nodes": [[["batch_normalization_62", 0, 0, {}]]]}, {"class_name": "SeparableConv1D", "name": "separable_conv1d_94", "config": {"bias_initializer": {"class_name": "Zeros", "config": {}}, "depth_multiplier": 1, "trainable": true, "name": "separable_conv1d_94", "filters": 256, "padding": "same", "dilation_rate": [1], "strides": [2], "pointwise_initializer": {"class_name": "VarianceScaling", "config": {"scale": 1.0, "mode": "fan_avg", "distribution": "uniform", "seed": null}}, "depthwise_regularizer": null, "depthwise_initializer": {"class_name": "VarianceScaling", "config": {"scale": 1.0, "mode": "fan_avg", "distribution": "uniform", "seed": null}}, "pointwise_constraint": null, "activation": "linear", "activity_regularizer": null, "bias_constraint": null, "data_format": "channels_last", "use_bias": true, "kernel_size": [16], "depthwise_constraint": null, "pointwise_regularizer": null, "bias_regularizer": null}, "inbound_nodes": [[["activation_62", 0, 0, {}]]]}, {"class_name": "SeparableConv1D", "name": "separable_conv1d_95", "config": {"bias_initializer": {"class_name": "Zeros", "config": {}}, "depth_multiplier": 1, "trainable": true, "name": "separable_conv1d_95", "filters": 256, "padding": "same", "dilation_rate": [1], "strides": [2], "pointwise_initializer": {"class_name": "VarianceScaling", "config": {"scale": 1.0, "mode": "fan_avg", "distribution": "uniform", "seed": null}}, "depthwise_regularizer": null, "depthwise_initializer": {"class_name": "VarianceScaling", "config": {"scale": 1.0, "mode": "fan_avg", "distribution": "uniform", "seed": null}}, "pointwise_constraint": null, "activation": "linear", "activity_regularizer": null, "bias_constraint": null, "data_format": "channels_last", "use_bias": true, "kernel_size": [32], "depthwise_constraint": null, "pointwise_regularizer": null, "bias_regularizer": null}, "inbound_nodes": [[["activation_62", 0, 0, {}]]]}, {"class_name": "Concatenate", "name": "concatenate_32", "config": {"axis": 2, "trainable": true, "name": "concatenate_32"}, "inbound_nodes": [[["separable_conv1d_94", 0, 0, {}], ["separable_conv1d_95", 0, 0, {}]]]}, {"class_name": "SeparableConv1D", "name": "separable_conv1d_96", "config": {"bias_initializer": {"class_name": "Zeros", "config": {}}, "depth_multiplier": 1, "trainable": true, "name": "separable_conv1d_96", "filters": 256, "padding": "same", "dilation_rate": [1], "strides": [1], "pointwise_initializer": {"class_name": "VarianceScaling", "config": {"scale": 1.0, "mode": "fan_avg", "distribution": "uniform", "seed": null}}, "depthwise_regularizer": null, "depthwise_initializer": {"class_name": "VarianceScaling", "config": {"scale": 1.0, "mode": "fan_avg", "distribution": "uniform", "seed": null}}, "pointwise_constraint": null, "activation": "linear", "activity_regularizer": null, "bias_constraint": null, "data_format": "channels_last", "use_bias": true, "kernel_size": [2], "depthwise_constraint": null, "pointwise_regularizer": null, "bias_regularizer": null}, "inbound_nodes": [[["concatenate_32", 0, 0, {}]]]}, {"class_name": "BatchNormalization", "name": "batch_normalization_63", "config": {"gamma_initializer": {"class_name": "Ones", "config": {}}, "trainable": true, "name": "batch_normalization_63", "momentum": 0.99, "moving_mean_initializer": {"class_name": "Zeros", "config": {}}, "axis": -1, "center": true, "beta_initializer": {"class_name": "Zeros", "config": {}}, "gamma_constraint": null, "epsilon": 0.001, "gamma_regularizer": null, "beta_constraint": null, "scale": true, "beta_regularizer": null, "moving_variance_initializer": {"class_name": "Ones", "config": {}}}, "inbound_nodes": [[["separable_conv1d_96", 0, 0, {}]]]}, {"class_name": "Activation", "name": "activation_63", "config": {"activation": "relu", "trainable": true, "name": "activation_63"}, "inbound_nodes": [[["batch_normalization_63", 0, 0, {}]]]}, {"class_name": "BatchNormalization", "name": "batch_normalization_64", "config": {"gamma_initializer": {"class_name": "Ones", "config": {}}, "trainable": true, "name": "batch_normalization_64", "momentum": 0.99, "moving_mean_initializer": {"class_name": "Zeros", "config": {}}, "axis": -1, "center": true, "beta_initializer": {"class_name": "Zeros", "config": {}}, "gamma_constraint": null, "epsilon": 0.001, "gamma_regularizer": null, "beta_constraint": null, "scale": true, "beta_regularizer": null, "moving_variance_initializer": {"class_name": "Ones", "config": {}}}, "inbound_nodes": [[["activation_63", 0, 0, {}]]]}, {"class_name": "Activation", "name": "activation_64", "config": {"activation": "relu", "trainable": true, "name": "activation_64"}, "inbound_nodes": [[["batch_normalization_64", 0, 0, {}]]]}, {"class_name": "Dropout", "name": "dropout_16", "config": {"seed": null, "trainable": true, "name": "dropout_16", "noise_shape": null, "rate": 0.3}, "inbound_nodes": [[["activation_64", 0, 0, {}]]]}, {"class_name": "SeparableConv1D", "name": "separable_conv1d_97", "config": {"bias_initializer": {"class_name": "Zeros", "config": {}}, "depth_multiplier": 1, "trainable": true, "name": "separable_conv1d_97", "filters": 256, "padding": "same", "dilation_rate": [1], "strides": [1], "pointwise_initializer": {"class_name": "VarianceScaling", "config": {"scale": 1.0, "mode": "fan_avg", "distribution": "uniform", "seed": null}}, "depthwise_regularizer": null, "depthwise_initializer": {"class_name": "VarianceScaling", "config": {"scale": 1.0, "mode": "fan_avg", "distribution": "uniform", "seed": null}}, "pointwise_constraint": null, "activation": "linear", "activity_regularizer": null, "bias_constraint": null, "data_format": "channels_last", "use_bias": true, "kernel_size": [16], "depthwise_constraint": null, "pointwise_regularizer": null, "bias_regularizer": null}, "inbound_nodes": [[["dropout_16", 0, 0, {}]]]}, {"class_name": "SeparableConv1D", "name": "separable_conv1d_98", "config": {"bias_initializer": {"class_name": "Zeros", "config": {}}, "depth_multiplier": 1, "trainable": true, "name": "separable_conv1d_98", "filters": 256, "padding": "same", "dilation_rate": [1], "strides": [1], "pointwise_initializer": {"class_name": "VarianceScaling", "config": {"scale": 1.0, "mode": "fan_avg", "distribution": "uniform", "seed": null}}, "depthwise_regularizer": null, "depthwise_initializer": {"class_name": "VarianceScaling", "config": {"scale": 1.0, "mode": "fan_avg", "distribution": "uniform", "seed": null}}, "pointwise_constraint": null, "activation": "linear", "activity_regularizer": null, "bias_constraint": null, "data_format": "channels_last", "use_bias": true, "kernel_size": [32], "depthwise_constraint": null, "pointwise_regularizer": null, "bias_regularizer": null}, "inbound_nodes": [[["dropout_16", 0, 0, {}]]]}, {"class_name": "Concatenate", "name": "concatenate_33", "config": {"axis": 2, "trainable": true, "name": "concatenate_33"}, "inbound_nodes": [[["separable_conv1d_97", 0, 0, {}], ["separable_conv1d_98", 0, 0, {}]]]}, {"class_name": "SeparableConv1D", "name": "separable_conv1d_99", "config": {"bias_initializer": {"class_name": "Zeros", "config": {}}, "depth_multiplier": 1, "trainable": true, "name": "separable_conv1d_99", "filters": 256, "padding": "same", "dilation_rate": [1], "strides": [1], "pointwise_initializer": {"class_name": "VarianceScaling", "config": {"scale": 1.0, "mode": "fan_avg", "distribution": "uniform", "seed": null}}, "depthwise_regularizer": null, "depthwise_initializer": {"class_name": "VarianceScaling", "config": {"scale": 1.0, "mode": "fan_avg", "distribution": "uniform", "seed": null}}, "pointwise_constraint": null, "activation": "linear", "activity_regularizer": null, "bias_constraint": null, "data_format": "channels_last", "use_bias": true, "kernel_size": [1], "depthwise_constraint": null, "pointwise_regularizer": null, "bias_regularizer": null}, "inbound_nodes": [[["concatenate_33", 0, 0, {}]]]}, {"class_name": "BatchNormalization", "name": "batch_normalization_65", "config": {"gamma_initializer": {"class_name": "Ones", "config": {}}, "trainable": true, "name": "batch_normalization_65", "momentum": 0.99, "moving_mean_initializer": {"class_name": "Zeros", "config": {}}, "axis": -1, "center": true, "beta_initializer": {"class_name": "Zeros", "config": {}}, "gamma_constraint": null, "epsilon": 0.001, "gamma_regularizer": null, "beta_constraint": null, "scale": true, "beta_regularizer": null, "moving_variance_initializer": {"class_name": "Ones", "config": {}}}, "inbound_nodes": [[["separable_conv1d_99", 0, 0, {}]]]}, {"class_name": "MaxPooling1D", "name": "max_pooling1d_16", "config": {"pool_size": [2], "strides": [2], "trainable": true, "name": "max_pooling1d_16", "data_format": "channels_last", "padding": "valid"}, "inbound_nodes": [[["add_15", 0, 0, {}]]]}, {"class_name": "Activation", "name": "activation_65", "config": {"activation": "relu", "trainable": true, "name": "activation_65"}, "inbound_nodes": [[["batch_normalization_65", 0, 0, {}]]]}, {"class_name": "Add", "name": "add_16", "config": {"trainable": true, "name": "add_16"}, "inbound_nodes": [[["max_pooling1d_16", 0, 0, {}], ["activation_65", 0, 0, {}]]]}, {"class_name": "BatchNormalization", "name": "batch_normalization_66", "config": {"gamma_initializer": {"class_name": "Ones", "config": {}}, "trainable": true, "name": "batch_normalization_66", "momentum": 0.99, "moving_mean_initializer": {"class_name": "Zeros", "config": {}}, "axis": -1, "center": true, "beta_initializer": {"class_name": "Zeros", "config": {}}, "gamma_constraint": null, "epsilon": 0.001, "gamma_regularizer": null, "beta_constraint": null, "scale": true, "beta_regularizer": null, "moving_variance_initializer": {"class_name": "Ones", "config": {}}}, "inbound_nodes": [[["add_16", 0, 0, {}]]]}, {"class_name": "Activation", "name": "activation_66", "config": {"activation": "relu", "trainable": true, "name": "activation_66"}, "inbound_nodes": [[["batch_normalization_66", 0, 0, {}]]]}, {"class_name": "Flatten", "name": "flatten_1", "config": {"trainable": true, "name": "flatten_1", "data_format": "channels_last"}, "inbound_nodes": [[["activation_66", 0, 0, {}]]]}, {"class_name": "Dropout", "name": "dropout_17", "config": {"seed": null, "trainable": true, "name": "dropout_17", "noise_shape": null, "rate": 0.3}, "inbound_nodes": [[["flatten_1", 0, 0, {}]]]}, {"class_name": "Dense", "name": "dense_1", "config": {"bias_initializer": {"class_name": "Zeros", "config": {}}, "trainable": true, "name": "dense_1", "units": 9, "kernel_constraint": null, "kernel_regularizer": null, "activation": "linear", "activity_regularizer": null, "bias_constraint": null, "kernel_initializer": {"class_name": "VarianceScaling", "config": {"scale": 1.0, "mode": "fan_avg", "distribution": "uniform", "seed": null}}, "use_bias": true, "bias_regularizer": null}, "inbound_nodes": [[["dropout_17", 0, 0, {}]]]}, {"class_name": "Activation", "name": "activation_67", "config": {"activation": "sigmoid", "trainable": true, "name": "activation_67"}, "inbound_nodes": [[["dense_1", 0, 0, {}]]]}], "input_layers": [["inputs", 0, 0]], "name": "model_1", "output_layers": [["activation_67", 0, 0]]}, "keras_version": "2.2.4"}