{"config": {"output_layers": [["activation_67", 0, 0]], "input_layers": [["inputs", 0, 0]], "name": "model_1", "layers": [{"config": {"dtype": "float32", "batch_input_shape": [null, 4096, 12], "name": "inputs", "sparse": false}, "class_name": "InputLayer", "name": "inputs", "inbound_nodes": []}, {"config": {"padding": "same", "kernel_constraint": null, "kernel_size": [16], "data_format": "channels_last", "use_bias": true, "dilation_rate": [1], "kernel_initializer": {"config": {"seed": null, "mode": "fan_in", "scale": 2.0, "distribution": "normal"}, "class_name": "VarianceScaling"}, "activity_regularizer": null, "filters": 32, "kernel_regularizer": {"config": {"l1": 0.0, "l2": 0.009999999776482582}, "class_name": "L1L2"}, "bias_initializer": {"config": {}, "class_name": "Zeros"}, "name": "conv1d_1", "trainable": true, "activation": "linear", "bias_constraint": null, "strides": [1], "bias_regularizer": null}, "class_name": "Conv1D", "name": "conv1d_1", "inbound_nodes": [[["inputs", 0, 0, {}]]]}, {"config": {"padding": "same", "kernel_constraint": null, "kernel_size": [64], "data_format": "channels_last", "use_bias": true, "dilation_rate": [1], "kernel_initializer": {"config": {"seed": null, "mode": "fan_in", "scale": 2.0, "distribution": "normal"}, "class_name": "VarianceScaling"}, "activity_regularizer": null, "filters": 32, "kernel_regularizer": {"config": {"l1": 0.0, "l2": 0.009999999776482582}, "class_name": "L1L2"}, "bias_initializer": {"config": {}, "class_name": "Zeros"}, "name": "conv1d_2", "trainable": true, "activation": "linear", "bias_constraint": null, "strides": [1], "bias_regularizer": null}, "class_name": "Conv1D", "name": "conv1d_2", "inbound_nodes": [[["inputs", 0, 0, {}]]]}, {"config": {"padding": "same", "kernel_constraint": null, "kernel_size": [32], "data_format": "channels_last", "use_bias": true, "dilation_rate": [1], "kernel_initializer": {"config": {"seed": null, "mode": "fan_in", "scale": 2.0, "distribution": "normal"}, "class_name": "VarianceScaling"}, "activity_regularizer": null, "filters": 32, "kernel_regularizer": {"config": {"l1": 0.0, "l2": 0.009999999776482582}, "class_name": "L1L2"}, "bias_initializer": {"config": {}, "class_name": "Zeros"}, "name": "conv1d_3", "trainable": true, "activation": "linear", "bias_constraint": null, "strides": [1], "bias_regularizer": null}, "class_name": "Conv1D", "name": "conv1d_3", "inbound_nodes": [[["inputs", 0, 0, {}]]]}, {"config": {"axis": 2, "name": "concatenate_1", "trainable": true}, "class_name": "Concatenate", "name": "concatenate_1", "inbound_nodes": [[["conv1d_1", 0, 0, {}], ["conv1d_2", 0, 0, {}], ["conv1d_3", 0, 0, {}]]]}, {"config": {"padding": "same", "kernel_constraint": null, "kernel_size": [1], "data_format": "channels_last", "use_bias": true, "dilation_rate": [1], "kernel_initializer": {"config": {"seed": null, "mode": "fan_in", "scale": 2.0, "distribution": "normal"}, "class_name": "VarianceScaling"}, "activity_regularizer": null, "filters": 32, "kernel_regularizer": {"config": {"l1": 0.0, "l2": 0.009999999776482582}, "class_name": "L1L2"}, "bias_initializer": {"config": {}, "class_name": "Zeros"}, "name": "conv1d_4", "trainable": true, "activation": "linear", "bias_constraint": null, "strides": [1], "bias_regularizer": null}, "class_name": "Conv1D", "name": "conv1d_4", "inbound_nodes": [[["concatenate_1", 0, 0, {}]]]}, {"config": {"name": "self__attention_1", "trainable": true}, "class_name": "Self_Attention", "name": "self__attention_1", "inbound_nodes": [[["conv1d_4", 0, 0, {}]]]}, {"config": {"gamma_constraint": null, "gamma_regularizer": null, "center": true, "scale": true, "epsilon": 0.001, "beta_constraint": null, "momentum": 0.99, "axis": -1, "gamma_initializer": {"config": {}, "class_name": "Ones"}, "name": "batch_normalization_1", "trainable": true, "beta_regularizer": null, "moving_variance_initializer": {"config": {}, "class_name": "Ones"}, "moving_mean_initializer": {"config": {}, "class_name": "Zeros"}, "beta_initializer": {"config": {}, "class_name": "Zeros"}}, "class_name": "BatchNormalization", "name": "batch_normalization_1", "inbound_nodes": [[["self__attention_1", 0, 0, {}]]]}, {"config": {"name": "activation_1", "trainable": true, "activation": "relu"}, "class_name": "Activation", "name": "activation_1", "inbound_nodes": [[["batch_normalization_1", 0, 0, {}]]]}, {"config": {"gamma_constraint": null, "gamma_regularizer": null, "center": true, "scale": true, "epsilon": 0.001, "beta_constraint": null, "momentum": 0.99, "axis": -1, "gamma_initializer": {"config": {}, "class_name": "Ones"}, "name": "batch_normalization_2", "trainable": true, "beta_regularizer": null, "moving_variance_initializer": {"config": {}, "class_name": "Ones"}, "moving_mean_initializer": {"config": {}, "class_name": "Zeros"}, "beta_initializer": {"config": {}, "class_name": "Zeros"}}, "class_name": "BatchNormalization", "name": "batch_normalization_2", "inbound_nodes": [[["activation_1", 0, 0, {}]]]}, {"config": {"name": "activation_2", "trainable": true, "activation": "relu"}, "class_name": "Activation", "name": "activation_2", "inbound_nodes": [[["batch_normalization_2", 0, 0, {}]]]}, {"config": {"padding": "same", "kernel_constraint": null, "kernel_size": [16], "data_format": "channels_last", "use_bias": true, "dilation_rate": [1], "kernel_initializer": {"config": {"seed": null, "mode": "fan_in", "scale": 2.0, "distribution": "normal"}, "class_name": "VarianceScaling"}, "activity_regularizer": null, "filters": 32, "kernel_regularizer": {"config": {"l1": 0.0, "l2": 0.009999999776482582}, "class_name": "L1L2"}, "bias_initializer": {"config": {}, "class_name": "Zeros"}, "name": "conv1d_5", "trainable": true, "activation": "linear", "bias_constraint": null, "strides": [1], "bias_regularizer": null}, "class_name": "Conv1D", "name": "conv1d_5", "inbound_nodes": [[["activation_2", 0, 0, {}]]]}, {"config": {"padding": "same", "kernel_constraint": null, "kernel_size": [64], "data_format": "channels_last", "use_bias": true, "dilation_rate": [1], "kernel_initializer": {"config": {"seed": null, "mode": "fan_in", "scale": 2.0, "distribution": "normal"}, "class_name": "VarianceScaling"}, "activity_regularizer": null, "filters": 32, "kernel_regularizer": {"config": {"l1": 0.0, "l2": 0.009999999776482582}, "class_name": "L1L2"}, "bias_initializer": {"config": {}, "class_name": "Zeros"}, "name": "conv1d_6", "trainable": true, "activation": "linear", "bias_constraint": null, "strides": [1], "bias_regularizer": null}, "class_name": "Conv1D", "name": "conv1d_6", "inbound_nodes": [[["activation_2", 0, 0, {}]]]}, {"config": {"padding": "same", "kernel_constraint": null, "kernel_size": [32], "data_format": "channels_last", "use_bias": true, "dilation_rate": [1], "kernel_initializer": {"config": {"seed": null, "mode": "fan_in", "scale": 2.0, "distribution": "normal"}, "class_name": "VarianceScaling"}, "activity_regularizer": null, "filters": 32, "kernel_regularizer": {"config": {"l1": 0.0, "l2": 0.009999999776482582}, "class_name": "L1L2"}, "bias_initializer": {"config": {}, "class_name": "Zeros"}, "name": "conv1d_7", "trainable": true, "activation": "linear", "bias_constraint": null, "strides": [1], "bias_regularizer": null}, "class_name": "Conv1D", "name": "conv1d_7", "inbound_nodes": [[["activation_2", 0, 0, {}]]]}, {"config": {"axis": 2, "name": "concatenate_2", "trainable": true}, "class_name": "Concatenate", "name": "concatenate_2", "inbound_nodes": [[["conv1d_5", 0, 0, {}], ["conv1d_6", 0, 0, {}], ["conv1d_7", 0, 0, {}]]]}, {"config": {"padding": "same", "kernel_constraint": null, "kernel_size": [1], "data_format": "channels_last", "use_bias": true, "dilation_rate": [1], "kernel_initializer": {"config": {"seed": null, "mode": "fan_in", "scale": 2.0, "distribution": "normal"}, "class_name": "VarianceScaling"}, "activity_regularizer": null, "filters": 32, "kernel_regularizer": {"config": {"l1": 0.0, "l2": 0.009999999776482582}, "class_name": "L1L2"}, "bias_initializer": {"config": {}, "class_name": "Zeros"}, "name": "conv1d_8", "trainable": true, "activation": "linear", "bias_constraint": null, "strides": [1], "bias_regularizer": null}, "class_name": "Conv1D", "name": "conv1d_8", "inbound_nodes": [[["concatenate_2", 0, 0, {}]]]}, {"config": {"name": "self__attention_2", "trainable": true}, "class_name": "Self_Attention", "name": "self__attention_2", "inbound_nodes": [[["conv1d_8", 0, 0, {}]]]}, {"config": {"gamma_constraint": null, "gamma_regularizer": null, "center": true, "scale": true, "epsilon": 0.001, "beta_constraint": null, "momentum": 0.99, "axis": -1, "gamma_initializer": {"config": {}, "class_name": "Ones"}, "name": "batch_normalization_3", "trainable": true, "beta_regularizer": null, "moving_variance_initializer": {"config": {}, "class_name": "Ones"}, "moving_mean_initializer": {"config": {}, "class_name": "Zeros"}, "beta_initializer": {"config": {}, "class_name": "Zeros"}}, "class_name": "BatchNormalization", "name": "batch_normalization_3", "inbound_nodes": [[["self__attention_2", 0, 0, {}]]]}, {"config": {"name": "activation_3", "trainable": true, "activation": "relu"}, "class_name": "Activation", "name": "activation_3", "inbound_nodes": [[["batch_normalization_3", 0, 0, {}]]]}, {"config": {"gamma_constraint": null, "gamma_regularizer": null, "center": true, "scale": true, "epsilon": 0.001, "beta_constraint": null, "momentum": 0.99, "axis": -1, "gamma_initializer": {"config": {}, "class_name": "Ones"}, "name": "batch_normalization_4", "trainable": true, "beta_regularizer": null, "moving_variance_initializer": {"config": {}, "class_name": "Ones"}, "moving_mean_initializer": {"config": {}, "class_name": "Zeros"}, "beta_initializer": {"config": {}, "class_name": "Zeros"}}, "class_name": "BatchNormalization", "name": "batch_normalization_4", "inbound_nodes": [[["activation_3", 0, 0, {}]]]}, {"config": {"name": "activation_4", "trainable": true, "activation": "relu"}, "class_name": "Activation", "name": "activation_4", "inbound_nodes": [[["batch_normalization_4", 0, 0, {}]]]}, {"config": {"trainable": true, "seed": null, "noise_shape": null, "name": "dropout_1", "rate": 0.5}, "class_name": "Dropout", "name": "dropout_1", "inbound_nodes": [[["activation_4", 0, 0, {}]]]}, {"config": {"padding": "same", "kernel_constraint": null, "kernel_size": [16], "data_format": "channels_last", "use_bias": true, "dilation_rate": [1], "kernel_initializer": {"config": {"seed": null, "mode": "fan_in", "scale": 2.0, "distribution": "normal"}, "class_name": "VarianceScaling"}, "activity_regularizer": null, "filters": 32, "kernel_regularizer": {"config": {"l1": 0.0, "l2": 0.009999999776482582}, "class_name": "L1L2"}, "bias_initializer": {"config": {}, "class_name": "Zeros"}, "name": "conv1d_9", "trainable": true, "activation": "linear", "bias_constraint": null, "strides": [1], "bias_regularizer": null}, "class_name": "Conv1D", "name": "conv1d_9", "inbound_nodes": [[["dropout_1", 0, 0, {}]]]}, {"config": {"padding": "same", "kernel_constraint": null, "kernel_size": [64], "data_format": "channels_last", "use_bias": true, "dilation_rate": [1], "kernel_initializer": {"config": {"seed": null, "mode": "fan_in", "scale": 2.0, "distribution": "normal"}, "class_name": "VarianceScaling"}, "activity_regularizer": null, "filters": 32, "kernel_regularizer": {"config": {"l1": 0.0, "l2": 0.009999999776482582}, "class_name": "L1L2"}, "bias_initializer": {"config": {}, "class_name": "Zeros"}, "name": "conv1d_10", "trainable": true, "activation": "linear", "bias_constraint": null, "strides": [1], "bias_regularizer": null}, "class_name": "Conv1D", "name": "conv1d_10", "inbound_nodes": [[["dropout_1", 0, 0, {}]]]}, {"config": {"padding": "same", "kernel_constraint": null, "kernel_size": [32], "data_format": "channels_last", "use_bias": true, "dilation_rate": [1], "kernel_initializer": {"config": {"seed": null, "mode": "fan_in", "scale": 2.0, "distribution": "normal"}, "class_name": "VarianceScaling"}, "activity_regularizer": null, "filters": 32, "kernel_regularizer": {"config": {"l1": 0.0, "l2": 0.009999999776482582}, "class_name": "L1L2"}, "bias_initializer": {"config": {}, "class_name": "Zeros"}, "name": "conv1d_11", "trainable": true, "activation": "linear", "bias_constraint": null, "strides": [1], "bias_regularizer": null}, "class_name": "Conv1D", "name": "conv1d_11", "inbound_nodes": [[["dropout_1", 0, 0, {}]]]}, {"config": {"axis": 2, "name": "concatenate_3", "trainable": true}, "class_name": "Concatenate", "name": "concatenate_3", "inbound_nodes": [[["conv1d_9", 0, 0, {}], ["conv1d_10", 0, 0, {}], ["conv1d_11", 0, 0, {}]]]}, {"config": {"padding": "same", "kernel_constraint": null, "kernel_size": [1], "data_format": "channels_last", "use_bias": true, "dilation_rate": [1], "kernel_initializer": {"config": {"seed": null, "mode": "fan_in", "scale": 2.0, "distribution": "normal"}, "class_name": "VarianceScaling"}, "activity_regularizer": null, "filters": 32, "kernel_regularizer": {"config": {"l1": 0.0, "l2": 0.009999999776482582}, "class_name": "L1L2"}, "bias_initializer": {"config": {}, "class_name": "Zeros"}, "name": "conv1d_12", "trainable": true, "activation": "linear", "bias_constraint": null, "strides": [1], "bias_regularizer": null}, "class_name": "Conv1D", "name": "conv1d_12", "inbound_nodes": [[["concatenate_3", 0, 0, {}]]]}, {"config": {"name": "self__attention_3", "trainable": true}, "class_name": "Self_Attention", "name": "self__attention_3", "inbound_nodes": [[["conv1d_12", 0, 0, {}]]]}, {"config": {"gamma_constraint": null, "gamma_regularizer": null, "center": true, "scale": true, "epsilon": 0.001, "beta_constraint": null, "momentum": 0.99, "axis": -1, "gamma_initializer": {"config": {}, "class_name": "Ones"}, "name": "batch_normalization_5", "trainable": true, "beta_regularizer": null, "moving_variance_initializer": {"config": {}, "class_name": "Ones"}, "moving_mean_initializer": {"config": {}, "class_name": "Zeros"}, "beta_initializer": {"config": {}, "class_name": "Zeros"}}, "class_name": "BatchNormalization", "name": "batch_normalization_5", "inbound_nodes": [[["self__attention_3", 0, 0, {}]]]}, {"config": {"padding": "valid", "data_format": "channels_last", "pool_size": [1], "name": "max_pooling1d_1", "trainable": true, "strides": [1]}, "class_name": "MaxPooling1D", "name": "max_pooling1d_1", "inbound_nodes": [[["activation_2", 0, 0, {}]]]}, {"config": {"name": "activation_5", "trainable": true, "activation": "relu"}, "class_name": "Activation", "name": "activation_5", "inbound_nodes": [[["batch_normalization_5", 0, 0, {}]]]}, {"config": {"name": "add_1", "trainable": true}, "class_name": "Add", "name": "add_1", "inbound_nodes": [[["max_pooling1d_1", 0, 0, {}], ["activation_5", 0, 0, {}]]]}, {"config": {"gamma_constraint": null, "gamma_regularizer": null, "center": true, "scale": true, "epsilon": 0.001, "beta_constraint": null, "momentum": 0.99, "axis": -1, "gamma_initializer": {"config": {}, "class_name": "Ones"}, "name": "batch_normalization_6", "trainable": true, "beta_regularizer": null, "moving_variance_initializer": {"config": {}, "class_name": "Ones"}, "moving_mean_initializer": {"config": {}, "class_name": "Zeros"}, "beta_initializer": {"config": {}, "class_name": "Zeros"}}, "class_name": "BatchNormalization", "name": "batch_normalization_6", "inbound_nodes": [[["add_1", 0, 0, {}]]]}, {"config": {"name": "activation_6", "trainable": true, "activation": "relu"}, "class_name": "Activation", "name": "activation_6", "inbound_nodes": [[["batch_normalization_6", 0, 0, {}]]]}, {"config": {"padding": "same", "kernel_constraint": null, "kernel_size": [16], "data_format": "channels_last", "use_bias": true, "dilation_rate": [1], "kernel_initializer": {"config": {"seed": null, "mode": "fan_in", "scale": 2.0, "distribution": "normal"}, "class_name": "VarianceScaling"}, "activity_regularizer": null, "filters": 32, "kernel_regularizer": {"config": {"l1": 0.0, "l2": 0.009999999776482582}, "class_name": "L1L2"}, "bias_initializer": {"config": {}, "class_name": "Zeros"}, "name": "conv1d_13", "trainable": true, "activation": "linear", "bias_constraint": null, "strides": [2], "bias_regularizer": null}, "class_name": "Conv1D", "name": "conv1d_13", "inbound_nodes": [[["activation_6", 0, 0, {}]]]}, {"config": {"padding": "same", "kernel_constraint": null, "kernel_size": [64], "data_format": "channels_last", "use_bias": true, "dilation_rate": [1], "kernel_initializer": {"config": {"seed": null, "mode": "fan_in", "scale": 2.0, "distribution": "normal"}, "class_name": "VarianceScaling"}, "activity_regularizer": null, "filters": 32, "kernel_regularizer": {"config": {"l1": 0.0, "l2": 0.009999999776482582}, "class_name": "L1L2"}, "bias_initializer": {"config": {}, "class_name": "Zeros"}, "name": "conv1d_14", "trainable": true, "activation": "linear", "bias_constraint": null, "strides": [2], "bias_regularizer": null}, "class_name": "Conv1D", "name": "conv1d_14", "inbound_nodes": [[["activation_6", 0, 0, {}]]]}, {"config": {"padding": "same", "kernel_constraint": null, "kernel_size": [32], "data_format": "channels_last", "use_bias": true, "dilation_rate": [1], "kernel_initializer": {"config": {"seed": null, "mode": "fan_in", "scale": 2.0, "distribution": "normal"}, "class_name": "VarianceScaling"}, "activity_regularizer": null, "filters": 32, "kernel_regularizer": {"config": {"l1": 0.0, "l2": 0.009999999776482582}, "class_name": "L1L2"}, "bias_initializer": {"config": {}, "class_name": "Zeros"}, "name": "conv1d_15", "trainable": true, "activation": "linear", "bias_constraint": null, "strides": [2], "bias_regularizer": null}, "class_name": "Conv1D", "name": "conv1d_15", "inbound_nodes": [[["activation_6", 0, 0, {}]]]}, {"config": {"axis": 2, "name": "concatenate_4", "trainable": true}, "class_name": "Concatenate", "name": "concatenate_4", "inbound_nodes": [[["conv1d_13", 0, 0, {}], ["conv1d_14", 0, 0, {}], ["conv1d_15", 0, 0, {}]]]}, {"config": {"padding": "same", "kernel_constraint": null, "kernel_size": [2], "data_format": "channels_last", "use_bias": true, "dilation_rate": [1], "kernel_initializer": {"config": {"seed": null, "mode": "fan_in", "scale": 2.0, "distribution": "normal"}, "class_name": "VarianceScaling"}, "activity_regularizer": null, "filters": 32, "kernel_regularizer": {"config": {"l1": 0.0, "l2": 0.009999999776482582}, "class_name": "L1L2"}, "bias_initializer": {"config": {}, "class_name": "Zeros"}, "name": "conv1d_16", "trainable": true, "activation": "linear", "bias_constraint": null, "strides": [1], "bias_regularizer": null}, "class_name": "Conv1D", "name": "conv1d_16", "inbound_nodes": [[["concatenate_4", 0, 0, {}]]]}, {"config": {"name": "self__attention_4", "trainable": true}, "class_name": "Self_Attention", "name": "self__attention_4", "inbound_nodes": [[["conv1d_16", 0, 0, {}]]]}, {"config": {"gamma_constraint": null, "gamma_regularizer": null, "center": true, "scale": true, "epsilon": 0.001, "beta_constraint": null, "momentum": 0.99, "axis": -1, "gamma_initializer": {"config": {}, "class_name": "Ones"}, "name": "batch_normalization_7", "trainable": true, "beta_regularizer": null, "moving_variance_initializer": {"config": {}, "class_name": "Ones"}, "moving_mean_initializer": {"config": {}, "class_name": "Zeros"}, "beta_initializer": {"config": {}, "class_name": "Zeros"}}, "class_name": "BatchNormalization", "name": "batch_normalization_7", "inbound_nodes": [[["self__attention_4", 0, 0, {}]]]}, {"config": {"name": "activation_7", "trainable": true, "activation": "relu"}, "class_name": "Activation", "name": "activation_7", "inbound_nodes": [[["batch_normalization_7", 0, 0, {}]]]}, {"config": {"gamma_constraint": null, "gamma_regularizer": null, "center": true, "scale": true, "epsilon": 0.001, "beta_constraint": null, "momentum": 0.99, "axis": -1, "gamma_initializer": {"config": {}, "class_name": "Ones"}, "name": "batch_normalization_8", "trainable": true, "beta_regularizer": null, "moving_variance_initializer": {"config": {}, "class_name": "Ones"}, "moving_mean_initializer": {"config": {}, "class_name": "Zeros"}, "beta_initializer": {"config": {}, "class_name": "Zeros"}}, "class_name": "BatchNormalization", "name": "batch_normalization_8", "inbound_nodes": [[["activation_7", 0, 0, {}]]]}, {"config": {"name": "activation_8", "trainable": true, "activation": "relu"}, "class_name": "Activation", "name": "activation_8", "inbound_nodes": [[["batch_normalization_8", 0, 0, {}]]]}, {"config": {"trainable": true, "seed": null, "noise_shape": null, "name": "dropout_2", "rate": 0.5}, "class_name": "Dropout", "name": "dropout_2", "inbound_nodes": [[["activation_8", 0, 0, {}]]]}, {"config": {"padding": "same", "kernel_constraint": null, "kernel_size": [16], "data_format": "channels_last", "use_bias": true, "dilation_rate": [1], "kernel_initializer": {"config": {"seed": null, "mode": "fan_in", "scale": 2.0, "distribution": "normal"}, "class_name": "VarianceScaling"}, "activity_regularizer": null, "filters": 32, "kernel_regularizer": {"config": {"l1": 0.0, "l2": 0.009999999776482582}, "class_name": "L1L2"}, "bias_initializer": {"config": {}, "class_name": "Zeros"}, "name": "conv1d_17", "trainable": true, "activation": "linear", "bias_constraint": null, "strides": [1], "bias_regularizer": null}, "class_name": "Conv1D", "name": "conv1d_17", "inbound_nodes": [[["dropout_2", 0, 0, {}]]]}, {"config": {"padding": "same", "kernel_constraint": null, "kernel_size": [64], "data_format": "channels_last", "use_bias": true, "dilation_rate": [1], "kernel_initializer": {"config": {"seed": null, "mode": "fan_in", "scale": 2.0, "distribution": "normal"}, "class_name": "VarianceScaling"}, "activity_regularizer": null, "filters": 32, "kernel_regularizer": {"config": {"l1": 0.0, "l2": 0.009999999776482582}, "class_name": "L1L2"}, "bias_initializer": {"config": {}, "class_name": "Zeros"}, "name": "conv1d_18", "trainable": true, "activation": "linear", "bias_constraint": null, "strides": [1], "bias_regularizer": null}, "class_name": "Conv1D", "name": "conv1d_18", "inbound_nodes": [[["dropout_2", 0, 0, {}]]]}, {"config": {"padding": "same", "kernel_constraint": null, "kernel_size": [32], "data_format": "channels_last", "use_bias": true, "dilation_rate": [1], "kernel_initializer": {"config": {"seed": null, "mode": "fan_in", "scale": 2.0, "distribution": "normal"}, "class_name": "VarianceScaling"}, "activity_regularizer": null, "filters": 32, "kernel_regularizer": {"config": {"l1": 0.0, "l2": 0.009999999776482582}, "class_name": "L1L2"}, "bias_initializer": {"config": {}, "class_name": "Zeros"}, "name": "conv1d_19", "trainable": true, "activation": "linear", "bias_constraint": null, "strides": [1], "bias_regularizer": null}, "class_name": "Conv1D", "name": "conv1d_19", "inbound_nodes": [[["dropout_2", 0, 0, {}]]]}, {"config": {"axis": 2, "name": "concatenate_5", "trainable": true}, "class_name": "Concatenate", "name": "concatenate_5", "inbound_nodes": [[["conv1d_17", 0, 0, {}], ["conv1d_18", 0, 0, {}], ["conv1d_19", 0, 0, {}]]]}, {"config": {"padding": "same", "kernel_constraint": null, "kernel_size": [1], "data_format": "channels_last", "use_bias": true, "dilation_rate": [1], "kernel_initializer": {"config": {"seed": null, "mode": "fan_in", "scale": 2.0, "distribution": "normal"}, "class_name": "VarianceScaling"}, "activity_regularizer": null, "filters": 32, "kernel_regularizer": {"config": {"l1": 0.0, "l2": 0.009999999776482582}, "class_name": "L1L2"}, "bias_initializer": {"config": {}, "class_name": "Zeros"}, "name": "conv1d_20", "trainable": true, "activation": "linear", "bias_constraint": null, "strides": [1], "bias_regularizer": null}, "class_name": "Conv1D", "name": "conv1d_20", "inbound_nodes": [[["concatenate_5", 0, 0, {}]]]}, {"config": {"name": "self__attention_5", "trainable": true}, "class_name": "Self_Attention", "name": "self__attention_5", "inbound_nodes": [[["conv1d_20", 0, 0, {}]]]}, {"config": {"gamma_constraint": null, "gamma_regularizer": null, "center": true, "scale": true, "epsilon": 0.001, "beta_constraint": null, "momentum": 0.99, "axis": -1, "gamma_initializer": {"config": {}, "class_name": "Ones"}, "name": "batch_normalization_9", "trainable": true, "beta_regularizer": null, "moving_variance_initializer": {"config": {}, "class_name": "Ones"}, "moving_mean_initializer": {"config": {}, "class_name": "Zeros"}, "beta_initializer": {"config": {}, "class_name": "Zeros"}}, "class_name": "BatchNormalization", "name": "batch_normalization_9", "inbound_nodes": [[["self__attention_5", 0, 0, {}]]]}, {"config": {"padding": "valid", "data_format": "channels_last", "pool_size": [2], "name": "max_pooling1d_2", "trainable": true, "strides": [2]}, "class_name": "MaxPooling1D", "name": "max_pooling1d_2", "inbound_nodes": [[["add_1", 0, 0, {}]]]}, {"config": {"name": "activation_9", "trainable": true, "activation": "relu"}, "class_name": "Activation", "name": "activation_9", "inbound_nodes": [[["batch_normalization_9", 0, 0, {}]]]}, {"config": {"name": "add_2", "trainable": true}, "class_name": "Add", "name": "add_2", "inbound_nodes": [[["max_pooling1d_2", 0, 0, {}], ["activation_9", 0, 0, {}]]]}, {"config": {"gamma_constraint": null, "gamma_regularizer": null, "center": true, "scale": true, "epsilon": 0.001, "beta_constraint": null, "momentum": 0.99, "axis": -1, "gamma_initializer": {"config": {}, "class_name": "Ones"}, "name": "batch_normalization_10", "trainable": true, "beta_regularizer": null, "moving_variance_initializer": {"config": {}, "class_name": "Ones"}, "moving_mean_initializer": {"config": {}, "class_name": "Zeros"}, "beta_initializer": {"config": {}, "class_name": "Zeros"}}, "class_name": "BatchNormalization", "name": "batch_normalization_10", "inbound_nodes": [[["add_2", 0, 0, {}]]]}, {"config": {"name": "activation_10", "trainable": true, "activation": "relu"}, "class_name": "Activation", "name": "activation_10", "inbound_nodes": [[["batch_normalization_10", 0, 0, {}]]]}, {"config": {"padding": "same", "kernel_constraint": null, "kernel_size": [16], "data_format": "channels_last", "use_bias": true, "dilation_rate": [1], "kernel_initializer": {"config": {"seed": null, "mode": "fan_in", "scale": 2.0, "distribution": "normal"}, "class_name": "VarianceScaling"}, "activity_regularizer": null, "filters": 32, "kernel_regularizer": {"config": {"l1": 0.0, "l2": 0.009999999776482582}, "class_name": "L1L2"}, "bias_initializer": {"config": {}, "class_name": "Zeros"}, "name": "conv1d_21", "trainable": true, "activation": "linear", "bias_constraint": null, "strides": [1], "bias_regularizer": null}, "class_name": "Conv1D", "name": "conv1d_21", "inbound_nodes": [[["activation_10", 0, 0, {}]]]}, {"config": {"padding": "same", "kernel_constraint": null, "kernel_size": [64], "data_format": "channels_last", "use_bias": true, "dilation_rate": [1], "kernel_initializer": {"config": {"seed": null, "mode": "fan_in", "scale": 2.0, "distribution": "normal"}, "class_name": "VarianceScaling"}, "activity_regularizer": null, "filters": 32, "kernel_regularizer": {"config": {"l1": 0.0, "l2": 0.009999999776482582}, "class_name": "L1L2"}, "bias_initializer": {"config": {}, "class_name": "Zeros"}, "name": "conv1d_22", "trainable": true, "activation": "linear", "bias_constraint": null, "strides": [1], "bias_regularizer": null}, "class_name": "Conv1D", "name": "conv1d_22", "inbound_nodes": [[["activation_10", 0, 0, {}]]]}, {"config": {"padding": "same", "kernel_constraint": null, "kernel_size": [32], "data_format": "channels_last", "use_bias": true, "dilation_rate": [1], "kernel_initializer": {"config": {"seed": null, "mode": "fan_in", "scale": 2.0, "distribution": "normal"}, "class_name": "VarianceScaling"}, "activity_regularizer": null, "filters": 32, "kernel_regularizer": {"config": {"l1": 0.0, "l2": 0.009999999776482582}, "class_name": "L1L2"}, "bias_initializer": {"config": {}, "class_name": "Zeros"}, "name": "conv1d_23", "trainable": true, "activation": "linear", "bias_constraint": null, "strides": [1], "bias_regularizer": null}, "class_name": "Conv1D", "name": "conv1d_23", "inbound_nodes": [[["activation_10", 0, 0, {}]]]}, {"config": {"axis": 2, "name": "concatenate_6", "trainable": true}, "class_name": "Concatenate", "name": "concatenate_6", "inbound_nodes": [[["conv1d_21", 0, 0, {}], ["conv1d_22", 0, 0, {}], ["conv1d_23", 0, 0, {}]]]}, {"config": {"padding": "same", "kernel_constraint": null, "kernel_size": [1], "data_format": "channels_last", "use_bias": true, "dilation_rate": [1], "kernel_initializer": {"config": {"seed": null, "mode": "fan_in", "scale": 2.0, "distribution": "normal"}, "class_name": "VarianceScaling"}, "activity_regularizer": null, "filters": 32, "kernel_regularizer": {"config": {"l1": 0.0, "l2": 0.009999999776482582}, "class_name": "L1L2"}, "bias_initializer": {"config": {}, "class_name": "Zeros"}, "name": "conv1d_24", "trainable": true, "activation": "linear", "bias_constraint": null, "strides": [1], "bias_regularizer": null}, "class_name": "Conv1D", "name": "conv1d_24", "inbound_nodes": [[["concatenate_6", 0, 0, {}]]]}, {"config": {"name": "self__attention_6", "trainable": true}, "class_name": "Self_Attention", "name": "self__attention_6", "inbound_nodes": [[["conv1d_24", 0, 0, {}]]]}, {"config": {"gamma_constraint": null, "gamma_regularizer": null, "center": true, "scale": true, "epsilon": 0.001, "beta_constraint": null, "momentum": 0.99, "axis": -1, "gamma_initializer": {"config": {}, "class_name": "Ones"}, "name": "batch_normalization_11", "trainable": true, "beta_regularizer": null, "moving_variance_initializer": {"config": {}, "class_name": "Ones"}, "moving_mean_initializer": {"config": {}, "class_name": "Zeros"}, "beta_initializer": {"config": {}, "class_name": "Zeros"}}, "class_name": "BatchNormalization", "name": "batch_normalization_11", "inbound_nodes": [[["self__attention_6", 0, 0, {}]]]}, {"config": {"name": "activation_11", "trainable": true, "activation": "relu"}, "class_name": "Activation", "name": "activation_11", "inbound_nodes": [[["batch_normalization_11", 0, 0, {}]]]}, {"config": {"gamma_constraint": null, "gamma_regularizer": null, "center": true, "scale": true, "epsilon": 0.001, "beta_constraint": null, "momentum": 0.99, "axis": -1, "gamma_initializer": {"config": {}, "class_name": "Ones"}, "name": "batch_normalization_12", "trainable": true, "beta_regularizer": null, "moving_variance_initializer": {"config": {}, "class_name": "Ones"}, "moving_mean_initializer": {"config": {}, "class_name": "Zeros"}, "beta_initializer": {"config": {}, "class_name": "Zeros"}}, "class_name": "BatchNormalization", "name": "batch_normalization_12", "inbound_nodes": [[["activation_11", 0, 0, {}]]]}, {"config": {"name": "activation_12", "trainable": true, "activation": "relu"}, "class_name": "Activation", "name": "activation_12", "inbound_nodes": [[["batch_normalization_12", 0, 0, {}]]]}, {"config": {"trainable": true, "seed": null, "noise_shape": null, "name": "dropout_3", "rate": 0.5}, "class_name": "Dropout", "name": "dropout_3", "inbound_nodes": [[["activation_12", 0, 0, {}]]]}, {"config": {"padding": "same", "kernel_constraint": null, "kernel_size": [16], "data_format": "channels_last", "use_bias": true, "dilation_rate": [1], "kernel_initializer": {"config": {"seed": null, "mode": "fan_in", "scale": 2.0, "distribution": "normal"}, "class_name": "VarianceScaling"}, "activity_regularizer": null, "filters": 32, "kernel_regularizer": {"config": {"l1": 0.0, "l2": 0.009999999776482582}, "class_name": "L1L2"}, "bias_initializer": {"config": {}, "class_name": "Zeros"}, "name": "conv1d_25", "trainable": true, "activation": "linear", "bias_constraint": null, "strides": [1], "bias_regularizer": null}, "class_name": "Conv1D", "name": "conv1d_25", "inbound_nodes": [[["dropout_3", 0, 0, {}]]]}, {"config": {"padding": "same", "kernel_constraint": null, "kernel_size": [64], "data_format": "channels_last", "use_bias": true, "dilation_rate": [1], "kernel_initializer": {"config": {"seed": null, "mode": "fan_in", "scale": 2.0, "distribution": "normal"}, "class_name": "VarianceScaling"}, "activity_regularizer": null, "filters": 32, "kernel_regularizer": {"config": {"l1": 0.0, "l2": 0.009999999776482582}, "class_name": "L1L2"}, "bias_initializer": {"config": {}, "class_name": "Zeros"}, "name": "conv1d_26", "trainable": true, "activation": "linear", "bias_constraint": null, "strides": [1], "bias_regularizer": null}, "class_name": "Conv1D", "name": "conv1d_26", "inbound_nodes": [[["dropout_3", 0, 0, {}]]]}, {"config": {"padding": "same", "kernel_constraint": null, "kernel_size": [32], "data_format": "channels_last", "use_bias": true, "dilation_rate": [1], "kernel_initializer": {"config": {"seed": null, "mode": "fan_in", "scale": 2.0, "distribution": "normal"}, "class_name": "VarianceScaling"}, "activity_regularizer": null, "filters": 32, "kernel_regularizer": {"config": {"l1": 0.0, "l2": 0.009999999776482582}, "class_name": "L1L2"}, "bias_initializer": {"config": {}, "class_name": "Zeros"}, "name": "conv1d_27", "trainable": true, "activation": "linear", "bias_constraint": null, "strides": [1], "bias_regularizer": null}, "class_name": "Conv1D", "name": "conv1d_27", "inbound_nodes": [[["dropout_3", 0, 0, {}]]]}, {"config": {"axis": 2, "name": "concatenate_7", "trainable": true}, "class_name": "Concatenate", "name": "concatenate_7", "inbound_nodes": [[["conv1d_25", 0, 0, {}], ["conv1d_26", 0, 0, {}], ["conv1d_27", 0, 0, {}]]]}, {"config": {"padding": "same", "kernel_constraint": null, "kernel_size": [1], "data_format": "channels_last", "use_bias": true, "dilation_rate": [1], "kernel_initializer": {"config": {"seed": null, "mode": "fan_in", "scale": 2.0, "distribution": "normal"}, "class_name": "VarianceScaling"}, "activity_regularizer": null, "filters": 32, "kernel_regularizer": {"config": {"l1": 0.0, "l2": 0.009999999776482582}, "class_name": "L1L2"}, "bias_initializer": {"config": {}, "class_name": "Zeros"}, "name": "conv1d_28", "trainable": true, "activation": "linear", "bias_constraint": null, "strides": [1], "bias_regularizer": null}, "class_name": "Conv1D", "name": "conv1d_28", "inbound_nodes": [[["concatenate_7", 0, 0, {}]]]}, {"config": {"name": "self__attention_7", "trainable": true}, "class_name": "Self_Attention", "name": "self__attention_7", "inbound_nodes": [[["conv1d_28", 0, 0, {}]]]}, {"config": {"gamma_constraint": null, "gamma_regularizer": null, "center": true, "scale": true, "epsilon": 0.001, "beta_constraint": null, "momentum": 0.99, "axis": -1, "gamma_initializer": {"config": {}, "class_name": "Ones"}, "name": "batch_normalization_13", "trainable": true, "beta_regularizer": null, "moving_variance_initializer": {"config": {}, "class_name": "Ones"}, "moving_mean_initializer": {"config": {}, "class_name": "Zeros"}, "beta_initializer": {"config": {}, "class_name": "Zeros"}}, "class_name": "BatchNormalization", "name": "batch_normalization_13", "inbound_nodes": [[["self__attention_7", 0, 0, {}]]]}, {"config": {"padding": "valid", "data_format": "channels_last", "pool_size": [1], "name": "max_pooling1d_3", "trainable": true, "strides": [1]}, "class_name": "MaxPooling1D", "name": "max_pooling1d_3", "inbound_nodes": [[["add_2", 0, 0, {}]]]}, {"config": {"name": "activation_13", "trainable": true, "activation": "relu"}, "class_name": "Activation", "name": "activation_13", "inbound_nodes": [[["batch_normalization_13", 0, 0, {}]]]}, {"config": {"name": "add_3", "trainable": true}, "class_name": "Add", "name": "add_3", "inbound_nodes": [[["max_pooling1d_3", 0, 0, {}], ["activation_13", 0, 0, {}]]]}, {"config": {"gamma_constraint": null, "gamma_regularizer": null, "center": true, "scale": true, "epsilon": 0.001, "beta_constraint": null, "momentum": 0.99, "axis": -1, "gamma_initializer": {"config": {}, "class_name": "Ones"}, "name": "batch_normalization_14", "trainable": true, "beta_regularizer": null, "moving_variance_initializer": {"config": {}, "class_name": "Ones"}, "moving_mean_initializer": {"config": {}, "class_name": "Zeros"}, "beta_initializer": {"config": {}, "class_name": "Zeros"}}, "class_name": "BatchNormalization", "name": "batch_normalization_14", "inbound_nodes": [[["add_3", 0, 0, {}]]]}, {"config": {"name": "activation_14", "trainable": true, "activation": "relu"}, "class_name": "Activation", "name": "activation_14", "inbound_nodes": [[["batch_normalization_14", 0, 0, {}]]]}, {"config": {"padding": "same", "kernel_constraint": null, "kernel_size": [16], "data_format": "channels_last", "use_bias": true, "dilation_rate": [1], "kernel_initializer": {"config": {"seed": null, "mode": "fan_in", "scale": 2.0, "distribution": "normal"}, "class_name": "VarianceScaling"}, "activity_regularizer": null, "filters": 32, "kernel_regularizer": {"config": {"l1": 0.0, "l2": 0.009999999776482582}, "class_name": "L1L2"}, "bias_initializer": {"config": {}, "class_name": "Zeros"}, "name": "conv1d_29", "trainable": true, "activation": "linear", "bias_constraint": null, "strides": [2], "bias_regularizer": null}, "class_name": "Conv1D", "name": "conv1d_29", "inbound_nodes": [[["activation_14", 0, 0, {}]]]}, {"config": {"padding": "same", "kernel_constraint": null, "kernel_size": [64], "data_format": "channels_last", "use_bias": true, "dilation_rate": [1], "kernel_initializer": {"config": {"seed": null, "mode": "fan_in", "scale": 2.0, "distribution": "normal"}, "class_name": "VarianceScaling"}, "activity_regularizer": null, "filters": 32, "kernel_regularizer": {"config": {"l1": 0.0, "l2": 0.009999999776482582}, "class_name": "L1L2"}, "bias_initializer": {"config": {}, "class_name": "Zeros"}, "name": "conv1d_30", "trainable": true, "activation": "linear", "bias_constraint": null, "strides": [2], "bias_regularizer": null}, "class_name": "Conv1D", "name": "conv1d_30", "inbound_nodes": [[["activation_14", 0, 0, {}]]]}, {"config": {"padding": "same", "kernel_constraint": null, "kernel_size": [32], "data_format": "channels_last", "use_bias": true, "dilation_rate": [1], "kernel_initializer": {"config": {"seed": null, "mode": "fan_in", "scale": 2.0, "distribution": "normal"}, "class_name": "VarianceScaling"}, "activity_regularizer": null, "filters": 32, "kernel_regularizer": {"config": {"l1": 0.0, "l2": 0.009999999776482582}, "class_name": "L1L2"}, "bias_initializer": {"config": {}, "class_name": "Zeros"}, "name": "conv1d_31", "trainable": true, "activation": "linear", "bias_constraint": null, "strides": [2], "bias_regularizer": null}, "class_name": "Conv1D", "name": "conv1d_31", "inbound_nodes": [[["activation_14", 0, 0, {}]]]}, {"config": {"axis": 2, "name": "concatenate_8", "trainable": true}, "class_name": "Concatenate", "name": "concatenate_8", "inbound_nodes": [[["conv1d_29", 0, 0, {}], ["conv1d_30", 0, 0, {}], ["conv1d_31", 0, 0, {}]]]}, {"config": {"padding": "same", "kernel_constraint": null, "kernel_size": [2], "data_format": "channels_last", "use_bias": true, "dilation_rate": [1], "kernel_initializer": {"config": {"seed": null, "mode": "fan_in", "scale": 2.0, "distribution": "normal"}, "class_name": "VarianceScaling"}, "activity_regularizer": null, "filters": 32, "kernel_regularizer": {"config": {"l1": 0.0, "l2": 0.009999999776482582}, "class_name": "L1L2"}, "bias_initializer": {"config": {}, "class_name": "Zeros"}, "name": "conv1d_32", "trainable": true, "activation": "linear", "bias_constraint": null, "strides": [1], "bias_regularizer": null}, "class_name": "Conv1D", "name": "conv1d_32", "inbound_nodes": [[["concatenate_8", 0, 0, {}]]]}, {"config": {"name": "self__attention_8", "trainable": true}, "class_name": "Self_Attention", "name": "self__attention_8", "inbound_nodes": [[["conv1d_32", 0, 0, {}]]]}, {"config": {"gamma_constraint": null, "gamma_regularizer": null, "center": true, "scale": true, "epsilon": 0.001, "beta_constraint": null, "momentum": 0.99, "axis": -1, "gamma_initializer": {"config": {}, "class_name": "Ones"}, "name": "batch_normalization_15", "trainable": true, "beta_regularizer": null, "moving_variance_initializer": {"config": {}, "class_name": "Ones"}, "moving_mean_initializer": {"config": {}, "class_name": "Zeros"}, "beta_initializer": {"config": {}, "class_name": "Zeros"}}, "class_name": "BatchNormalization", "name": "batch_normalization_15", "inbound_nodes": [[["self__attention_8", 0, 0, {}]]]}, {"config": {"name": "activation_15", "trainable": true, "activation": "relu"}, "class_name": "Activation", "name": "activation_15", "inbound_nodes": [[["batch_normalization_15", 0, 0, {}]]]}, {"config": {"gamma_constraint": null, "gamma_regularizer": null, "center": true, "scale": true, "epsilon": 0.001, "beta_constraint": null, "momentum": 0.99, "axis": -1, "gamma_initializer": {"config": {}, "class_name": "Ones"}, "name": "batch_normalization_16", "trainable": true, "beta_regularizer": null, "moving_variance_initializer": {"config": {}, "class_name": "Ones"}, "moving_mean_initializer": {"config": {}, "class_name": "Zeros"}, "beta_initializer": {"config": {}, "class_name": "Zeros"}}, "class_name": "BatchNormalization", "name": "batch_normalization_16", "inbound_nodes": [[["activation_15", 0, 0, {}]]]}, {"config": {"name": "activation_16", "trainable": true, "activation": "relu"}, "class_name": "Activation", "name": "activation_16", "inbound_nodes": [[["batch_normalization_16", 0, 0, {}]]]}, {"config": {"trainable": true, "seed": null, "noise_shape": null, "name": "dropout_4", "rate": 0.5}, "class_name": "Dropout", "name": "dropout_4", "inbound_nodes": [[["activation_16", 0, 0, {}]]]}, {"config": {"padding": "same", "kernel_constraint": null, "kernel_size": [16], "data_format": "channels_last", "use_bias": true, "dilation_rate": [1], "kernel_initializer": {"config": {"seed": null, "mode": "fan_in", "scale": 2.0, "distribution": "normal"}, "class_name": "VarianceScaling"}, "activity_regularizer": null, "filters": 32, "kernel_regularizer": {"config": {"l1": 0.0, "l2": 0.009999999776482582}, "class_name": "L1L2"}, "bias_initializer": {"config": {}, "class_name": "Zeros"}, "name": "conv1d_33", "trainable": true, "activation": "linear", "bias_constraint": null, "strides": [1], "bias_regularizer": null}, "class_name": "Conv1D", "name": "conv1d_33", "inbound_nodes": [[["dropout_4", 0, 0, {}]]]}, {"config": {"padding": "same", "kernel_constraint": null, "kernel_size": [64], "data_format": "channels_last", "use_bias": true, "dilation_rate": [1], "kernel_initializer": {"config": {"seed": null, "mode": "fan_in", "scale": 2.0, "distribution": "normal"}, "class_name": "VarianceScaling"}, "activity_regularizer": null, "filters": 32, "kernel_regularizer": {"config": {"l1": 0.0, "l2": 0.009999999776482582}, "class_name": "L1L2"}, "bias_initializer": {"config": {}, "class_name": "Zeros"}, "name": "conv1d_34", "trainable": true, "activation": "linear", "bias_constraint": null, "strides": [1], "bias_regularizer": null}, "class_name": "Conv1D", "name": "conv1d_34", "inbound_nodes": [[["dropout_4", 0, 0, {}]]]}, {"config": {"padding": "same", "kernel_constraint": null, "kernel_size": [32], "data_format": "channels_last", "use_bias": true, "dilation_rate": [1], "kernel_initializer": {"config": {"seed": null, "mode": "fan_in", "scale": 2.0, "distribution": "normal"}, "class_name": "VarianceScaling"}, "activity_regularizer": null, "filters": 32, "kernel_regularizer": {"config": {"l1": 0.0, "l2": 0.009999999776482582}, "class_name": "L1L2"}, "bias_initializer": {"config": {}, "class_name": "Zeros"}, "name": "conv1d_35", "trainable": true, "activation": "linear", "bias_constraint": null, "strides": [1], "bias_regularizer": null}, "class_name": "Conv1D", "name": "conv1d_35", "inbound_nodes": [[["dropout_4", 0, 0, {}]]]}, {"config": {"axis": 2, "name": "concatenate_9", "trainable": true}, "class_name": "Concatenate", "name": "concatenate_9", "inbound_nodes": [[["conv1d_33", 0, 0, {}], ["conv1d_34", 0, 0, {}], ["conv1d_35", 0, 0, {}]]]}, {"config": {"padding": "same", "kernel_constraint": null, "kernel_size": [1], "data_format": "channels_last", "use_bias": true, "dilation_rate": [1], "kernel_initializer": {"config": {"seed": null, "mode": "fan_in", "scale": 2.0, "distribution": "normal"}, "class_name": "VarianceScaling"}, "activity_regularizer": null, "filters": 32, "kernel_regularizer": {"config": {"l1": 0.0, "l2": 0.009999999776482582}, "class_name": "L1L2"}, "bias_initializer": {"config": {}, "class_name": "Zeros"}, "name": "conv1d_36", "trainable": true, "activation": "linear", "bias_constraint": null, "strides": [1], "bias_regularizer": null}, "class_name": "Conv1D", "name": "conv1d_36", "inbound_nodes": [[["concatenate_9", 0, 0, {}]]]}, {"config": {"name": "self__attention_9", "trainable": true}, "class_name": "Self_Attention", "name": "self__attention_9", "inbound_nodes": [[["conv1d_36", 0, 0, {}]]]}, {"config": {"gamma_constraint": null, "gamma_regularizer": null, "center": true, "scale": true, "epsilon": 0.001, "beta_constraint": null, "momentum": 0.99, "axis": -1, "gamma_initializer": {"config": {}, "class_name": "Ones"}, "name": "batch_normalization_17", "trainable": true, "beta_regularizer": null, "moving_variance_initializer": {"config": {}, "class_name": "Ones"}, "moving_mean_initializer": {"config": {}, "class_name": "Zeros"}, "beta_initializer": {"config": {}, "class_name": "Zeros"}}, "class_name": "BatchNormalization", "name": "batch_normalization_17", "inbound_nodes": [[["self__attention_9", 0, 0, {}]]]}, {"config": {"padding": "valid", "data_format": "channels_last", "pool_size": [2], "name": "max_pooling1d_4", "trainable": true, "strides": [2]}, "class_name": "MaxPooling1D", "name": "max_pooling1d_4", "inbound_nodes": [[["add_3", 0, 0, {}]]]}, {"config": {"name": "activation_17", "trainable": true, "activation": "relu"}, "class_name": "Activation", "name": "activation_17", "inbound_nodes": [[["batch_normalization_17", 0, 0, {}]]]}, {"config": {"name": "add_4", "trainable": true}, "class_name": "Add", "name": "add_4", "inbound_nodes": [[["max_pooling1d_4", 0, 0, {}], ["activation_17", 0, 0, {}]]]}, {"config": {"gamma_constraint": null, "gamma_regularizer": null, "center": true, "scale": true, "epsilon": 0.001, "beta_constraint": null, "momentum": 0.99, "axis": -1, "gamma_initializer": {"config": {}, "class_name": "Ones"}, "name": "batch_normalization_18", "trainable": true, "beta_regularizer": null, "moving_variance_initializer": {"config": {}, "class_name": "Ones"}, "moving_mean_initializer": {"config": {}, "class_name": "Zeros"}, "beta_initializer": {"config": {}, "class_name": "Zeros"}}, "class_name": "BatchNormalization", "name": "batch_normalization_18", "inbound_nodes": [[["add_4", 0, 0, {}]]]}, {"config": {"name": "activation_18", "trainable": true, "activation": "relu"}, "class_name": "Activation", "name": "activation_18", "inbound_nodes": [[["batch_normalization_18", 0, 0, {}]]]}, {"config": {"padding": "same", "kernel_constraint": null, "kernel_size": [16], "data_format": "channels_last", "use_bias": true, "dilation_rate": [1], "kernel_initializer": {"config": {"seed": null, "mode": "fan_in", "scale": 2.0, "distribution": "normal"}, "class_name": "VarianceScaling"}, "activity_regularizer": null, "filters": 64, "kernel_regularizer": {"config": {"l1": 0.0, "l2": 0.009999999776482582}, "class_name": "L1L2"}, "bias_initializer": {"config": {}, "class_name": "Zeros"}, "name": "conv1d_37", "trainable": true, "activation": "linear", "bias_constraint": null, "strides": [1], "bias_regularizer": null}, "class_name": "Conv1D", "name": "conv1d_37", "inbound_nodes": [[["activation_18", 0, 0, {}]]]}, {"config": {"padding": "same", "kernel_constraint": null, "kernel_size": [64], "data_format": "channels_last", "use_bias": true, "dilation_rate": [1], "kernel_initializer": {"config": {"seed": null, "mode": "fan_in", "scale": 2.0, "distribution": "normal"}, "class_name": "VarianceScaling"}, "activity_regularizer": null, "filters": 64, "kernel_regularizer": {"config": {"l1": 0.0, "l2": 0.009999999776482582}, "class_name": "L1L2"}, "bias_initializer": {"config": {}, "class_name": "Zeros"}, "name": "conv1d_38", "trainable": true, "activation": "linear", "bias_constraint": null, "strides": [1], "bias_regularizer": null}, "class_name": "Conv1D", "name": "conv1d_38", "inbound_nodes": [[["activation_18", 0, 0, {}]]]}, {"config": {"padding": "same", "kernel_constraint": null, "kernel_size": [32], "data_format": "channels_last", "use_bias": true, "dilation_rate": [1], "kernel_initializer": {"config": {"seed": null, "mode": "fan_in", "scale": 2.0, "distribution": "normal"}, "class_name": "VarianceScaling"}, "activity_regularizer": null, "filters": 64, "kernel_regularizer": {"config": {"l1": 0.0, "l2": 0.009999999776482582}, "class_name": "L1L2"}, "bias_initializer": {"config": {}, "class_name": "Zeros"}, "name": "conv1d_39", "trainable": true, "activation": "linear", "bias_constraint": null, "strides": [1], "bias_regularizer": null}, "class_name": "Conv1D", "name": "conv1d_39", "inbound_nodes": [[["activation_18", 0, 0, {}]]]}, {"config": {"axis": 2, "name": "concatenate_10", "trainable": true}, "class_name": "Concatenate", "name": "concatenate_10", "inbound_nodes": [[["conv1d_37", 0, 0, {}], ["conv1d_38", 0, 0, {}], ["conv1d_39", 0, 0, {}]]]}, {"config": {"padding": "same", "kernel_constraint": null, "kernel_size": [1], "data_format": "channels_last", "use_bias": true, "dilation_rate": [1], "kernel_initializer": {"config": {"seed": null, "mode": "fan_in", "scale": 2.0, "distribution": "normal"}, "class_name": "VarianceScaling"}, "activity_regularizer": null, "filters": 64, "kernel_regularizer": {"config": {"l1": 0.0, "l2": 0.009999999776482582}, "class_name": "L1L2"}, "bias_initializer": {"config": {}, "class_name": "Zeros"}, "name": "conv1d_40", "trainable": true, "activation": "linear", "bias_constraint": null, "strides": [1], "bias_regularizer": null}, "class_name": "Conv1D", "name": "conv1d_40", "inbound_nodes": [[["concatenate_10", 0, 0, {}]]]}, {"config": {"name": "self__attention_10", "trainable": true}, "class_name": "Self_Attention", "name": "self__attention_10", "inbound_nodes": [[["conv1d_40", 0, 0, {}]]]}, {"config": {"gamma_constraint": null, "gamma_regularizer": null, "center": true, "scale": true, "epsilon": 0.001, "beta_constraint": null, "momentum": 0.99, "axis": -1, "gamma_initializer": {"config": {}, "class_name": "Ones"}, "name": "batch_normalization_19", "trainable": true, "beta_regularizer": null, "moving_variance_initializer": {"config": {}, "class_name": "Ones"}, "moving_mean_initializer": {"config": {}, "class_name": "Zeros"}, "beta_initializer": {"config": {}, "class_name": "Zeros"}}, "class_name": "BatchNormalization", "name": "batch_normalization_19", "inbound_nodes": [[["self__attention_10", 0, 0, {}]]]}, {"config": {"name": "activation_19", "trainable": true, "activation": "relu"}, "class_name": "Activation", "name": "activation_19", "inbound_nodes": [[["batch_normalization_19", 0, 0, {}]]]}, {"config": {"gamma_constraint": null, "gamma_regularizer": null, "center": true, "scale": true, "epsilon": 0.001, "beta_constraint": null, "momentum": 0.99, "axis": -1, "gamma_initializer": {"config": {}, "class_name": "Ones"}, "name": "batch_normalization_20", "trainable": true, "beta_regularizer": null, "moving_variance_initializer": {"config": {}, "class_name": "Ones"}, "moving_mean_initializer": {"config": {}, "class_name": "Zeros"}, "beta_initializer": {"config": {}, "class_name": "Zeros"}}, "class_name": "BatchNormalization", "name": "batch_normalization_20", "inbound_nodes": [[["activation_19", 0, 0, {}]]]}, {"config": {"name": "activation_20", "trainable": true, "activation": "relu"}, "class_name": "Activation", "name": "activation_20", "inbound_nodes": [[["batch_normalization_20", 0, 0, {}]]]}, {"config": {"trainable": true, "seed": null, "noise_shape": null, "name": "dropout_5", "rate": 0.5}, "class_name": "Dropout", "name": "dropout_5", "inbound_nodes": [[["activation_20", 0, 0, {}]]]}, {"config": {"padding": "same", "kernel_constraint": null, "kernel_size": [16], "data_format": "channels_last", "use_bias": true, "dilation_rate": [1], "kernel_initializer": {"config": {"seed": null, "mode": "fan_in", "scale": 2.0, "distribution": "normal"}, "class_name": "VarianceScaling"}, "activity_regularizer": null, "filters": 64, "kernel_regularizer": {"config": {"l1": 0.0, "l2": 0.009999999776482582}, "class_name": "L1L2"}, "bias_initializer": {"config": {}, "class_name": "Zeros"}, "name": "conv1d_41", "trainable": true, "activation": "linear", "bias_constraint": null, "strides": [1], "bias_regularizer": null}, "class_name": "Conv1D", "name": "conv1d_41", "inbound_nodes": [[["dropout_5", 0, 0, {}]]]}, {"config": {"padding": "same", "kernel_constraint": null, "kernel_size": [64], "data_format": "channels_last", "use_bias": true, "dilation_rate": [1], "kernel_initializer": {"config": {"seed": null, "mode": "fan_in", "scale": 2.0, "distribution": "normal"}, "class_name": "VarianceScaling"}, "activity_regularizer": null, "filters": 64, "kernel_regularizer": {"config": {"l1": 0.0, "l2": 0.009999999776482582}, "class_name": "L1L2"}, "bias_initializer": {"config": {}, "class_name": "Zeros"}, "name": "conv1d_42", "trainable": true, "activation": "linear", "bias_constraint": null, "strides": [1], "bias_regularizer": null}, "class_name": "Conv1D", "name": "conv1d_42", "inbound_nodes": [[["dropout_5", 0, 0, {}]]]}, {"config": {"padding": "same", "kernel_constraint": null, "kernel_size": [32], "data_format": "channels_last", "use_bias": true, "dilation_rate": [1], "kernel_initializer": {"config": {"seed": null, "mode": "fan_in", "scale": 2.0, "distribution": "normal"}, "class_name": "VarianceScaling"}, "activity_regularizer": null, "filters": 64, "kernel_regularizer": {"config": {"l1": 0.0, "l2": 0.009999999776482582}, "class_name": "L1L2"}, "bias_initializer": {"config": {}, "class_name": "Zeros"}, "name": "conv1d_43", "trainable": true, "activation": "linear", "bias_constraint": null, "strides": [1], "bias_regularizer": null}, "class_name": "Conv1D", "name": "conv1d_43", "inbound_nodes": [[["dropout_5", 0, 0, {}]]]}, {"config": {"axis": 2, "name": "concatenate_11", "trainable": true}, "class_name": "Concatenate", "name": "concatenate_11", "inbound_nodes": [[["conv1d_41", 0, 0, {}], ["conv1d_42", 0, 0, {}], ["conv1d_43", 0, 0, {}]]]}, {"config": {"padding": "same", "kernel_constraint": null, "kernel_size": [1], "data_format": "channels_last", "use_bias": true, "dilation_rate": [1], "kernel_initializer": {"config": {"seed": null, "mode": "fan_in", "scale": 2.0, "distribution": "normal"}, "class_name": "VarianceScaling"}, "activity_regularizer": null, "filters": 64, "kernel_regularizer": {"config": {"l1": 0.0, "l2": 0.009999999776482582}, "class_name": "L1L2"}, "bias_initializer": {"config": {}, "class_name": "Zeros"}, "name": "conv1d_44", "trainable": true, "activation": "linear", "bias_constraint": null, "strides": [1], "bias_regularizer": null}, "class_name": "Conv1D", "name": "conv1d_44", "inbound_nodes": [[["concatenate_11", 0, 0, {}]]]}, {"config": {"name": "self__attention_11", "trainable": true}, "class_name": "Self_Attention", "name": "self__attention_11", "inbound_nodes": [[["conv1d_44", 0, 0, {}]]]}, {"config": {"padding": "valid", "data_format": "channels_last", "pool_size": [1], "name": "max_pooling1d_5", "trainable": true, "strides": [1]}, "class_name": "MaxPooling1D", "name": "max_pooling1d_5", "inbound_nodes": [[["add_4", 0, 0, {}]]]}, {"config": {"gamma_constraint": null, "gamma_regularizer": null, "center": true, "scale": true, "epsilon": 0.001, "beta_constraint": null, "momentum": 0.99, "axis": -1, "gamma_initializer": {"config": {}, "class_name": "Ones"}, "name": "batch_normalization_21", "trainable": true, "beta_regularizer": null, "moving_variance_initializer": {"config": {}, "class_name": "Ones"}, "moving_mean_initializer": {"config": {}, "class_name": "Zeros"}, "beta_initializer": {"config": {}, "class_name": "Zeros"}}, "class_name": "BatchNormalization", "name": "batch_normalization_21", "inbound_nodes": [[["self__attention_11", 0, 0, {}]]]}, {"config": {"output_shape_type": "lambda", "function": ["4wEAAAAAAAAAAgAAAAQAAABTAAAAcygAAAB0AABqAQB8AACDAQB9AQB0AABqAgB8AAB8AQBnAgBk\nAQBkAgCDAQFTKQNO2gRheGlz6QIAAAApA9oBS9oKemVyb3NfbGlrZdoLY29uY2F0ZW5hdGUpAtoB\neNoBeakAcggAAAD6Ni9tZWRpYS91dXNlci9kYXRhLzk5NS1JQ1UgIHBsdXNlIGZldHVyZS9zcmMv\nbmV0d29yay5wedoHemVyb3BhZJ8AAABzBAAAAAABDwE=\n", null, null], "name": "lambda_1", "trainable": true, "arguments": {}, "function_type": "lambda", "output_shape": ["4wEAAAAAAAAAAgAAAAQAAABTAAAAczwAAAB0AAB8AACDAQB9AQB0AQB8AQCDAQBkAQBrAgBzJAB0\nAgCCAQB8AQBkAgAFGWQCADkDPHQDAHwBAIMBAFMpA07pAwAAAOkCAAAAKQTaBGxpc3TaA2xlbtoO\nQXNzZXJ0aW9uRXJyb3LaBXR1cGxlKQLaC2lucHV0X3NoYXBl2gVzaGFwZakAcgkAAAD6Ni9tZWRp\nYS91dXNlci9kYXRhLzk5NS1JQ1UgIHBsdXNlIGZldHVyZS9zcmMvbmV0d29yay5wedoUemVyb3Bh\nZF9vdXRwdXRfc2hhcGWjAAAAcwgAAAAAAQwBGAEOAQ==\n", null, null]}, "class_name": "Lambda", "name": "lambda_1", "inbound_nodes": [[["max_pooling1d_5", 0, 0, {}]]]}, {"config": {"name": "activation_21", "trainable": true, "activation": "relu"}, "class_name": "Activation", "name": "activation_21", "inbound_nodes": [[["batch_normalization_21", 0, 0, {}]]]}, {"config": {"name": "add_5", "trainable": true}, "class_name": "Add", "name": "add_5", "inbound_nodes": [[["lambda_1", 0, 0, {}], ["activation_21", 0, 0, {}]]]}, {"config": {"gamma_constraint": null, "gamma_regularizer": null, "center": true, "scale": true, "epsilon": 0.001, "beta_constraint": null, "momentum": 0.99, "axis": -1, "gamma_initializer": {"config": {}, "class_name": "Ones"}, "name": "batch_normalization_22", "trainable": true, "beta_regularizer": null, "moving_variance_initializer": {"config": {}, "class_name": "Ones"}, "moving_mean_initializer": {"config": {}, "class_name": "Zeros"}, "beta_initializer": {"config": {}, "class_name": "Zeros"}}, "class_name": "BatchNormalization", "name": "batch_normalization_22", "inbound_nodes": [[["add_5", 0, 0, {}]]]}, {"config": {"name": "activation_22", "trainable": true, "activation": "relu"}, "class_name": "Activation", "name": "activation_22", "inbound_nodes": [[["batch_normalization_22", 0, 0, {}]]]}, {"config": {"padding": "same", "kernel_constraint": null, "kernel_size": [16], "data_format": "channels_last", "use_bias": true, "dilation_rate": [1], "kernel_initializer": {"config": {"seed": null, "mode": "fan_in", "scale": 2.0, "distribution": "normal"}, "class_name": "VarianceScaling"}, "activity_regularizer": null, "filters": 64, "kernel_regularizer": {"config": {"l1": 0.0, "l2": 0.009999999776482582}, "class_name": "L1L2"}, "bias_initializer": {"config": {}, "class_name": "Zeros"}, "name": "conv1d_45", "trainable": true, "activation": "linear", "bias_constraint": null, "strides": [2], "bias_regularizer": null}, "class_name": "Conv1D", "name": "conv1d_45", "inbound_nodes": [[["activation_22", 0, 0, {}]]]}, {"config": {"padding": "same", "kernel_constraint": null, "kernel_size": [64], "data_format": "channels_last", "use_bias": true, "dilation_rate": [1], "kernel_initializer": {"config": {"seed": null, "mode": "fan_in", "scale": 2.0, "distribution": "normal"}, "class_name": "VarianceScaling"}, "activity_regularizer": null, "filters": 64, "kernel_regularizer": {"config": {"l1": 0.0, "l2": 0.009999999776482582}, "class_name": "L1L2"}, "bias_initializer": {"config": {}, "class_name": "Zeros"}, "name": "conv1d_46", "trainable": true, "activation": "linear", "bias_constraint": null, "strides": [2], "bias_regularizer": null}, "class_name": "Conv1D", "name": "conv1d_46", "inbound_nodes": [[["activation_22", 0, 0, {}]]]}, {"config": {"padding": "same", "kernel_constraint": null, "kernel_size": [32], "data_format": "channels_last", "use_bias": true, "dilation_rate": [1], "kernel_initializer": {"config": {"seed": null, "mode": "fan_in", "scale": 2.0, "distribution": "normal"}, "class_name": "VarianceScaling"}, "activity_regularizer": null, "filters": 64, "kernel_regularizer": {"config": {"l1": 0.0, "l2": 0.009999999776482582}, "class_name": "L1L2"}, "bias_initializer": {"config": {}, "class_name": "Zeros"}, "name": "conv1d_47", "trainable": true, "activation": "linear", "bias_constraint": null, "strides": [2], "bias_regularizer": null}, "class_name": "Conv1D", "name": "conv1d_47", "inbound_nodes": [[["activation_22", 0, 0, {}]]]}, {"config": {"axis": 2, "name": "concatenate_12", "trainable": true}, "class_name": "Concatenate", "name": "concatenate_12", "inbound_nodes": [[["conv1d_45", 0, 0, {}], ["conv1d_46", 0, 0, {}], ["conv1d_47", 0, 0, {}]]]}, {"config": {"padding": "same", "kernel_constraint": null, "kernel_size": [2], "data_format": "channels_last", "use_bias": true, "dilation_rate": [1], "kernel_initializer": {"config": {"seed": null, "mode": "fan_in", "scale": 2.0, "distribution": "normal"}, "class_name": "VarianceScaling"}, "activity_regularizer": null, "filters": 64, "kernel_regularizer": {"config": {"l1": 0.0, "l2": 0.009999999776482582}, "class_name": "L1L2"}, "bias_initializer": {"config": {}, "class_name": "Zeros"}, "name": "conv1d_48", "trainable": true, "activation": "linear", "bias_constraint": null, "strides": [1], "bias_regularizer": null}, "class_name": "Conv1D", "name": "conv1d_48", "inbound_nodes": [[["concatenate_12", 0, 0, {}]]]}, {"config": {"name": "self__attention_12", "trainable": true}, "class_name": "Self_Attention", "name": "self__attention_12", "inbound_nodes": [[["conv1d_48", 0, 0, {}]]]}, {"config": {"gamma_constraint": null, "gamma_regularizer": null, "center": true, "scale": true, "epsilon": 0.001, "beta_constraint": null, "momentum": 0.99, "axis": -1, "gamma_initializer": {"config": {}, "class_name": "Ones"}, "name": "batch_normalization_23", "trainable": true, "beta_regularizer": null, "moving_variance_initializer": {"config": {}, "class_name": "Ones"}, "moving_mean_initializer": {"config": {}, "class_name": "Zeros"}, "beta_initializer": {"config": {}, "class_name": "Zeros"}}, "class_name": "BatchNormalization", "name": "batch_normalization_23", "inbound_nodes": [[["self__attention_12", 0, 0, {}]]]}, {"config": {"name": "activation_23", "trainable": true, "activation": "relu"}, "class_name": "Activation", "name": "activation_23", "inbound_nodes": [[["batch_normalization_23", 0, 0, {}]]]}, {"config": {"gamma_constraint": null, "gamma_regularizer": null, "center": true, "scale": true, "epsilon": 0.001, "beta_constraint": null, "momentum": 0.99, "axis": -1, "gamma_initializer": {"config": {}, "class_name": "Ones"}, "name": "batch_normalization_24", "trainable": true, "beta_regularizer": null, "moving_variance_initializer": {"config": {}, "class_name": "Ones"}, "moving_mean_initializer": {"config": {}, "class_name": "Zeros"}, "beta_initializer": {"config": {}, "class_name": "Zeros"}}, "class_name": "BatchNormalization", "name": "batch_normalization_24", "inbound_nodes": [[["activation_23", 0, 0, {}]]]}, {"config": {"name": "activation_24", "trainable": true, "activation": "relu"}, "class_name": "Activation", "name": "activation_24", "inbound_nodes": [[["batch_normalization_24", 0, 0, {}]]]}, {"config": {"trainable": true, "seed": null, "noise_shape": null, "name": "dropout_6", "rate": 0.5}, "class_name": "Dropout", "name": "dropout_6", "inbound_nodes": [[["activation_24", 0, 0, {}]]]}, {"config": {"padding": "same", "kernel_constraint": null, "kernel_size": [16], "data_format": "channels_last", "use_bias": true, "dilation_rate": [1], "kernel_initializer": {"config": {"seed": null, "mode": "fan_in", "scale": 2.0, "distribution": "normal"}, "class_name": "VarianceScaling"}, "activity_regularizer": null, "filters": 64, "kernel_regularizer": {"config": {"l1": 0.0, "l2": 0.009999999776482582}, "class_name": "L1L2"}, "bias_initializer": {"config": {}, "class_name": "Zeros"}, "name": "conv1d_49", "trainable": true, "activation": "linear", "bias_constraint": null, "strides": [1], "bias_regularizer": null}, "class_name": "Conv1D", "name": "conv1d_49", "inbound_nodes": [[["dropout_6", 0, 0, {}]]]}, {"config": {"padding": "same", "kernel_constraint": null, "kernel_size": [64], "data_format": "channels_last", "use_bias": true, "dilation_rate": [1], "kernel_initializer": {"config": {"seed": null, "mode": "fan_in", "scale": 2.0, "distribution": "normal"}, "class_name": "VarianceScaling"}, "activity_regularizer": null, "filters": 64, "kernel_regularizer": {"config": {"l1": 0.0, "l2": 0.009999999776482582}, "class_name": "L1L2"}, "bias_initializer": {"config": {}, "class_name": "Zeros"}, "name": "conv1d_50", "trainable": true, "activation": "linear", "bias_constraint": null, "strides": [1], "bias_regularizer": null}, "class_name": "Conv1D", "name": "conv1d_50", "inbound_nodes": [[["dropout_6", 0, 0, {}]]]}, {"config": {"padding": "same", "kernel_constraint": null, "kernel_size": [32], "data_format": "channels_last", "use_bias": true, "dilation_rate": [1], "kernel_initializer": {"config": {"seed": null, "mode": "fan_in", "scale": 2.0, "distribution": "normal"}, "class_name": "VarianceScaling"}, "activity_regularizer": null, "filters": 64, "kernel_regularizer": {"config": {"l1": 0.0, "l2": 0.009999999776482582}, "class_name": "L1L2"}, "bias_initializer": {"config": {}, "class_name": "Zeros"}, "name": "conv1d_51", "trainable": true, "activation": "linear", "bias_constraint": null, "strides": [1], "bias_regularizer": null}, "class_name": "Conv1D", "name": "conv1d_51", "inbound_nodes": [[["dropout_6", 0, 0, {}]]]}, {"config": {"axis": 2, "name": "concatenate_13", "trainable": true}, "class_name": "Concatenate", "name": "concatenate_13", "inbound_nodes": [[["conv1d_49", 0, 0, {}], ["conv1d_50", 0, 0, {}], ["conv1d_51", 0, 0, {}]]]}, {"config": {"padding": "same", "kernel_constraint": null, "kernel_size": [1], "data_format": "channels_last", "use_bias": true, "dilation_rate": [1], "kernel_initializer": {"config": {"seed": null, "mode": "fan_in", "scale": 2.0, "distribution": "normal"}, "class_name": "VarianceScaling"}, "activity_regularizer": null, "filters": 64, "kernel_regularizer": {"config": {"l1": 0.0, "l2": 0.009999999776482582}, "class_name": "L1L2"}, "bias_initializer": {"config": {}, "class_name": "Zeros"}, "name": "conv1d_52", "trainable": true, "activation": "linear", "bias_constraint": null, "strides": [1], "bias_regularizer": null}, "class_name": "Conv1D", "name": "conv1d_52", "inbound_nodes": [[["concatenate_13", 0, 0, {}]]]}, {"config": {"name": "self__attention_13", "trainable": true}, "class_name": "Self_Attention", "name": "self__attention_13", "inbound_nodes": [[["conv1d_52", 0, 0, {}]]]}, {"config": {"gamma_constraint": null, "gamma_regularizer": null, "center": true, "scale": true, "epsilon": 0.001, "beta_constraint": null, "momentum": 0.99, "axis": -1, "gamma_initializer": {"config": {}, "class_name": "Ones"}, "name": "batch_normalization_25", "trainable": true, "beta_regularizer": null, "moving_variance_initializer": {"config": {}, "class_name": "Ones"}, "moving_mean_initializer": {"config": {}, "class_name": "Zeros"}, "beta_initializer": {"config": {}, "class_name": "Zeros"}}, "class_name": "BatchNormalization", "name": "batch_normalization_25", "inbound_nodes": [[["self__attention_13", 0, 0, {}]]]}, {"config": {"padding": "valid", "data_format": "channels_last", "pool_size": [2], "name": "max_pooling1d_6", "trainable": true, "strides": [2]}, "class_name": "MaxPooling1D", "name": "max_pooling1d_6", "inbound_nodes": [[["add_5", 0, 0, {}]]]}, {"config": {"name": "activation_25", "trainable": true, "activation": "relu"}, "class_name": "Activation", "name": "activation_25", "inbound_nodes": [[["batch_normalization_25", 0, 0, {}]]]}, {"config": {"name": "add_6", "trainable": true}, "class_name": "Add", "name": "add_6", "inbound_nodes": [[["max_pooling1d_6", 0, 0, {}], ["activation_25", 0, 0, {}]]]}, {"config": {"gamma_constraint": null, "gamma_regularizer": null, "center": true, "scale": true, "epsilon": 0.001, "beta_constraint": null, "momentum": 0.99, "axis": -1, "gamma_initializer": {"config": {}, "class_name": "Ones"}, "name": "batch_normalization_26", "trainable": true, "beta_regularizer": null, "moving_variance_initializer": {"config": {}, "class_name": "Ones"}, "moving_mean_initializer": {"config": {}, "class_name": "Zeros"}, "beta_initializer": {"config": {}, "class_name": "Zeros"}}, "class_name": "BatchNormalization", "name": "batch_normalization_26", "inbound_nodes": [[["add_6", 0, 0, {}]]]}, {"config": {"name": "activation_26", "trainable": true, "activation": "relu"}, "class_name": "Activation", "name": "activation_26", "inbound_nodes": [[["batch_normalization_26", 0, 0, {}]]]}, {"config": {"padding": "same", "kernel_constraint": null, "kernel_size": [16], "data_format": "channels_last", "use_bias": true, "dilation_rate": [1], "kernel_initializer": {"config": {"seed": null, "mode": "fan_in", "scale": 2.0, "distribution": "normal"}, "class_name": "VarianceScaling"}, "activity_regularizer": null, "filters": 64, "kernel_regularizer": {"config": {"l1": 0.0, "l2": 0.009999999776482582}, "class_name": "L1L2"}, "bias_initializer": {"config": {}, "class_name": "Zeros"}, "name": "conv1d_53", "trainable": true, "activation": "linear", "bias_constraint": null, "strides": [1], "bias_regularizer": null}, "class_name": "Conv1D", "name": "conv1d_53", "inbound_nodes": [[["activation_26", 0, 0, {}]]]}, {"config": {"padding": "same", "kernel_constraint": null, "kernel_size": [64], "data_format": "channels_last", "use_bias": true, "dilation_rate": [1], "kernel_initializer": {"config": {"seed": null, "mode": "fan_in", "scale": 2.0, "distribution": "normal"}, "class_name": "VarianceScaling"}, "activity_regularizer": null, "filters": 64, "kernel_regularizer": {"config": {"l1": 0.0, "l2": 0.009999999776482582}, "class_name": "L1L2"}, "bias_initializer": {"config": {}, "class_name": "Zeros"}, "name": "conv1d_54", "trainable": true, "activation": "linear", "bias_constraint": null, "strides": [1], "bias_regularizer": null}, "class_name": "Conv1D", "name": "conv1d_54", "inbound_nodes": [[["activation_26", 0, 0, {}]]]}, {"config": {"padding": "same", "kernel_constraint": null, "kernel_size": [32], "data_format": "channels_last", "use_bias": true, "dilation_rate": [1], "kernel_initializer": {"config": {"seed": null, "mode": "fan_in", "scale": 2.0, "distribution": "normal"}, "class_name": "VarianceScaling"}, "activity_regularizer": null, "filters": 64, "kernel_regularizer": {"config": {"l1": 0.0, "l2": 0.009999999776482582}, "class_name": "L1L2"}, "bias_initializer": {"config": {}, "class_name": "Zeros"}, "name": "conv1d_55", "trainable": true, "activation": "linear", "bias_constraint": null, "strides": [1], "bias_regularizer": null}, "class_name": "Conv1D", "name": "conv1d_55", "inbound_nodes": [[["activation_26", 0, 0, {}]]]}, {"config": {"axis": 2, "name": "concatenate_14", "trainable": true}, "class_name": "Concatenate", "name": "concatenate_14", "inbound_nodes": [[["conv1d_53", 0, 0, {}], ["conv1d_54", 0, 0, {}], ["conv1d_55", 0, 0, {}]]]}, {"config": {"padding": "same", "kernel_constraint": null, "kernel_size": [1], "data_format": "channels_last", "use_bias": true, "dilation_rate": [1], "kernel_initializer": {"config": {"seed": null, "mode": "fan_in", "scale": 2.0, "distribution": "normal"}, "class_name": "VarianceScaling"}, "activity_regularizer": null, "filters": 64, "kernel_regularizer": {"config": {"l1": 0.0, "l2": 0.009999999776482582}, "class_name": "L1L2"}, "bias_initializer": {"config": {}, "class_name": "Zeros"}, "name": "conv1d_56", "trainable": true, "activation": "linear", "bias_constraint": null, "strides": [1], "bias_regularizer": null}, "class_name": "Conv1D", "name": "conv1d_56", "inbound_nodes": [[["concatenate_14", 0, 0, {}]]]}, {"config": {"name": "self__attention_14", "trainable": true}, "class_name": "Self_Attention", "name": "self__attention_14", "inbound_nodes": [[["conv1d_56", 0, 0, {}]]]}, {"config": {"gamma_constraint": null, "gamma_regularizer": null, "center": true, "scale": true, "epsilon": 0.001, "beta_constraint": null, "momentum": 0.99, "axis": -1, "gamma_initializer": {"config": {}, "class_name": "Ones"}, "name": "batch_normalization_27", "trainable": true, "beta_regularizer": null, "moving_variance_initializer": {"config": {}, "class_name": "Ones"}, "moving_mean_initializer": {"config": {}, "class_name": "Zeros"}, "beta_initializer": {"config": {}, "class_name": "Zeros"}}, "class_name": "BatchNormalization", "name": "batch_normalization_27", "inbound_nodes": [[["self__attention_14", 0, 0, {}]]]}, {"config": {"name": "activation_27", "trainable": true, "activation": "relu"}, "class_name": "Activation", "name": "activation_27", "inbound_nodes": [[["batch_normalization_27", 0, 0, {}]]]}, {"config": {"gamma_constraint": null, "gamma_regularizer": null, "center": true, "scale": true, "epsilon": 0.001, "beta_constraint": null, "momentum": 0.99, "axis": -1, "gamma_initializer": {"config": {}, "class_name": "Ones"}, "name": "batch_normalization_28", "trainable": true, "beta_regularizer": null, "moving_variance_initializer": {"config": {}, "class_name": "Ones"}, "moving_mean_initializer": {"config": {}, "class_name": "Zeros"}, "beta_initializer": {"config": {}, "class_name": "Zeros"}}, "class_name": "BatchNormalization", "name": "batch_normalization_28", "inbound_nodes": [[["activation_27", 0, 0, {}]]]}, {"config": {"name": "activation_28", "trainable": true, "activation": "relu"}, "class_name": "Activation", "name": "activation_28", "inbound_nodes": [[["batch_normalization_28", 0, 0, {}]]]}, {"config": {"trainable": true, "seed": null, "noise_shape": null, "name": "dropout_7", "rate": 0.5}, "class_name": "Dropout", "name": "dropout_7", "inbound_nodes": [[["activation_28", 0, 0, {}]]]}, {"config": {"padding": "same", "kernel_constraint": null, "kernel_size": [16], "data_format": "channels_last", "use_bias": true, "dilation_rate": [1], "kernel_initializer": {"config": {"seed": null, "mode": "fan_in", "scale": 2.0, "distribution": "normal"}, "class_name": "VarianceScaling"}, "activity_regularizer": null, "filters": 64, "kernel_regularizer": {"config": {"l1": 0.0, "l2": 0.009999999776482582}, "class_name": "L1L2"}, "bias_initializer": {"config": {}, "class_name": "Zeros"}, "name": "conv1d_57", "trainable": true, "activation": "linear", "bias_constraint": null, "strides": [1], "bias_regularizer": null}, "class_name": "Conv1D", "name": "conv1d_57", "inbound_nodes": [[["dropout_7", 0, 0, {}]]]}, {"config": {"padding": "same", "kernel_constraint": null, "kernel_size": [64], "data_format": "channels_last", "use_bias": true, "dilation_rate": [1], "kernel_initializer": {"config": {"seed": null, "mode": "fan_in", "scale": 2.0, "distribution": "normal"}, "class_name": "VarianceScaling"}, "activity_regularizer": null, "filters": 64, "kernel_regularizer": {"config": {"l1": 0.0, "l2": 0.009999999776482582}, "class_name": "L1L2"}, "bias_initializer": {"config": {}, "class_name": "Zeros"}, "name": "conv1d_58", "trainable": true, "activation": "linear", "bias_constraint": null, "strides": [1], "bias_regularizer": null}, "class_name": "Conv1D", "name": "conv1d_58", "inbound_nodes": [[["dropout_7", 0, 0, {}]]]}, {"config": {"padding": "same", "kernel_constraint": null, "kernel_size": [32], "data_format": "channels_last", "use_bias": true, "dilation_rate": [1], "kernel_initializer": {"config": {"seed": null, "mode": "fan_in", "scale": 2.0, "distribution": "normal"}, "class_name": "VarianceScaling"}, "activity_regularizer": null, "filters": 64, "kernel_regularizer": {"config": {"l1": 0.0, "l2": 0.009999999776482582}, "class_name": "L1L2"}, "bias_initializer": {"config": {}, "class_name": "Zeros"}, "name": "conv1d_59", "trainable": true, "activation": "linear", "bias_constraint": null, "strides": [1], "bias_regularizer": null}, "class_name": "Conv1D", "name": "conv1d_59", "inbound_nodes": [[["dropout_7", 0, 0, {}]]]}, {"config": {"axis": 2, "name": "concatenate_15", "trainable": true}, "class_name": "Concatenate", "name": "concatenate_15", "inbound_nodes": [[["conv1d_57", 0, 0, {}], ["conv1d_58", 0, 0, {}], ["conv1d_59", 0, 0, {}]]]}, {"config": {"padding": "same", "kernel_constraint": null, "kernel_size": [1], "data_format": "channels_last", "use_bias": true, "dilation_rate": [1], "kernel_initializer": {"config": {"seed": null, "mode": "fan_in", "scale": 2.0, "distribution": "normal"}, "class_name": "VarianceScaling"}, "activity_regularizer": null, "filters": 64, "kernel_regularizer": {"config": {"l1": 0.0, "l2": 0.009999999776482582}, "class_name": "L1L2"}, "bias_initializer": {"config": {}, "class_name": "Zeros"}, "name": "conv1d_60", "trainable": true, "activation": "linear", "bias_constraint": null, "strides": [1], "bias_regularizer": null}, "class_name": "Conv1D", "name": "conv1d_60", "inbound_nodes": [[["concatenate_15", 0, 0, {}]]]}, {"config": {"name": "self__attention_15", "trainable": true}, "class_name": "Self_Attention", "name": "self__attention_15", "inbound_nodes": [[["conv1d_60", 0, 0, {}]]]}, {"config": {"gamma_constraint": null, "gamma_regularizer": null, "center": true, "scale": true, "epsilon": 0.001, "beta_constraint": null, "momentum": 0.99, "axis": -1, "gamma_initializer": {"config": {}, "class_name": "Ones"}, "name": "batch_normalization_29", "trainable": true, "beta_regularizer": null, "moving_variance_initializer": {"config": {}, "class_name": "Ones"}, "moving_mean_initializer": {"config": {}, "class_name": "Zeros"}, "beta_initializer": {"config": {}, "class_name": "Zeros"}}, "class_name": "BatchNormalization", "name": "batch_normalization_29", "inbound_nodes": [[["self__attention_15", 0, 0, {}]]]}, {"config": {"padding": "valid", "data_format": "channels_last", "pool_size": [1], "name": "max_pooling1d_7", "trainable": true, "strides": [1]}, "class_name": "MaxPooling1D", "name": "max_pooling1d_7", "inbound_nodes": [[["add_6", 0, 0, {}]]]}, {"config": {"name": "activation_29", "trainable": true, "activation": "relu"}, "class_name": "Activation", "name": "activation_29", "inbound_nodes": [[["batch_normalization_29", 0, 0, {}]]]}, {"config": {"name": "add_7", "trainable": true}, "class_name": "Add", "name": "add_7", "inbound_nodes": [[["max_pooling1d_7", 0, 0, {}], ["activation_29", 0, 0, {}]]]}, {"config": {"gamma_constraint": null, "gamma_regularizer": null, "center": true, "scale": true, "epsilon": 0.001, "beta_constraint": null, "momentum": 0.99, "axis": -1, "gamma_initializer": {"config": {}, "class_name": "Ones"}, "name": "batch_normalization_30", "trainable": true, "beta_regularizer": null, "moving_variance_initializer": {"config": {}, "class_name": "Ones"}, "moving_mean_initializer": {"config": {}, "class_name": "Zeros"}, "beta_initializer": {"config": {}, "class_name": "Zeros"}}, "class_name": "BatchNormalization", "name": "batch_normalization_30", "inbound_nodes": [[["add_7", 0, 0, {}]]]}, {"config": {"name": "activation_30", "trainable": true, "activation": "relu"}, "class_name": "Activation", "name": "activation_30", "inbound_nodes": [[["batch_normalization_30", 0, 0, {}]]]}, {"config": {"padding": "same", "kernel_constraint": null, "kernel_size": [16], "data_format": "channels_last", "use_bias": true, "dilation_rate": [1], "kernel_initializer": {"config": {"seed": null, "mode": "fan_in", "scale": 2.0, "distribution": "normal"}, "class_name": "VarianceScaling"}, "activity_regularizer": null, "filters": 64, "kernel_regularizer": {"config": {"l1": 0.0, "l2": 0.009999999776482582}, "class_name": "L1L2"}, "bias_initializer": {"config": {}, "class_name": "Zeros"}, "name": "conv1d_61", "trainable": true, "activation": "linear", "bias_constraint": null, "strides": [2], "bias_regularizer": null}, "class_name": "Conv1D", "name": "conv1d_61", "inbound_nodes": [[["activation_30", 0, 0, {}]]]}, {"config": {"padding": "same", "kernel_constraint": null, "kernel_size": [64], "data_format": "channels_last", "use_bias": true, "dilation_rate": [1], "kernel_initializer": {"config": {"seed": null, "mode": "fan_in", "scale": 2.0, "distribution": "normal"}, "class_name": "VarianceScaling"}, "activity_regularizer": null, "filters": 64, "kernel_regularizer": {"config": {"l1": 0.0, "l2": 0.009999999776482582}, "class_name": "L1L2"}, "bias_initializer": {"config": {}, "class_name": "Zeros"}, "name": "conv1d_62", "trainable": true, "activation": "linear", "bias_constraint": null, "strides": [2], "bias_regularizer": null}, "class_name": "Conv1D", "name": "conv1d_62", "inbound_nodes": [[["activation_30", 0, 0, {}]]]}, {"config": {"padding": "same", "kernel_constraint": null, "kernel_size": [32], "data_format": "channels_last", "use_bias": true, "dilation_rate": [1], "kernel_initializer": {"config": {"seed": null, "mode": "fan_in", "scale": 2.0, "distribution": "normal"}, "class_name": "VarianceScaling"}, "activity_regularizer": null, "filters": 64, "kernel_regularizer": {"config": {"l1": 0.0, "l2": 0.009999999776482582}, "class_name": "L1L2"}, "bias_initializer": {"config": {}, "class_name": "Zeros"}, "name": "conv1d_63", "trainable": true, "activation": "linear", "bias_constraint": null, "strides": [2], "bias_regularizer": null}, "class_name": "Conv1D", "name": "conv1d_63", "inbound_nodes": [[["activation_30", 0, 0, {}]]]}, {"config": {"axis": 2, "name": "concatenate_16", "trainable": true}, "class_name": "Concatenate", "name": "concatenate_16", "inbound_nodes": [[["conv1d_61", 0, 0, {}], ["conv1d_62", 0, 0, {}], ["conv1d_63", 0, 0, {}]]]}, {"config": {"padding": "same", "kernel_constraint": null, "kernel_size": [2], "data_format": "channels_last", "use_bias": true, "dilation_rate": [1], "kernel_initializer": {"config": {"seed": null, "mode": "fan_in", "scale": 2.0, "distribution": "normal"}, "class_name": "VarianceScaling"}, "activity_regularizer": null, "filters": 64, "kernel_regularizer": {"config": {"l1": 0.0, "l2": 0.009999999776482582}, "class_name": "L1L2"}, "bias_initializer": {"config": {}, "class_name": "Zeros"}, "name": "conv1d_64", "trainable": true, "activation": "linear", "bias_constraint": null, "strides": [1], "bias_regularizer": null}, "class_name": "Conv1D", "name": "conv1d_64", "inbound_nodes": [[["concatenate_16", 0, 0, {}]]]}, {"config": {"name": "self__attention_16", "trainable": true}, "class_name": "Self_Attention", "name": "self__attention_16", "inbound_nodes": [[["conv1d_64", 0, 0, {}]]]}, {"config": {"gamma_constraint": null, "gamma_regularizer": null, "center": true, "scale": true, "epsilon": 0.001, "beta_constraint": null, "momentum": 0.99, "axis": -1, "gamma_initializer": {"config": {}, "class_name": "Ones"}, "name": "batch_normalization_31", "trainable": true, "beta_regularizer": null, "moving_variance_initializer": {"config": {}, "class_name": "Ones"}, "moving_mean_initializer": {"config": {}, "class_name": "Zeros"}, "beta_initializer": {"config": {}, "class_name": "Zeros"}}, "class_name": "BatchNormalization", "name": "batch_normalization_31", "inbound_nodes": [[["self__attention_16", 0, 0, {}]]]}, {"config": {"name": "activation_31", "trainable": true, "activation": "relu"}, "class_name": "Activation", "name": "activation_31", "inbound_nodes": [[["batch_normalization_31", 0, 0, {}]]]}, {"config": {"gamma_constraint": null, "gamma_regularizer": null, "center": true, "scale": true, "epsilon": 0.001, "beta_constraint": null, "momentum": 0.99, "axis": -1, "gamma_initializer": {"config": {}, "class_name": "Ones"}, "name": "batch_normalization_32", "trainable": true, "beta_regularizer": null, "moving_variance_initializer": {"config": {}, "class_name": "Ones"}, "moving_mean_initializer": {"config": {}, "class_name": "Zeros"}, "beta_initializer": {"config": {}, "class_name": "Zeros"}}, "class_name": "BatchNormalization", "name": "batch_normalization_32", "inbound_nodes": [[["activation_31", 0, 0, {}]]]}, {"config": {"name": "activation_32", "trainable": true, "activation": "relu"}, "class_name": "Activation", "name": "activation_32", "inbound_nodes": [[["batch_normalization_32", 0, 0, {}]]]}, {"config": {"trainable": true, "seed": null, "noise_shape": null, "name": "dropout_8", "rate": 0.5}, "class_name": "Dropout", "name": "dropout_8", "inbound_nodes": [[["activation_32", 0, 0, {}]]]}, {"config": {"padding": "same", "kernel_constraint": null, "kernel_size": [16], "data_format": "channels_last", "use_bias": true, "dilation_rate": [1], "kernel_initializer": {"config": {"seed": null, "mode": "fan_in", "scale": 2.0, "distribution": "normal"}, "class_name": "VarianceScaling"}, "activity_regularizer": null, "filters": 64, "kernel_regularizer": {"config": {"l1": 0.0, "l2": 0.009999999776482582}, "class_name": "L1L2"}, "bias_initializer": {"config": {}, "class_name": "Zeros"}, "name": "conv1d_65", "trainable": true, "activation": "linear", "bias_constraint": null, "strides": [1], "bias_regularizer": null}, "class_name": "Conv1D", "name": "conv1d_65", "inbound_nodes": [[["dropout_8", 0, 0, {}]]]}, {"config": {"padding": "same", "kernel_constraint": null, "kernel_size": [64], "data_format": "channels_last", "use_bias": true, "dilation_rate": [1], "kernel_initializer": {"config": {"seed": null, "mode": "fan_in", "scale": 2.0, "distribution": "normal"}, "class_name": "VarianceScaling"}, "activity_regularizer": null, "filters": 64, "kernel_regularizer": {"config": {"l1": 0.0, "l2": 0.009999999776482582}, "class_name": "L1L2"}, "bias_initializer": {"config": {}, "class_name": "Zeros"}, "name": "conv1d_66", "trainable": true, "activation": "linear", "bias_constraint": null, "strides": [1], "bias_regularizer": null}, "class_name": "Conv1D", "name": "conv1d_66", "inbound_nodes": [[["dropout_8", 0, 0, {}]]]}, {"config": {"padding": "same", "kernel_constraint": null, "kernel_size": [32], "data_format": "channels_last", "use_bias": true, "dilation_rate": [1], "kernel_initializer": {"config": {"seed": null, "mode": "fan_in", "scale": 2.0, "distribution": "normal"}, "class_name": "VarianceScaling"}, "activity_regularizer": null, "filters": 64, "kernel_regularizer": {"config": {"l1": 0.0, "l2": 0.009999999776482582}, "class_name": "L1L2"}, "bias_initializer": {"config": {}, "class_name": "Zeros"}, "name": "conv1d_67", "trainable": true, "activation": "linear", "bias_constraint": null, "strides": [1], "bias_regularizer": null}, "class_name": "Conv1D", "name": "conv1d_67", "inbound_nodes": [[["dropout_8", 0, 0, {}]]]}, {"config": {"axis": 2, "name": "concatenate_17", "trainable": true}, "class_name": "Concatenate", "name": "concatenate_17", "inbound_nodes": [[["conv1d_65", 0, 0, {}], ["conv1d_66", 0, 0, {}], ["conv1d_67", 0, 0, {}]]]}, {"config": {"padding": "same", "kernel_constraint": null, "kernel_size": [1], "data_format": "channels_last", "use_bias": true, "dilation_rate": [1], "kernel_initializer": {"config": {"seed": null, "mode": "fan_in", "scale": 2.0, "distribution": "normal"}, "class_name": "VarianceScaling"}, "activity_regularizer": null, "filters": 64, "kernel_regularizer": {"config": {"l1": 0.0, "l2": 0.009999999776482582}, "class_name": "L1L2"}, "bias_initializer": {"config": {}, "class_name": "Zeros"}, "name": "conv1d_68", "trainable": true, "activation": "linear", "bias_constraint": null, "strides": [1], "bias_regularizer": null}, "class_name": "Conv1D", "name": "conv1d_68", "inbound_nodes": [[["concatenate_17", 0, 0, {}]]]}, {"config": {"name": "self__attention_17", "trainable": true}, "class_name": "Self_Attention", "name": "self__attention_17", "inbound_nodes": [[["conv1d_68", 0, 0, {}]]]}, {"config": {"gamma_constraint": null, "gamma_regularizer": null, "center": true, "scale": true, "epsilon": 0.001, "beta_constraint": null, "momentum": 0.99, "axis": -1, "gamma_initializer": {"config": {}, "class_name": "Ones"}, "name": "batch_normalization_33", "trainable": true, "beta_regularizer": null, "moving_variance_initializer": {"config": {}, "class_name": "Ones"}, "moving_mean_initializer": {"config": {}, "class_name": "Zeros"}, "beta_initializer": {"config": {}, "class_name": "Zeros"}}, "class_name": "BatchNormalization", "name": "batch_normalization_33", "inbound_nodes": [[["self__attention_17", 0, 0, {}]]]}, {"config": {"padding": "valid", "data_format": "channels_last", "pool_size": [2], "name": "max_pooling1d_8", "trainable": true, "strides": [2]}, "class_name": "MaxPooling1D", "name": "max_pooling1d_8", "inbound_nodes": [[["add_7", 0, 0, {}]]]}, {"config": {"name": "activation_33", "trainable": true, "activation": "relu"}, "class_name": "Activation", "name": "activation_33", "inbound_nodes": [[["batch_normalization_33", 0, 0, {}]]]}, {"config": {"name": "add_8", "trainable": true}, "class_name": "Add", "name": "add_8", "inbound_nodes": [[["max_pooling1d_8", 0, 0, {}], ["activation_33", 0, 0, {}]]]}, {"config": {"gamma_constraint": null, "gamma_regularizer": null, "center": true, "scale": true, "epsilon": 0.001, "beta_constraint": null, "momentum": 0.99, "axis": -1, "gamma_initializer": {"config": {}, "class_name": "Ones"}, "name": "batch_normalization_34", "trainable": true, "beta_regularizer": null, "moving_variance_initializer": {"config": {}, "class_name": "Ones"}, "moving_mean_initializer": {"config": {}, "class_name": "Zeros"}, "beta_initializer": {"config": {}, "class_name": "Zeros"}}, "class_name": "BatchNormalization", "name": "batch_normalization_34", "inbound_nodes": [[["add_8", 0, 0, {}]]]}, {"config": {"name": "activation_34", "trainable": true, "activation": "relu"}, "class_name": "Activation", "name": "activation_34", "inbound_nodes": [[["batch_normalization_34", 0, 0, {}]]]}, {"config": {"padding": "same", "kernel_constraint": null, "kernel_size": [16], "data_format": "channels_last", "use_bias": true, "dilation_rate": [1], "kernel_initializer": {"config": {"seed": null, "mode": "fan_in", "scale": 2.0, "distribution": "normal"}, "class_name": "VarianceScaling"}, "activity_regularizer": null, "filters": 128, "kernel_regularizer": {"config": {"l1": 0.0, "l2": 0.009999999776482582}, "class_name": "L1L2"}, "bias_initializer": {"config": {}, "class_name": "Zeros"}, "name": "conv1d_69", "trainable": true, "activation": "linear", "bias_constraint": null, "strides": [1], "bias_regularizer": null}, "class_name": "Conv1D", "name": "conv1d_69", "inbound_nodes": [[["activation_34", 0, 0, {}]]]}, {"config": {"padding": "same", "kernel_constraint": null, "kernel_size": [64], "data_format": "channels_last", "use_bias": true, "dilation_rate": [1], "kernel_initializer": {"config": {"seed": null, "mode": "fan_in", "scale": 2.0, "distribution": "normal"}, "class_name": "VarianceScaling"}, "activity_regularizer": null, "filters": 128, "kernel_regularizer": {"config": {"l1": 0.0, "l2": 0.009999999776482582}, "class_name": "L1L2"}, "bias_initializer": {"config": {}, "class_name": "Zeros"}, "name": "conv1d_70", "trainable": true, "activation": "linear", "bias_constraint": null, "strides": [1], "bias_regularizer": null}, "class_name": "Conv1D", "name": "conv1d_70", "inbound_nodes": [[["activation_34", 0, 0, {}]]]}, {"config": {"padding": "same", "kernel_constraint": null, "kernel_size": [32], "data_format": "channels_last", "use_bias": true, "dilation_rate": [1], "kernel_initializer": {"config": {"seed": null, "mode": "fan_in", "scale": 2.0, "distribution": "normal"}, "class_name": "VarianceScaling"}, "activity_regularizer": null, "filters": 128, "kernel_regularizer": {"config": {"l1": 0.0, "l2": 0.009999999776482582}, "class_name": "L1L2"}, "bias_initializer": {"config": {}, "class_name": "Zeros"}, "name": "conv1d_71", "trainable": true, "activation": "linear", "bias_constraint": null, "strides": [1], "bias_regularizer": null}, "class_name": "Conv1D", "name": "conv1d_71", "inbound_nodes": [[["activation_34", 0, 0, {}]]]}, {"config": {"axis": 2, "name": "concatenate_18", "trainable": true}, "class_name": "Concatenate", "name": "concatenate_18", "inbound_nodes": [[["conv1d_69", 0, 0, {}], ["conv1d_70", 0, 0, {}], ["conv1d_71", 0, 0, {}]]]}, {"config": {"padding": "same", "kernel_constraint": null, "kernel_size": [1], "data_format": "channels_last", "use_bias": true, "dilation_rate": [1], "kernel_initializer": {"config": {"seed": null, "mode": "fan_in", "scale": 2.0, "distribution": "normal"}, "class_name": "VarianceScaling"}, "activity_regularizer": null, "filters": 128, "kernel_regularizer": {"config": {"l1": 0.0, "l2": 0.009999999776482582}, "class_name": "L1L2"}, "bias_initializer": {"config": {}, "class_name": "Zeros"}, "name": "conv1d_72", "trainable": true, "activation": "linear", "bias_constraint": null, "strides": [1], "bias_regularizer": null}, "class_name": "Conv1D", "name": "conv1d_72", "inbound_nodes": [[["concatenate_18", 0, 0, {}]]]}, {"config": {"name": "self__attention_18", "trainable": true}, "class_name": "Self_Attention", "name": "self__attention_18", "inbound_nodes": [[["conv1d_72", 0, 0, {}]]]}, {"config": {"gamma_constraint": null, "gamma_regularizer": null, "center": true, "scale": true, "epsilon": 0.001, "beta_constraint": null, "momentum": 0.99, "axis": -1, "gamma_initializer": {"config": {}, "class_name": "Ones"}, "name": "batch_normalization_35", "trainable": true, "beta_regularizer": null, "moving_variance_initializer": {"config": {}, "class_name": "Ones"}, "moving_mean_initializer": {"config": {}, "class_name": "Zeros"}, "beta_initializer": {"config": {}, "class_name": "Zeros"}}, "class_name": "BatchNormalization", "name": "batch_normalization_35", "inbound_nodes": [[["self__attention_18", 0, 0, {}]]]}, {"config": {"name": "activation_35", "trainable": true, "activation": "relu"}, "class_name": "Activation", "name": "activation_35", "inbound_nodes": [[["batch_normalization_35", 0, 0, {}]]]}, {"config": {"gamma_constraint": null, "gamma_regularizer": null, "center": true, "scale": true, "epsilon": 0.001, "beta_constraint": null, "momentum": 0.99, "axis": -1, "gamma_initializer": {"config": {}, "class_name": "Ones"}, "name": "batch_normalization_36", "trainable": true, "beta_regularizer": null, "moving_variance_initializer": {"config": {}, "class_name": "Ones"}, "moving_mean_initializer": {"config": {}, "class_name": "Zeros"}, "beta_initializer": {"config": {}, "class_name": "Zeros"}}, "class_name": "BatchNormalization", "name": "batch_normalization_36", "inbound_nodes": [[["activation_35", 0, 0, {}]]]}, {"config": {"name": "activation_36", "trainable": true, "activation": "relu"}, "class_name": "Activation", "name": "activation_36", "inbound_nodes": [[["batch_normalization_36", 0, 0, {}]]]}, {"config": {"trainable": true, "seed": null, "noise_shape": null, "name": "dropout_9", "rate": 0.5}, "class_name": "Dropout", "name": "dropout_9", "inbound_nodes": [[["activation_36", 0, 0, {}]]]}, {"config": {"padding": "same", "kernel_constraint": null, "kernel_size": [16], "data_format": "channels_last", "use_bias": true, "dilation_rate": [1], "kernel_initializer": {"config": {"seed": null, "mode": "fan_in", "scale": 2.0, "distribution": "normal"}, "class_name": "VarianceScaling"}, "activity_regularizer": null, "filters": 128, "kernel_regularizer": {"config": {"l1": 0.0, "l2": 0.009999999776482582}, "class_name": "L1L2"}, "bias_initializer": {"config": {}, "class_name": "Zeros"}, "name": "conv1d_73", "trainable": true, "activation": "linear", "bias_constraint": null, "strides": [1], "bias_regularizer": null}, "class_name": "Conv1D", "name": "conv1d_73", "inbound_nodes": [[["dropout_9", 0, 0, {}]]]}, {"config": {"padding": "same", "kernel_constraint": null, "kernel_size": [64], "data_format": "channels_last", "use_bias": true, "dilation_rate": [1], "kernel_initializer": {"config": {"seed": null, "mode": "fan_in", "scale": 2.0, "distribution": "normal"}, "class_name": "VarianceScaling"}, "activity_regularizer": null, "filters": 128, "kernel_regularizer": {"config": {"l1": 0.0, "l2": 0.009999999776482582}, "class_name": "L1L2"}, "bias_initializer": {"config": {}, "class_name": "Zeros"}, "name": "conv1d_74", "trainable": true, "activation": "linear", "bias_constraint": null, "strides": [1], "bias_regularizer": null}, "class_name": "Conv1D", "name": "conv1d_74", "inbound_nodes": [[["dropout_9", 0, 0, {}]]]}, {"config": {"padding": "same", "kernel_constraint": null, "kernel_size": [32], "data_format": "channels_last", "use_bias": true, "dilation_rate": [1], "kernel_initializer": {"config": {"seed": null, "mode": "fan_in", "scale": 2.0, "distribution": "normal"}, "class_name": "VarianceScaling"}, "activity_regularizer": null, "filters": 128, "kernel_regularizer": {"config": {"l1": 0.0, "l2": 0.009999999776482582}, "class_name": "L1L2"}, "bias_initializer": {"config": {}, "class_name": "Zeros"}, "name": "conv1d_75", "trainable": true, "activation": "linear", "bias_constraint": null, "strides": [1], "bias_regularizer": null}, "class_name": "Conv1D", "name": "conv1d_75", "inbound_nodes": [[["dropout_9", 0, 0, {}]]]}, {"config": {"axis": 2, "name": "concatenate_19", "trainable": true}, "class_name": "Concatenate", "name": "concatenate_19", "inbound_nodes": [[["conv1d_73", 0, 0, {}], ["conv1d_74", 0, 0, {}], ["conv1d_75", 0, 0, {}]]]}, {"config": {"padding": "same", "kernel_constraint": null, "kernel_size": [1], "data_format": "channels_last", "use_bias": true, "dilation_rate": [1], "kernel_initializer": {"config": {"seed": null, "mode": "fan_in", "scale": 2.0, "distribution": "normal"}, "class_name": "VarianceScaling"}, "activity_regularizer": null, "filters": 128, "kernel_regularizer": {"config": {"l1": 0.0, "l2": 0.009999999776482582}, "class_name": "L1L2"}, "bias_initializer": {"config": {}, "class_name": "Zeros"}, "name": "conv1d_76", "trainable": true, "activation": "linear", "bias_constraint": null, "strides": [1], "bias_regularizer": null}, "class_name": "Conv1D", "name": "conv1d_76", "inbound_nodes": [[["concatenate_19", 0, 0, {}]]]}, {"config": {"name": "self__attention_19", "trainable": true}, "class_name": "Self_Attention", "name": "self__attention_19", "inbound_nodes": [[["conv1d_76", 0, 0, {}]]]}, {"config": {"padding": "valid", "data_format": "channels_last", "pool_size": [1], "name": "max_pooling1d_9", "trainable": true, "strides": [1]}, "class_name": "MaxPooling1D", "name": "max_pooling1d_9", "inbound_nodes": [[["add_8", 0, 0, {}]]]}, {"config": {"gamma_constraint": null, "gamma_regularizer": null, "center": true, "scale": true, "epsilon": 0.001, "beta_constraint": null, "momentum": 0.99, "axis": -1, "gamma_initializer": {"config": {}, "class_name": "Ones"}, "name": "batch_normalization_37", "trainable": true, "beta_regularizer": null, "moving_variance_initializer": {"config": {}, "class_name": "Ones"}, "moving_mean_initializer": {"config": {}, "class_name": "Zeros"}, "beta_initializer": {"config": {}, "class_name": "Zeros"}}, "class_name": "BatchNormalization", "name": "batch_normalization_37", "inbound_nodes": [[["self__attention_19", 0, 0, {}]]]}, {"config": {"output_shape_type": "lambda", "function": ["4wEAAAAAAAAAAgAAAAQAAABTAAAAcygAAAB0AABqAQB8AACDAQB9AQB0AABqAgB8AAB8AQBnAgBk\nAQBkAgCDAQFTKQNO2gRheGlz6QIAAAApA9oBS9oKemVyb3NfbGlrZdoLY29uY2F0ZW5hdGUpAtoB\neNoBeakAcggAAAD6Ni9tZWRpYS91dXNlci9kYXRhLzk5NS1JQ1UgIHBsdXNlIGZldHVyZS9zcmMv\nbmV0d29yay5wedoHemVyb3BhZJ8AAABzBAAAAAABDwE=\n", null, null], "name": "lambda_2", "trainable": true, "arguments": {}, "function_type": "lambda", "output_shape": ["4wEAAAAAAAAAAgAAAAQAAABTAAAAczwAAAB0AAB8AACDAQB9AQB0AQB8AQCDAQBkAQBrAgBzJAB0\nAgCCAQB8AQBkAgAFGWQCADkDPHQDAHwBAIMBAFMpA07pAwAAAOkCAAAAKQTaBGxpc3TaA2xlbtoO\nQXNzZXJ0aW9uRXJyb3LaBXR1cGxlKQLaC2lucHV0X3NoYXBl2gVzaGFwZakAcgkAAAD6Ni9tZWRp\nYS91dXNlci9kYXRhLzk5NS1JQ1UgIHBsdXNlIGZldHVyZS9zcmMvbmV0d29yay5wedoUemVyb3Bh\nZF9vdXRwdXRfc2hhcGWjAAAAcwgAAAAAAQwBGAEOAQ==\n", null, null]}, "class_name": "Lambda", "name": "lambda_2", "inbound_nodes": [[["max_pooling1d_9", 0, 0, {}]]]}, {"config": {"name": "activation_37", "trainable": true, "activation": "relu"}, "class_name": "Activation", "name": "activation_37", "inbound_nodes": [[["batch_normalization_37", 0, 0, {}]]]}, {"config": {"name": "add_9", "trainable": true}, "class_name": "Add", "name": "add_9", "inbound_nodes": [[["lambda_2", 0, 0, {}], ["activation_37", 0, 0, {}]]]}, {"config": {"gamma_constraint": null, "gamma_regularizer": null, "center": true, "scale": true, "epsilon": 0.001, "beta_constraint": null, "momentum": 0.99, "axis": -1, "gamma_initializer": {"config": {}, "class_name": "Ones"}, "name": "batch_normalization_38", "trainable": true, "beta_regularizer": null, "moving_variance_initializer": {"config": {}, "class_name": "Ones"}, "moving_mean_initializer": {"config": {}, "class_name": "Zeros"}, "beta_initializer": {"config": {}, "class_name": "Zeros"}}, "class_name": "BatchNormalization", "name": "batch_normalization_38", "inbound_nodes": [[["add_9", 0, 0, {}]]]}, {"config": {"name": "activation_38", "trainable": true, "activation": "relu"}, "class_name": "Activation", "name": "activation_38", "inbound_nodes": [[["batch_normalization_38", 0, 0, {}]]]}, {"config": {"padding": "same", "kernel_constraint": null, "kernel_size": [16], "data_format": "channels_last", "use_bias": true, "dilation_rate": [1], "kernel_initializer": {"config": {"seed": null, "mode": "fan_in", "scale": 2.0, "distribution": "normal"}, "class_name": "VarianceScaling"}, "activity_regularizer": null, "filters": 128, "kernel_regularizer": {"config": {"l1": 0.0, "l2": 0.009999999776482582}, "class_name": "L1L2"}, "bias_initializer": {"config": {}, "class_name": "Zeros"}, "name": "conv1d_77", "trainable": true, "activation": "linear", "bias_constraint": null, "strides": [2], "bias_regularizer": null}, "class_name": "Conv1D", "name": "conv1d_77", "inbound_nodes": [[["activation_38", 0, 0, {}]]]}, {"config": {"padding": "same", "kernel_constraint": null, "kernel_size": [64], "data_format": "channels_last", "use_bias": true, "dilation_rate": [1], "kernel_initializer": {"config": {"seed": null, "mode": "fan_in", "scale": 2.0, "distribution": "normal"}, "class_name": "VarianceScaling"}, "activity_regularizer": null, "filters": 128, "kernel_regularizer": {"config": {"l1": 0.0, "l2": 0.009999999776482582}, "class_name": "L1L2"}, "bias_initializer": {"config": {}, "class_name": "Zeros"}, "name": "conv1d_78", "trainable": true, "activation": "linear", "bias_constraint": null, "strides": [2], "bias_regularizer": null}, "class_name": "Conv1D", "name": "conv1d_78", "inbound_nodes": [[["activation_38", 0, 0, {}]]]}, {"config": {"padding": "same", "kernel_constraint": null, "kernel_size": [32], "data_format": "channels_last", "use_bias": true, "dilation_rate": [1], "kernel_initializer": {"config": {"seed": null, "mode": "fan_in", "scale": 2.0, "distribution": "normal"}, "class_name": "VarianceScaling"}, "activity_regularizer": null, "filters": 128, "kernel_regularizer": {"config": {"l1": 0.0, "l2": 0.009999999776482582}, "class_name": "L1L2"}, "bias_initializer": {"config": {}, "class_name": "Zeros"}, "name": "conv1d_79", "trainable": true, "activation": "linear", "bias_constraint": null, "strides": [2], "bias_regularizer": null}, "class_name": "Conv1D", "name": "conv1d_79", "inbound_nodes": [[["activation_38", 0, 0, {}]]]}, {"config": {"axis": 2, "name": "concatenate_20", "trainable": true}, "class_name": "Concatenate", "name": "concatenate_20", "inbound_nodes": [[["conv1d_77", 0, 0, {}], ["conv1d_78", 0, 0, {}], ["conv1d_79", 0, 0, {}]]]}, {"config": {"padding": "same", "kernel_constraint": null, "kernel_size": [2], "data_format": "channels_last", "use_bias": true, "dilation_rate": [1], "kernel_initializer": {"config": {"seed": null, "mode": "fan_in", "scale": 2.0, "distribution": "normal"}, "class_name": "VarianceScaling"}, "activity_regularizer": null, "filters": 128, "kernel_regularizer": {"config": {"l1": 0.0, "l2": 0.009999999776482582}, "class_name": "L1L2"}, "bias_initializer": {"config": {}, "class_name": "Zeros"}, "name": "conv1d_80", "trainable": true, "activation": "linear", "bias_constraint": null, "strides": [1], "bias_regularizer": null}, "class_name": "Conv1D", "name": "conv1d_80", "inbound_nodes": [[["concatenate_20", 0, 0, {}]]]}, {"config": {"name": "self__attention_20", "trainable": true}, "class_name": "Self_Attention", "name": "self__attention_20", "inbound_nodes": [[["conv1d_80", 0, 0, {}]]]}, {"config": {"gamma_constraint": null, "gamma_regularizer": null, "center": true, "scale": true, "epsilon": 0.001, "beta_constraint": null, "momentum": 0.99, "axis": -1, "gamma_initializer": {"config": {}, "class_name": "Ones"}, "name": "batch_normalization_39", "trainable": true, "beta_regularizer": null, "moving_variance_initializer": {"config": {}, "class_name": "Ones"}, "moving_mean_initializer": {"config": {}, "class_name": "Zeros"}, "beta_initializer": {"config": {}, "class_name": "Zeros"}}, "class_name": "BatchNormalization", "name": "batch_normalization_39", "inbound_nodes": [[["self__attention_20", 0, 0, {}]]]}, {"config": {"name": "activation_39", "trainable": true, "activation": "relu"}, "class_name": "Activation", "name": "activation_39", "inbound_nodes": [[["batch_normalization_39", 0, 0, {}]]]}, {"config": {"gamma_constraint": null, "gamma_regularizer": null, "center": true, "scale": true, "epsilon": 0.001, "beta_constraint": null, "momentum": 0.99, "axis": -1, "gamma_initializer": {"config": {}, "class_name": "Ones"}, "name": "batch_normalization_40", "trainable": true, "beta_regularizer": null, "moving_variance_initializer": {"config": {}, "class_name": "Ones"}, "moving_mean_initializer": {"config": {}, "class_name": "Zeros"}, "beta_initializer": {"config": {}, "class_name": "Zeros"}}, "class_name": "BatchNormalization", "name": "batch_normalization_40", "inbound_nodes": [[["activation_39", 0, 0, {}]]]}, {"config": {"name": "activation_40", "trainable": true, "activation": "relu"}, "class_name": "Activation", "name": "activation_40", "inbound_nodes": [[["batch_normalization_40", 0, 0, {}]]]}, {"config": {"trainable": true, "seed": null, "noise_shape": null, "name": "dropout_10", "rate": 0.5}, "class_name": "Dropout", "name": "dropout_10", "inbound_nodes": [[["activation_40", 0, 0, {}]]]}, {"config": {"padding": "same", "kernel_constraint": null, "kernel_size": [16], "data_format": "channels_last", "use_bias": true, "dilation_rate": [1], "kernel_initializer": {"config": {"seed": null, "mode": "fan_in", "scale": 2.0, "distribution": "normal"}, "class_name": "VarianceScaling"}, "activity_regularizer": null, "filters": 128, "kernel_regularizer": {"config": {"l1": 0.0, "l2": 0.009999999776482582}, "class_name": "L1L2"}, "bias_initializer": {"config": {}, "class_name": "Zeros"}, "name": "conv1d_81", "trainable": true, "activation": "linear", "bias_constraint": null, "strides": [1], "bias_regularizer": null}, "class_name": "Conv1D", "name": "conv1d_81", "inbound_nodes": [[["dropout_10", 0, 0, {}]]]}, {"config": {"padding": "same", "kernel_constraint": null, "kernel_size": [64], "data_format": "channels_last", "use_bias": true, "dilation_rate": [1], "kernel_initializer": {"config": {"seed": null, "mode": "fan_in", "scale": 2.0, "distribution": "normal"}, "class_name": "VarianceScaling"}, "activity_regularizer": null, "filters": 128, "kernel_regularizer": {"config": {"l1": 0.0, "l2": 0.009999999776482582}, "class_name": "L1L2"}, "bias_initializer": {"config": {}, "class_name": "Zeros"}, "name": "conv1d_82", "trainable": true, "activation": "linear", "bias_constraint": null, "strides": [1], "bias_regularizer": null}, "class_name": "Conv1D", "name": "conv1d_82", "inbound_nodes": [[["dropout_10", 0, 0, {}]]]}, {"config": {"padding": "same", "kernel_constraint": null, "kernel_size": [32], "data_format": "channels_last", "use_bias": true, "dilation_rate": [1], "kernel_initializer": {"config": {"seed": null, "mode": "fan_in", "scale": 2.0, "distribution": "normal"}, "class_name": "VarianceScaling"}, "activity_regularizer": null, "filters": 128, "kernel_regularizer": {"config": {"l1": 0.0, "l2": 0.009999999776482582}, "class_name": "L1L2"}, "bias_initializer": {"config": {}, "class_name": "Zeros"}, "name": "conv1d_83", "trainable": true, "activation": "linear", "bias_constraint": null, "strides": [1], "bias_regularizer": null}, "class_name": "Conv1D", "name": "conv1d_83", "inbound_nodes": [[["dropout_10", 0, 0, {}]]]}, {"config": {"axis": 2, "name": "concatenate_21", "trainable": true}, "class_name": "Concatenate", "name": "concatenate_21", "inbound_nodes": [[["conv1d_81", 0, 0, {}], ["conv1d_82", 0, 0, {}], ["conv1d_83", 0, 0, {}]]]}, {"config": {"padding": "same", "kernel_constraint": null, "kernel_size": [1], "data_format": "channels_last", "use_bias": true, "dilation_rate": [1], "kernel_initializer": {"config": {"seed": null, "mode": "fan_in", "scale": 2.0, "distribution": "normal"}, "class_name": "VarianceScaling"}, "activity_regularizer": null, "filters": 128, "kernel_regularizer": {"config": {"l1": 0.0, "l2": 0.009999999776482582}, "class_name": "L1L2"}, "bias_initializer": {"config": {}, "class_name": "Zeros"}, "name": "conv1d_84", "trainable": true, "activation": "linear", "bias_constraint": null, "strides": [1], "bias_regularizer": null}, "class_name": "Conv1D", "name": "conv1d_84", "inbound_nodes": [[["concatenate_21", 0, 0, {}]]]}, {"config": {"name": "self__attention_21", "trainable": true}, "class_name": "Self_Attention", "name": "self__attention_21", "inbound_nodes": [[["conv1d_84", 0, 0, {}]]]}, {"config": {"gamma_constraint": null, "gamma_regularizer": null, "center": true, "scale": true, "epsilon": 0.001, "beta_constraint": null, "momentum": 0.99, "axis": -1, "gamma_initializer": {"config": {}, "class_name": "Ones"}, "name": "batch_normalization_41", "trainable": true, "beta_regularizer": null, "moving_variance_initializer": {"config": {}, "class_name": "Ones"}, "moving_mean_initializer": {"config": {}, "class_name": "Zeros"}, "beta_initializer": {"config": {}, "class_name": "Zeros"}}, "class_name": "BatchNormalization", "name": "batch_normalization_41", "inbound_nodes": [[["self__attention_21", 0, 0, {}]]]}, {"config": {"padding": "valid", "data_format": "channels_last", "pool_size": [2], "name": "max_pooling1d_10", "trainable": true, "strides": [2]}, "class_name": "MaxPooling1D", "name": "max_pooling1d_10", "inbound_nodes": [[["add_9", 0, 0, {}]]]}, {"config": {"name": "activation_41", "trainable": true, "activation": "relu"}, "class_name": "Activation", "name": "activation_41", "inbound_nodes": [[["batch_normalization_41", 0, 0, {}]]]}, {"config": {"name": "add_10", "trainable": true}, "class_name": "Add", "name": "add_10", "inbound_nodes": [[["max_pooling1d_10", 0, 0, {}], ["activation_41", 0, 0, {}]]]}, {"config": {"gamma_constraint": null, "gamma_regularizer": null, "center": true, "scale": true, "epsilon": 0.001, "beta_constraint": null, "momentum": 0.99, "axis": -1, "gamma_initializer": {"config": {}, "class_name": "Ones"}, "name": "batch_normalization_42", "trainable": true, "beta_regularizer": null, "moving_variance_initializer": {"config": {}, "class_name": "Ones"}, "moving_mean_initializer": {"config": {}, "class_name": "Zeros"}, "beta_initializer": {"config": {}, "class_name": "Zeros"}}, "class_name": "BatchNormalization", "name": "batch_normalization_42", "inbound_nodes": [[["add_10", 0, 0, {}]]]}, {"config": {"name": "activation_42", "trainable": true, "activation": "relu"}, "class_name": "Activation", "name": "activation_42", "inbound_nodes": [[["batch_normalization_42", 0, 0, {}]]]}, {"config": {"padding": "same", "kernel_constraint": null, "kernel_size": [16], "data_format": "channels_last", "use_bias": true, "dilation_rate": [1], "kernel_initializer": {"config": {"seed": null, "mode": "fan_in", "scale": 2.0, "distribution": "normal"}, "class_name": "VarianceScaling"}, "activity_regularizer": null, "filters": 128, "kernel_regularizer": {"config": {"l1": 0.0, "l2": 0.009999999776482582}, "class_name": "L1L2"}, "bias_initializer": {"config": {}, "class_name": "Zeros"}, "name": "conv1d_85", "trainable": true, "activation": "linear", "bias_constraint": null, "strides": [1], "bias_regularizer": null}, "class_name": "Conv1D", "name": "conv1d_85", "inbound_nodes": [[["activation_42", 0, 0, {}]]]}, {"config": {"padding": "same", "kernel_constraint": null, "kernel_size": [64], "data_format": "channels_last", "use_bias": true, "dilation_rate": [1], "kernel_initializer": {"config": {"seed": null, "mode": "fan_in", "scale": 2.0, "distribution": "normal"}, "class_name": "VarianceScaling"}, "activity_regularizer": null, "filters": 128, "kernel_regularizer": {"config": {"l1": 0.0, "l2": 0.009999999776482582}, "class_name": "L1L2"}, "bias_initializer": {"config": {}, "class_name": "Zeros"}, "name": "conv1d_86", "trainable": true, "activation": "linear", "bias_constraint": null, "strides": [1], "bias_regularizer": null}, "class_name": "Conv1D", "name": "conv1d_86", "inbound_nodes": [[["activation_42", 0, 0, {}]]]}, {"config": {"padding": "same", "kernel_constraint": null, "kernel_size": [32], "data_format": "channels_last", "use_bias": true, "dilation_rate": [1], "kernel_initializer": {"config": {"seed": null, "mode": "fan_in", "scale": 2.0, "distribution": "normal"}, "class_name": "VarianceScaling"}, "activity_regularizer": null, "filters": 128, "kernel_regularizer": {"config": {"l1": 0.0, "l2": 0.009999999776482582}, "class_name": "L1L2"}, "bias_initializer": {"config": {}, "class_name": "Zeros"}, "name": "conv1d_87", "trainable": true, "activation": "linear", "bias_constraint": null, "strides": [1], "bias_regularizer": null}, "class_name": "Conv1D", "name": "conv1d_87", "inbound_nodes": [[["activation_42", 0, 0, {}]]]}, {"config": {"axis": 2, "name": "concatenate_22", "trainable": true}, "class_name": "Concatenate", "name": "concatenate_22", "inbound_nodes": [[["conv1d_85", 0, 0, {}], ["conv1d_86", 0, 0, {}], ["conv1d_87", 0, 0, {}]]]}, {"config": {"padding": "same", "kernel_constraint": null, "kernel_size": [1], "data_format": "channels_last", "use_bias": true, "dilation_rate": [1], "kernel_initializer": {"config": {"seed": null, "mode": "fan_in", "scale": 2.0, "distribution": "normal"}, "class_name": "VarianceScaling"}, "activity_regularizer": null, "filters": 128, "kernel_regularizer": {"config": {"l1": 0.0, "l2": 0.009999999776482582}, "class_name": "L1L2"}, "bias_initializer": {"config": {}, "class_name": "Zeros"}, "name": "conv1d_88", "trainable": true, "activation": "linear", "bias_constraint": null, "strides": [1], "bias_regularizer": null}, "class_name": "Conv1D", "name": "conv1d_88", "inbound_nodes": [[["concatenate_22", 0, 0, {}]]]}, {"config": {"name": "self__attention_22", "trainable": true}, "class_name": "Self_Attention", "name": "self__attention_22", "inbound_nodes": [[["conv1d_88", 0, 0, {}]]]}, {"config": {"gamma_constraint": null, "gamma_regularizer": null, "center": true, "scale": true, "epsilon": 0.001, "beta_constraint": null, "momentum": 0.99, "axis": -1, "gamma_initializer": {"config": {}, "class_name": "Ones"}, "name": "batch_normalization_43", "trainable": true, "beta_regularizer": null, "moving_variance_initializer": {"config": {}, "class_name": "Ones"}, "moving_mean_initializer": {"config": {}, "class_name": "Zeros"}, "beta_initializer": {"config": {}, "class_name": "Zeros"}}, "class_name": "BatchNormalization", "name": "batch_normalization_43", "inbound_nodes": [[["self__attention_22", 0, 0, {}]]]}, {"config": {"name": "activation_43", "trainable": true, "activation": "relu"}, "class_name": "Activation", "name": "activation_43", "inbound_nodes": [[["batch_normalization_43", 0, 0, {}]]]}, {"config": {"gamma_constraint": null, "gamma_regularizer": null, "center": true, "scale": true, "epsilon": 0.001, "beta_constraint": null, "momentum": 0.99, "axis": -1, "gamma_initializer": {"config": {}, "class_name": "Ones"}, "name": "batch_normalization_44", "trainable": true, "beta_regularizer": null, "moving_variance_initializer": {"config": {}, "class_name": "Ones"}, "moving_mean_initializer": {"config": {}, "class_name": "Zeros"}, "beta_initializer": {"config": {}, "class_name": "Zeros"}}, "class_name": "BatchNormalization", "name": "batch_normalization_44", "inbound_nodes": [[["activation_43", 0, 0, {}]]]}, {"config": {"name": "activation_44", "trainable": true, "activation": "relu"}, "class_name": "Activation", "name": "activation_44", "inbound_nodes": [[["batch_normalization_44", 0, 0, {}]]]}, {"config": {"trainable": true, "seed": null, "noise_shape": null, "name": "dropout_11", "rate": 0.5}, "class_name": "Dropout", "name": "dropout_11", "inbound_nodes": [[["activation_44", 0, 0, {}]]]}, {"config": {"padding": "same", "kernel_constraint": null, "kernel_size": [16], "data_format": "channels_last", "use_bias": true, "dilation_rate": [1], "kernel_initializer": {"config": {"seed": null, "mode": "fan_in", "scale": 2.0, "distribution": "normal"}, "class_name": "VarianceScaling"}, "activity_regularizer": null, "filters": 128, "kernel_regularizer": {"config": {"l1": 0.0, "l2": 0.009999999776482582}, "class_name": "L1L2"}, "bias_initializer": {"config": {}, "class_name": "Zeros"}, "name": "conv1d_89", "trainable": true, "activation": "linear", "bias_constraint": null, "strides": [1], "bias_regularizer": null}, "class_name": "Conv1D", "name": "conv1d_89", "inbound_nodes": [[["dropout_11", 0, 0, {}]]]}, {"config": {"padding": "same", "kernel_constraint": null, "kernel_size": [64], "data_format": "channels_last", "use_bias": true, "dilation_rate": [1], "kernel_initializer": {"config": {"seed": null, "mode": "fan_in", "scale": 2.0, "distribution": "normal"}, "class_name": "VarianceScaling"}, "activity_regularizer": null, "filters": 128, "kernel_regularizer": {"config": {"l1": 0.0, "l2": 0.009999999776482582}, "class_name": "L1L2"}, "bias_initializer": {"config": {}, "class_name": "Zeros"}, "name": "conv1d_90", "trainable": true, "activation": "linear", "bias_constraint": null, "strides": [1], "bias_regularizer": null}, "class_name": "Conv1D", "name": "conv1d_90", "inbound_nodes": [[["dropout_11", 0, 0, {}]]]}, {"config": {"padding": "same", "kernel_constraint": null, "kernel_size": [32], "data_format": "channels_last", "use_bias": true, "dilation_rate": [1], "kernel_initializer": {"config": {"seed": null, "mode": "fan_in", "scale": 2.0, "distribution": "normal"}, "class_name": "VarianceScaling"}, "activity_regularizer": null, "filters": 128, "kernel_regularizer": {"config": {"l1": 0.0, "l2": 0.009999999776482582}, "class_name": "L1L2"}, "bias_initializer": {"config": {}, "class_name": "Zeros"}, "name": "conv1d_91", "trainable": true, "activation": "linear", "bias_constraint": null, "strides": [1], "bias_regularizer": null}, "class_name": "Conv1D", "name": "conv1d_91", "inbound_nodes": [[["dropout_11", 0, 0, {}]]]}, {"config": {"axis": 2, "name": "concatenate_23", "trainable": true}, "class_name": "Concatenate", "name": "concatenate_23", "inbound_nodes": [[["conv1d_89", 0, 0, {}], ["conv1d_90", 0, 0, {}], ["conv1d_91", 0, 0, {}]]]}, {"config": {"padding": "same", "kernel_constraint": null, "kernel_size": [1], "data_format": "channels_last", "use_bias": true, "dilation_rate": [1], "kernel_initializer": {"config": {"seed": null, "mode": "fan_in", "scale": 2.0, "distribution": "normal"}, "class_name": "VarianceScaling"}, "activity_regularizer": null, "filters": 128, "kernel_regularizer": {"config": {"l1": 0.0, "l2": 0.009999999776482582}, "class_name": "L1L2"}, "bias_initializer": {"config": {}, "class_name": "Zeros"}, "name": "conv1d_92", "trainable": true, "activation": "linear", "bias_constraint": null, "strides": [1], "bias_regularizer": null}, "class_name": "Conv1D", "name": "conv1d_92", "inbound_nodes": [[["concatenate_23", 0, 0, {}]]]}, {"config": {"name": "self__attention_23", "trainable": true}, "class_name": "Self_Attention", "name": "self__attention_23", "inbound_nodes": [[["conv1d_92", 0, 0, {}]]]}, {"config": {"gamma_constraint": null, "gamma_regularizer": null, "center": true, "scale": true, "epsilon": 0.001, "beta_constraint": null, "momentum": 0.99, "axis": -1, "gamma_initializer": {"config": {}, "class_name": "Ones"}, "name": "batch_normalization_45", "trainable": true, "beta_regularizer": null, "moving_variance_initializer": {"config": {}, "class_name": "Ones"}, "moving_mean_initializer": {"config": {}, "class_name": "Zeros"}, "beta_initializer": {"config": {}, "class_name": "Zeros"}}, "class_name": "BatchNormalization", "name": "batch_normalization_45", "inbound_nodes": [[["self__attention_23", 0, 0, {}]]]}, {"config": {"padding": "valid", "data_format": "channels_last", "pool_size": [1], "name": "max_pooling1d_11", "trainable": true, "strides": [1]}, "class_name": "MaxPooling1D", "name": "max_pooling1d_11", "inbound_nodes": [[["add_10", 0, 0, {}]]]}, {"config": {"name": "activation_45", "trainable": true, "activation": "relu"}, "class_name": "Activation", "name": "activation_45", "inbound_nodes": [[["batch_normalization_45", 0, 0, {}]]]}, {"config": {"name": "add_11", "trainable": true}, "class_name": "Add", "name": "add_11", "inbound_nodes": [[["max_pooling1d_11", 0, 0, {}], ["activation_45", 0, 0, {}]]]}, {"config": {"gamma_constraint": null, "gamma_regularizer": null, "center": true, "scale": true, "epsilon": 0.001, "beta_constraint": null, "momentum": 0.99, "axis": -1, "gamma_initializer": {"config": {}, "class_name": "Ones"}, "name": "batch_normalization_46", "trainable": true, "beta_regularizer": null, "moving_variance_initializer": {"config": {}, "class_name": "Ones"}, "moving_mean_initializer": {"config": {}, "class_name": "Zeros"}, "beta_initializer": {"config": {}, "class_name": "Zeros"}}, "class_name": "BatchNormalization", "name": "batch_normalization_46", "inbound_nodes": [[["add_11", 0, 0, {}]]]}, {"config": {"name": "activation_46", "trainable": true, "activation": "relu"}, "class_name": "Activation", "name": "activation_46", "inbound_nodes": [[["batch_normalization_46", 0, 0, {}]]]}, {"config": {"padding": "same", "kernel_constraint": null, "kernel_size": [16], "data_format": "channels_last", "use_bias": true, "dilation_rate": [1], "kernel_initializer": {"config": {"seed": null, "mode": "fan_in", "scale": 2.0, "distribution": "normal"}, "class_name": "VarianceScaling"}, "activity_regularizer": null, "filters": 128, "kernel_regularizer": {"config": {"l1": 0.0, "l2": 0.009999999776482582}, "class_name": "L1L2"}, "bias_initializer": {"config": {}, "class_name": "Zeros"}, "name": "conv1d_93", "trainable": true, "activation": "linear", "bias_constraint": null, "strides": [2], "bias_regularizer": null}, "class_name": "Conv1D", "name": "conv1d_93", "inbound_nodes": [[["activation_46", 0, 0, {}]]]}, {"config": {"padding": "same", "kernel_constraint": null, "kernel_size": [64], "data_format": "channels_last", "use_bias": true, "dilation_rate": [1], "kernel_initializer": {"config": {"seed": null, "mode": "fan_in", "scale": 2.0, "distribution": "normal"}, "class_name": "VarianceScaling"}, "activity_regularizer": null, "filters": 128, "kernel_regularizer": {"config": {"l1": 0.0, "l2": 0.009999999776482582}, "class_name": "L1L2"}, "bias_initializer": {"config": {}, "class_name": "Zeros"}, "name": "conv1d_94", "trainable": true, "activation": "linear", "bias_constraint": null, "strides": [2], "bias_regularizer": null}, "class_name": "Conv1D", "name": "conv1d_94", "inbound_nodes": [[["activation_46", 0, 0, {}]]]}, {"config": {"padding": "same", "kernel_constraint": null, "kernel_size": [32], "data_format": "channels_last", "use_bias": true, "dilation_rate": [1], "kernel_initializer": {"config": {"seed": null, "mode": "fan_in", "scale": 2.0, "distribution": "normal"}, "class_name": "VarianceScaling"}, "activity_regularizer": null, "filters": 128, "kernel_regularizer": {"config": {"l1": 0.0, "l2": 0.009999999776482582}, "class_name": "L1L2"}, "bias_initializer": {"config": {}, "class_name": "Zeros"}, "name": "conv1d_95", "trainable": true, "activation": "linear", "bias_constraint": null, "strides": [2], "bias_regularizer": null}, "class_name": "Conv1D", "name": "conv1d_95", "inbound_nodes": [[["activation_46", 0, 0, {}]]]}, {"config": {"axis": 2, "name": "concatenate_24", "trainable": true}, "class_name": "Concatenate", "name": "concatenate_24", "inbound_nodes": [[["conv1d_93", 0, 0, {}], ["conv1d_94", 0, 0, {}], ["conv1d_95", 0, 0, {}]]]}, {"config": {"padding": "same", "kernel_constraint": null, "kernel_size": [2], "data_format": "channels_last", "use_bias": true, "dilation_rate": [1], "kernel_initializer": {"config": {"seed": null, "mode": "fan_in", "scale": 2.0, "distribution": "normal"}, "class_name": "VarianceScaling"}, "activity_regularizer": null, "filters": 128, "kernel_regularizer": {"config": {"l1": 0.0, "l2": 0.009999999776482582}, "class_name": "L1L2"}, "bias_initializer": {"config": {}, "class_name": "Zeros"}, "name": "conv1d_96", "trainable": true, "activation": "linear", "bias_constraint": null, "strides": [1], "bias_regularizer": null}, "class_name": "Conv1D", "name": "conv1d_96", "inbound_nodes": [[["concatenate_24", 0, 0, {}]]]}, {"config": {"name": "self__attention_24", "trainable": true}, "class_name": "Self_Attention", "name": "self__attention_24", "inbound_nodes": [[["conv1d_96", 0, 0, {}]]]}, {"config": {"gamma_constraint": null, "gamma_regularizer": null, "center": true, "scale": true, "epsilon": 0.001, "beta_constraint": null, "momentum": 0.99, "axis": -1, "gamma_initializer": {"config": {}, "class_name": "Ones"}, "name": "batch_normalization_47", "trainable": true, "beta_regularizer": null, "moving_variance_initializer": {"config": {}, "class_name": "Ones"}, "moving_mean_initializer": {"config": {}, "class_name": "Zeros"}, "beta_initializer": {"config": {}, "class_name": "Zeros"}}, "class_name": "BatchNormalization", "name": "batch_normalization_47", "inbound_nodes": [[["self__attention_24", 0, 0, {}]]]}, {"config": {"name": "activation_47", "trainable": true, "activation": "relu"}, "class_name": "Activation", "name": "activation_47", "inbound_nodes": [[["batch_normalization_47", 0, 0, {}]]]}, {"config": {"gamma_constraint": null, "gamma_regularizer": null, "center": true, "scale": true, "epsilon": 0.001, "beta_constraint": null, "momentum": 0.99, "axis": -1, "gamma_initializer": {"config": {}, "class_name": "Ones"}, "name": "batch_normalization_48", "trainable": true, "beta_regularizer": null, "moving_variance_initializer": {"config": {}, "class_name": "Ones"}, "moving_mean_initializer": {"config": {}, "class_name": "Zeros"}, "beta_initializer": {"config": {}, "class_name": "Zeros"}}, "class_name": "BatchNormalization", "name": "batch_normalization_48", "inbound_nodes": [[["activation_47", 0, 0, {}]]]}, {"config": {"name": "activation_48", "trainable": true, "activation": "relu"}, "class_name": "Activation", "name": "activation_48", "inbound_nodes": [[["batch_normalization_48", 0, 0, {}]]]}, {"config": {"trainable": true, "seed": null, "noise_shape": null, "name": "dropout_12", "rate": 0.5}, "class_name": "Dropout", "name": "dropout_12", "inbound_nodes": [[["activation_48", 0, 0, {}]]]}, {"config": {"padding": "same", "kernel_constraint": null, "kernel_size": [16], "data_format": "channels_last", "use_bias": true, "dilation_rate": [1], "kernel_initializer": {"config": {"seed": null, "mode": "fan_in", "scale": 2.0, "distribution": "normal"}, "class_name": "VarianceScaling"}, "activity_regularizer": null, "filters": 128, "kernel_regularizer": {"config": {"l1": 0.0, "l2": 0.009999999776482582}, "class_name": "L1L2"}, "bias_initializer": {"config": {}, "class_name": "Zeros"}, "name": "conv1d_97", "trainable": true, "activation": "linear", "bias_constraint": null, "strides": [1], "bias_regularizer": null}, "class_name": "Conv1D", "name": "conv1d_97", "inbound_nodes": [[["dropout_12", 0, 0, {}]]]}, {"config": {"padding": "same", "kernel_constraint": null, "kernel_size": [64], "data_format": "channels_last", "use_bias": true, "dilation_rate": [1], "kernel_initializer": {"config": {"seed": null, "mode": "fan_in", "scale": 2.0, "distribution": "normal"}, "class_name": "VarianceScaling"}, "activity_regularizer": null, "filters": 128, "kernel_regularizer": {"config": {"l1": 0.0, "l2": 0.009999999776482582}, "class_name": "L1L2"}, "bias_initializer": {"config": {}, "class_name": "Zeros"}, "name": "conv1d_98", "trainable": true, "activation": "linear", "bias_constraint": null, "strides": [1], "bias_regularizer": null}, "class_name": "Conv1D", "name": "conv1d_98", "inbound_nodes": [[["dropout_12", 0, 0, {}]]]}, {"config": {"padding": "same", "kernel_constraint": null, "kernel_size": [32], "data_format": "channels_last", "use_bias": true, "dilation_rate": [1], "kernel_initializer": {"config": {"seed": null, "mode": "fan_in", "scale": 2.0, "distribution": "normal"}, "class_name": "VarianceScaling"}, "activity_regularizer": null, "filters": 128, "kernel_regularizer": {"config": {"l1": 0.0, "l2": 0.009999999776482582}, "class_name": "L1L2"}, "bias_initializer": {"config": {}, "class_name": "Zeros"}, "name": "conv1d_99", "trainable": true, "activation": "linear", "bias_constraint": null, "strides": [1], "bias_regularizer": null}, "class_name": "Conv1D", "name": "conv1d_99", "inbound_nodes": [[["dropout_12", 0, 0, {}]]]}, {"config": {"axis": 2, "name": "concatenate_25", "trainable": true}, "class_name": "Concatenate", "name": "concatenate_25", "inbound_nodes": [[["conv1d_97", 0, 0, {}], ["conv1d_98", 0, 0, {}], ["conv1d_99", 0, 0, {}]]]}, {"config": {"padding": "same", "kernel_constraint": null, "kernel_size": [1], "data_format": "channels_last", "use_bias": true, "dilation_rate": [1], "kernel_initializer": {"config": {"seed": null, "mode": "fan_in", "scale": 2.0, "distribution": "normal"}, "class_name": "VarianceScaling"}, "activity_regularizer": null, "filters": 128, "kernel_regularizer": {"config": {"l1": 0.0, "l2": 0.009999999776482582}, "class_name": "L1L2"}, "bias_initializer": {"config": {}, "class_name": "Zeros"}, "name": "conv1d_100", "trainable": true, "activation": "linear", "bias_constraint": null, "strides": [1], "bias_regularizer": null}, "class_name": "Conv1D", "name": "conv1d_100", "inbound_nodes": [[["concatenate_25", 0, 0, {}]]]}, {"config": {"name": "self__attention_25", "trainable": true}, "class_name": "Self_Attention", "name": "self__attention_25", "inbound_nodes": [[["conv1d_100", 0, 0, {}]]]}, {"config": {"gamma_constraint": null, "gamma_regularizer": null, "center": true, "scale": true, "epsilon": 0.001, "beta_constraint": null, "momentum": 0.99, "axis": -1, "gamma_initializer": {"config": {}, "class_name": "Ones"}, "name": "batch_normalization_49", "trainable": true, "beta_regularizer": null, "moving_variance_initializer": {"config": {}, "class_name": "Ones"}, "moving_mean_initializer": {"config": {}, "class_name": "Zeros"}, "beta_initializer": {"config": {}, "class_name": "Zeros"}}, "class_name": "BatchNormalization", "name": "batch_normalization_49", "inbound_nodes": [[["self__attention_25", 0, 0, {}]]]}, {"config": {"padding": "valid", "data_format": "channels_last", "pool_size": [2], "name": "max_pooling1d_12", "trainable": true, "strides": [2]}, "class_name": "MaxPooling1D", "name": "max_pooling1d_12", "inbound_nodes": [[["add_11", 0, 0, {}]]]}, {"config": {"name": "activation_49", "trainable": true, "activation": "relu"}, "class_name": "Activation", "name": "activation_49", "inbound_nodes": [[["batch_normalization_49", 0, 0, {}]]]}, {"config": {"name": "add_12", "trainable": true}, "class_name": "Add", "name": "add_12", "inbound_nodes": [[["max_pooling1d_12", 0, 0, {}], ["activation_49", 0, 0, {}]]]}, {"config": {"gamma_constraint": null, "gamma_regularizer": null, "center": true, "scale": true, "epsilon": 0.001, "beta_constraint": null, "momentum": 0.99, "axis": -1, "gamma_initializer": {"config": {}, "class_name": "Ones"}, "name": "batch_normalization_50", "trainable": true, "beta_regularizer": null, "moving_variance_initializer": {"config": {}, "class_name": "Ones"}, "moving_mean_initializer": {"config": {}, "class_name": "Zeros"}, "beta_initializer": {"config": {}, "class_name": "Zeros"}}, "class_name": "BatchNormalization", "name": "batch_normalization_50", "inbound_nodes": [[["add_12", 0, 0, {}]]]}, {"config": {"name": "activation_50", "trainable": true, "activation": "relu"}, "class_name": "Activation", "name": "activation_50", "inbound_nodes": [[["batch_normalization_50", 0, 0, {}]]]}, {"config": {"padding": "same", "kernel_constraint": null, "kernel_size": [16], "data_format": "channels_last", "use_bias": true, "dilation_rate": [1], "kernel_initializer": {"config": {"seed": null, "mode": "fan_in", "scale": 2.0, "distribution": "normal"}, "class_name": "VarianceScaling"}, "activity_regularizer": null, "filters": 256, "kernel_regularizer": {"config": {"l1": 0.0, "l2": 0.009999999776482582}, "class_name": "L1L2"}, "bias_initializer": {"config": {}, "class_name": "Zeros"}, "name": "conv1d_101", "trainable": true, "activation": "linear", "bias_constraint": null, "strides": [1], "bias_regularizer": null}, "class_name": "Conv1D", "name": "conv1d_101", "inbound_nodes": [[["activation_50", 0, 0, {}]]]}, {"config": {"padding": "same", "kernel_constraint": null, "kernel_size": [64], "data_format": "channels_last", "use_bias": true, "dilation_rate": [1], "kernel_initializer": {"config": {"seed": null, "mode": "fan_in", "scale": 2.0, "distribution": "normal"}, "class_name": "VarianceScaling"}, "activity_regularizer": null, "filters": 256, "kernel_regularizer": {"config": {"l1": 0.0, "l2": 0.009999999776482582}, "class_name": "L1L2"}, "bias_initializer": {"config": {}, "class_name": "Zeros"}, "name": "conv1d_102", "trainable": true, "activation": "linear", "bias_constraint": null, "strides": [1], "bias_regularizer": null}, "class_name": "Conv1D", "name": "conv1d_102", "inbound_nodes": [[["activation_50", 0, 0, {}]]]}, {"config": {"padding": "same", "kernel_constraint": null, "kernel_size": [32], "data_format": "channels_last", "use_bias": true, "dilation_rate": [1], "kernel_initializer": {"config": {"seed": null, "mode": "fan_in", "scale": 2.0, "distribution": "normal"}, "class_name": "VarianceScaling"}, "activity_regularizer": null, "filters": 256, "kernel_regularizer": {"config": {"l1": 0.0, "l2": 0.009999999776482582}, "class_name": "L1L2"}, "bias_initializer": {"config": {}, "class_name": "Zeros"}, "name": "conv1d_103", "trainable": true, "activation": "linear", "bias_constraint": null, "strides": [1], "bias_regularizer": null}, "class_name": "Conv1D", "name": "conv1d_103", "inbound_nodes": [[["activation_50", 0, 0, {}]]]}, {"config": {"axis": 2, "name": "concatenate_26", "trainable": true}, "class_name": "Concatenate", "name": "concatenate_26", "inbound_nodes": [[["conv1d_101", 0, 0, {}], ["conv1d_102", 0, 0, {}], ["conv1d_103", 0, 0, {}]]]}, {"config": {"padding": "same", "kernel_constraint": null, "kernel_size": [1], "data_format": "channels_last", "use_bias": true, "dilation_rate": [1], "kernel_initializer": {"config": {"seed": null, "mode": "fan_in", "scale": 2.0, "distribution": "normal"}, "class_name": "VarianceScaling"}, "activity_regularizer": null, "filters": 256, "kernel_regularizer": {"config": {"l1": 0.0, "l2": 0.009999999776482582}, "class_name": "L1L2"}, "bias_initializer": {"config": {}, "class_name": "Zeros"}, "name": "conv1d_104", "trainable": true, "activation": "linear", "bias_constraint": null, "strides": [1], "bias_regularizer": null}, "class_name": "Conv1D", "name": "conv1d_104", "inbound_nodes": [[["concatenate_26", 0, 0, {}]]]}, {"config": {"name": "self__attention_26", "trainable": true}, "class_name": "Self_Attention", "name": "self__attention_26", "inbound_nodes": [[["conv1d_104", 0, 0, {}]]]}, {"config": {"gamma_constraint": null, "gamma_regularizer": null, "center": true, "scale": true, "epsilon": 0.001, "beta_constraint": null, "momentum": 0.99, "axis": -1, "gamma_initializer": {"config": {}, "class_name": "Ones"}, "name": "batch_normalization_51", "trainable": true, "beta_regularizer": null, "moving_variance_initializer": {"config": {}, "class_name": "Ones"}, "moving_mean_initializer": {"config": {}, "class_name": "Zeros"}, "beta_initializer": {"config": {}, "class_name": "Zeros"}}, "class_name": "BatchNormalization", "name": "batch_normalization_51", "inbound_nodes": [[["self__attention_26", 0, 0, {}]]]}, {"config": {"name": "activation_51", "trainable": true, "activation": "relu"}, "class_name": "Activation", "name": "activation_51", "inbound_nodes": [[["batch_normalization_51", 0, 0, {}]]]}, {"config": {"gamma_constraint": null, "gamma_regularizer": null, "center": true, "scale": true, "epsilon": 0.001, "beta_constraint": null, "momentum": 0.99, "axis": -1, "gamma_initializer": {"config": {}, "class_name": "Ones"}, "name": "batch_normalization_52", "trainable": true, "beta_regularizer": null, "moving_variance_initializer": {"config": {}, "class_name": "Ones"}, "moving_mean_initializer": {"config": {}, "class_name": "Zeros"}, "beta_initializer": {"config": {}, "class_name": "Zeros"}}, "class_name": "BatchNormalization", "name": "batch_normalization_52", "inbound_nodes": [[["activation_51", 0, 0, {}]]]}, {"config": {"name": "activation_52", "trainable": true, "activation": "relu"}, "class_name": "Activation", "name": "activation_52", "inbound_nodes": [[["batch_normalization_52", 0, 0, {}]]]}, {"config": {"trainable": true, "seed": null, "noise_shape": null, "name": "dropout_13", "rate": 0.5}, "class_name": "Dropout", "name": "dropout_13", "inbound_nodes": [[["activation_52", 0, 0, {}]]]}, {"config": {"padding": "same", "kernel_constraint": null, "kernel_size": [16], "data_format": "channels_last", "use_bias": true, "dilation_rate": [1], "kernel_initializer": {"config": {"seed": null, "mode": "fan_in", "scale": 2.0, "distribution": "normal"}, "class_name": "VarianceScaling"}, "activity_regularizer": null, "filters": 256, "kernel_regularizer": {"config": {"l1": 0.0, "l2": 0.009999999776482582}, "class_name": "L1L2"}, "bias_initializer": {"config": {}, "class_name": "Zeros"}, "name": "conv1d_105", "trainable": true, "activation": "linear", "bias_constraint": null, "strides": [1], "bias_regularizer": null}, "class_name": "Conv1D", "name": "conv1d_105", "inbound_nodes": [[["dropout_13", 0, 0, {}]]]}, {"config": {"padding": "same", "kernel_constraint": null, "kernel_size": [64], "data_format": "channels_last", "use_bias": true, "dilation_rate": [1], "kernel_initializer": {"config": {"seed": null, "mode": "fan_in", "scale": 2.0, "distribution": "normal"}, "class_name": "VarianceScaling"}, "activity_regularizer": null, "filters": 256, "kernel_regularizer": {"config": {"l1": 0.0, "l2": 0.009999999776482582}, "class_name": "L1L2"}, "bias_initializer": {"config": {}, "class_name": "Zeros"}, "name": "conv1d_106", "trainable": true, "activation": "linear", "bias_constraint": null, "strides": [1], "bias_regularizer": null}, "class_name": "Conv1D", "name": "conv1d_106", "inbound_nodes": [[["dropout_13", 0, 0, {}]]]}, {"config": {"padding": "same", "kernel_constraint": null, "kernel_size": [32], "data_format": "channels_last", "use_bias": true, "dilation_rate": [1], "kernel_initializer": {"config": {"seed": null, "mode": "fan_in", "scale": 2.0, "distribution": "normal"}, "class_name": "VarianceScaling"}, "activity_regularizer": null, "filters": 256, "kernel_regularizer": {"config": {"l1": 0.0, "l2": 0.009999999776482582}, "class_name": "L1L2"}, "bias_initializer": {"config": {}, "class_name": "Zeros"}, "name": "conv1d_107", "trainable": true, "activation": "linear", "bias_constraint": null, "strides": [1], "bias_regularizer": null}, "class_name": "Conv1D", "name": "conv1d_107", "inbound_nodes": [[["dropout_13", 0, 0, {}]]]}, {"config": {"axis": 2, "name": "concatenate_27", "trainable": true}, "class_name": "Concatenate", "name": "concatenate_27", "inbound_nodes": [[["conv1d_105", 0, 0, {}], ["conv1d_106", 0, 0, {}], ["conv1d_107", 0, 0, {}]]]}, {"config": {"padding": "same", "kernel_constraint": null, "kernel_size": [1], "data_format": "channels_last", "use_bias": true, "dilation_rate": [1], "kernel_initializer": {"config": {"seed": null, "mode": "fan_in", "scale": 2.0, "distribution": "normal"}, "class_name": "VarianceScaling"}, "activity_regularizer": null, "filters": 256, "kernel_regularizer": {"config": {"l1": 0.0, "l2": 0.009999999776482582}, "class_name": "L1L2"}, "bias_initializer": {"config": {}, "class_name": "Zeros"}, "name": "conv1d_108", "trainable": true, "activation": "linear", "bias_constraint": null, "strides": [1], "bias_regularizer": null}, "class_name": "Conv1D", "name": "conv1d_108", "inbound_nodes": [[["concatenate_27", 0, 0, {}]]]}, {"config": {"name": "self__attention_27", "trainable": true}, "class_name": "Self_Attention", "name": "self__attention_27", "inbound_nodes": [[["conv1d_108", 0, 0, {}]]]}, {"config": {"padding": "valid", "data_format": "channels_last", "pool_size": [1], "name": "max_pooling1d_13", "trainable": true, "strides": [1]}, "class_name": "MaxPooling1D", "name": "max_pooling1d_13", "inbound_nodes": [[["add_12", 0, 0, {}]]]}, {"config": {"gamma_constraint": null, "gamma_regularizer": null, "center": true, "scale": true, "epsilon": 0.001, "beta_constraint": null, "momentum": 0.99, "axis": -1, "gamma_initializer": {"config": {}, "class_name": "Ones"}, "name": "batch_normalization_53", "trainable": true, "beta_regularizer": null, "moving_variance_initializer": {"config": {}, "class_name": "Ones"}, "moving_mean_initializer": {"config": {}, "class_name": "Zeros"}, "beta_initializer": {"config": {}, "class_name": "Zeros"}}, "class_name": "BatchNormalization", "name": "batch_normalization_53", "inbound_nodes": [[["self__attention_27", 0, 0, {}]]]}, {"config": {"output_shape_type": "lambda", "function": ["4wEAAAAAAAAAAgAAAAQAAABTAAAAcygAAAB0AABqAQB8AACDAQB9AQB0AABqAgB8AAB8AQBnAgBk\nAQBkAgCDAQFTKQNO2gRheGlz6QIAAAApA9oBS9oKemVyb3NfbGlrZdoLY29uY2F0ZW5hdGUpAtoB\neNoBeakAcggAAAD6Ni9tZWRpYS91dXNlci9kYXRhLzk5NS1JQ1UgIHBsdXNlIGZldHVyZS9zcmMv\nbmV0d29yay5wedoHemVyb3BhZJ8AAABzBAAAAAABDwE=\n", null, null], "name": "lambda_3", "trainable": true, "arguments": {}, "function_type": "lambda", "output_shape": ["4wEAAAAAAAAAAgAAAAQAAABTAAAAczwAAAB0AAB8AACDAQB9AQB0AQB8AQCDAQBkAQBrAgBzJAB0\nAgCCAQB8AQBkAgAFGWQCADkDPHQDAHwBAIMBAFMpA07pAwAAAOkCAAAAKQTaBGxpc3TaA2xlbtoO\nQXNzZXJ0aW9uRXJyb3LaBXR1cGxlKQLaC2lucHV0X3NoYXBl2gVzaGFwZakAcgkAAAD6Ni9tZWRp\nYS91dXNlci9kYXRhLzk5NS1JQ1UgIHBsdXNlIGZldHVyZS9zcmMvbmV0d29yay5wedoUemVyb3Bh\nZF9vdXRwdXRfc2hhcGWjAAAAcwgAAAAAAQwBGAEOAQ==\n", null, null]}, "class_name": "Lambda", "name": "lambda_3", "inbound_nodes": [[["max_pooling1d_13", 0, 0, {}]]]}, {"config": {"name": "activation_53", "trainable": true, "activation": "relu"}, "class_name": "Activation", "name": "activation_53", "inbound_nodes": [[["batch_normalization_53", 0, 0, {}]]]}, {"config": {"name": "add_13", "trainable": true}, "class_name": "Add", "name": "add_13", "inbound_nodes": [[["lambda_3", 0, 0, {}], ["activation_53", 0, 0, {}]]]}, {"config": {"gamma_constraint": null, "gamma_regularizer": null, "center": true, "scale": true, "epsilon": 0.001, "beta_constraint": null, "momentum": 0.99, "axis": -1, "gamma_initializer": {"config": {}, "class_name": "Ones"}, "name": "batch_normalization_54", "trainable": true, "beta_regularizer": null, "moving_variance_initializer": {"config": {}, "class_name": "Ones"}, "moving_mean_initializer": {"config": {}, "class_name": "Zeros"}, "beta_initializer": {"config": {}, "class_name": "Zeros"}}, "class_name": "BatchNormalization", "name": "batch_normalization_54", "inbound_nodes": [[["add_13", 0, 0, {}]]]}, {"config": {"name": "activation_54", "trainable": true, "activation": "relu"}, "class_name": "Activation", "name": "activation_54", "inbound_nodes": [[["batch_normalization_54", 0, 0, {}]]]}, {"config": {"padding": "same", "kernel_constraint": null, "kernel_size": [16], "data_format": "channels_last", "use_bias": true, "dilation_rate": [1], "kernel_initializer": {"config": {"seed": null, "mode": "fan_in", "scale": 2.0, "distribution": "normal"}, "class_name": "VarianceScaling"}, "activity_regularizer": null, "filters": 256, "kernel_regularizer": {"config": {"l1": 0.0, "l2": 0.009999999776482582}, "class_name": "L1L2"}, "bias_initializer": {"config": {}, "class_name": "Zeros"}, "name": "conv1d_109", "trainable": true, "activation": "linear", "bias_constraint": null, "strides": [2], "bias_regularizer": null}, "class_name": "Conv1D", "name": "conv1d_109", "inbound_nodes": [[["activation_54", 0, 0, {}]]]}, {"config": {"padding": "same", "kernel_constraint": null, "kernel_size": [64], "data_format": "channels_last", "use_bias": true, "dilation_rate": [1], "kernel_initializer": {"config": {"seed": null, "mode": "fan_in", "scale": 2.0, "distribution": "normal"}, "class_name": "VarianceScaling"}, "activity_regularizer": null, "filters": 256, "kernel_regularizer": {"config": {"l1": 0.0, "l2": 0.009999999776482582}, "class_name": "L1L2"}, "bias_initializer": {"config": {}, "class_name": "Zeros"}, "name": "conv1d_110", "trainable": true, "activation": "linear", "bias_constraint": null, "strides": [2], "bias_regularizer": null}, "class_name": "Conv1D", "name": "conv1d_110", "inbound_nodes": [[["activation_54", 0, 0, {}]]]}, {"config": {"padding": "same", "kernel_constraint": null, "kernel_size": [32], "data_format": "channels_last", "use_bias": true, "dilation_rate": [1], "kernel_initializer": {"config": {"seed": null, "mode": "fan_in", "scale": 2.0, "distribution": "normal"}, "class_name": "VarianceScaling"}, "activity_regularizer": null, "filters": 256, "kernel_regularizer": {"config": {"l1": 0.0, "l2": 0.009999999776482582}, "class_name": "L1L2"}, "bias_initializer": {"config": {}, "class_name": "Zeros"}, "name": "conv1d_111", "trainable": true, "activation": "linear", "bias_constraint": null, "strides": [2], "bias_regularizer": null}, "class_name": "Conv1D", "name": "conv1d_111", "inbound_nodes": [[["activation_54", 0, 0, {}]]]}, {"config": {"axis": 2, "name": "concatenate_28", "trainable": true}, "class_name": "Concatenate", "name": "concatenate_28", "inbound_nodes": [[["conv1d_109", 0, 0, {}], ["conv1d_110", 0, 0, {}], ["conv1d_111", 0, 0, {}]]]}, {"config": {"padding": "same", "kernel_constraint": null, "kernel_size": [2], "data_format": "channels_last", "use_bias": true, "dilation_rate": [1], "kernel_initializer": {"config": {"seed": null, "mode": "fan_in", "scale": 2.0, "distribution": "normal"}, "class_name": "VarianceScaling"}, "activity_regularizer": null, "filters": 256, "kernel_regularizer": {"config": {"l1": 0.0, "l2": 0.009999999776482582}, "class_name": "L1L2"}, "bias_initializer": {"config": {}, "class_name": "Zeros"}, "name": "conv1d_112", "trainable": true, "activation": "linear", "bias_constraint": null, "strides": [1], "bias_regularizer": null}, "class_name": "Conv1D", "name": "conv1d_112", "inbound_nodes": [[["concatenate_28", 0, 0, {}]]]}, {"config": {"name": "self__attention_28", "trainable": true}, "class_name": "Self_Attention", "name": "self__attention_28", "inbound_nodes": [[["conv1d_112", 0, 0, {}]]]}, {"config": {"gamma_constraint": null, "gamma_regularizer": null, "center": true, "scale": true, "epsilon": 0.001, "beta_constraint": null, "momentum": 0.99, "axis": -1, "gamma_initializer": {"config": {}, "class_name": "Ones"}, "name": "batch_normalization_55", "trainable": true, "beta_regularizer": null, "moving_variance_initializer": {"config": {}, "class_name": "Ones"}, "moving_mean_initializer": {"config": {}, "class_name": "Zeros"}, "beta_initializer": {"config": {}, "class_name": "Zeros"}}, "class_name": "BatchNormalization", "name": "batch_normalization_55", "inbound_nodes": [[["self__attention_28", 0, 0, {}]]]}, {"config": {"name": "activation_55", "trainable": true, "activation": "relu"}, "class_name": "Activation", "name": "activation_55", "inbound_nodes": [[["batch_normalization_55", 0, 0, {}]]]}, {"config": {"gamma_constraint": null, "gamma_regularizer": null, "center": true, "scale": true, "epsilon": 0.001, "beta_constraint": null, "momentum": 0.99, "axis": -1, "gamma_initializer": {"config": {}, "class_name": "Ones"}, "name": "batch_normalization_56", "trainable": true, "beta_regularizer": null, "moving_variance_initializer": {"config": {}, "class_name": "Ones"}, "moving_mean_initializer": {"config": {}, "class_name": "Zeros"}, "beta_initializer": {"config": {}, "class_name": "Zeros"}}, "class_name": "BatchNormalization", "name": "batch_normalization_56", "inbound_nodes": [[["activation_55", 0, 0, {}]]]}, {"config": {"name": "activation_56", "trainable": true, "activation": "relu"}, "class_name": "Activation", "name": "activation_56", "inbound_nodes": [[["batch_normalization_56", 0, 0, {}]]]}, {"config": {"trainable": true, "seed": null, "noise_shape": null, "name": "dropout_14", "rate": 0.5}, "class_name": "Dropout", "name": "dropout_14", "inbound_nodes": [[["activation_56", 0, 0, {}]]]}, {"config": {"padding": "same", "kernel_constraint": null, "kernel_size": [16], "data_format": "channels_last", "use_bias": true, "dilation_rate": [1], "kernel_initializer": {"config": {"seed": null, "mode": "fan_in", "scale": 2.0, "distribution": "normal"}, "class_name": "VarianceScaling"}, "activity_regularizer": null, "filters": 256, "kernel_regularizer": {"config": {"l1": 0.0, "l2": 0.009999999776482582}, "class_name": "L1L2"}, "bias_initializer": {"config": {}, "class_name": "Zeros"}, "name": "conv1d_113", "trainable": true, "activation": "linear", "bias_constraint": null, "strides": [1], "bias_regularizer": null}, "class_name": "Conv1D", "name": "conv1d_113", "inbound_nodes": [[["dropout_14", 0, 0, {}]]]}, {"config": {"padding": "same", "kernel_constraint": null, "kernel_size": [64], "data_format": "channels_last", "use_bias": true, "dilation_rate": [1], "kernel_initializer": {"config": {"seed": null, "mode": "fan_in", "scale": 2.0, "distribution": "normal"}, "class_name": "VarianceScaling"}, "activity_regularizer": null, "filters": 256, "kernel_regularizer": {"config": {"l1": 0.0, "l2": 0.009999999776482582}, "class_name": "L1L2"}, "bias_initializer": {"config": {}, "class_name": "Zeros"}, "name": "conv1d_114", "trainable": true, "activation": "linear", "bias_constraint": null, "strides": [1], "bias_regularizer": null}, "class_name": "Conv1D", "name": "conv1d_114", "inbound_nodes": [[["dropout_14", 0, 0, {}]]]}, {"config": {"padding": "same", "kernel_constraint": null, "kernel_size": [32], "data_format": "channels_last", "use_bias": true, "dilation_rate": [1], "kernel_initializer": {"config": {"seed": null, "mode": "fan_in", "scale": 2.0, "distribution": "normal"}, "class_name": "VarianceScaling"}, "activity_regularizer": null, "filters": 256, "kernel_regularizer": {"config": {"l1": 0.0, "l2": 0.009999999776482582}, "class_name": "L1L2"}, "bias_initializer": {"config": {}, "class_name": "Zeros"}, "name": "conv1d_115", "trainable": true, "activation": "linear", "bias_constraint": null, "strides": [1], "bias_regularizer": null}, "class_name": "Conv1D", "name": "conv1d_115", "inbound_nodes": [[["dropout_14", 0, 0, {}]]]}, {"config": {"axis": 2, "name": "concatenate_29", "trainable": true}, "class_name": "Concatenate", "name": "concatenate_29", "inbound_nodes": [[["conv1d_113", 0, 0, {}], ["conv1d_114", 0, 0, {}], ["conv1d_115", 0, 0, {}]]]}, {"config": {"padding": "same", "kernel_constraint": null, "kernel_size": [1], "data_format": "channels_last", "use_bias": true, "dilation_rate": [1], "kernel_initializer": {"config": {"seed": null, "mode": "fan_in", "scale": 2.0, "distribution": "normal"}, "class_name": "VarianceScaling"}, "activity_regularizer": null, "filters": 256, "kernel_regularizer": {"config": {"l1": 0.0, "l2": 0.009999999776482582}, "class_name": "L1L2"}, "bias_initializer": {"config": {}, "class_name": "Zeros"}, "name": "conv1d_116", "trainable": true, "activation": "linear", "bias_constraint": null, "strides": [1], "bias_regularizer": null}, "class_name": "Conv1D", "name": "conv1d_116", "inbound_nodes": [[["concatenate_29", 0, 0, {}]]]}, {"config": {"name": "self__attention_29", "trainable": true}, "class_name": "Self_Attention", "name": "self__attention_29", "inbound_nodes": [[["conv1d_116", 0, 0, {}]]]}, {"config": {"gamma_constraint": null, "gamma_regularizer": null, "center": true, "scale": true, "epsilon": 0.001, "beta_constraint": null, "momentum": 0.99, "axis": -1, "gamma_initializer": {"config": {}, "class_name": "Ones"}, "name": "batch_normalization_57", "trainable": true, "beta_regularizer": null, "moving_variance_initializer": {"config": {}, "class_name": "Ones"}, "moving_mean_initializer": {"config": {}, "class_name": "Zeros"}, "beta_initializer": {"config": {}, "class_name": "Zeros"}}, "class_name": "BatchNormalization", "name": "batch_normalization_57", "inbound_nodes": [[["self__attention_29", 0, 0, {}]]]}, {"config": {"padding": "valid", "data_format": "channels_last", "pool_size": [2], "name": "max_pooling1d_14", "trainable": true, "strides": [2]}, "class_name": "MaxPooling1D", "name": "max_pooling1d_14", "inbound_nodes": [[["add_13", 0, 0, {}]]]}, {"config": {"name": "activation_57", "trainable": true, "activation": "relu"}, "class_name": "Activation", "name": "activation_57", "inbound_nodes": [[["batch_normalization_57", 0, 0, {}]]]}, {"config": {"name": "add_14", "trainable": true}, "class_name": "Add", "name": "add_14", "inbound_nodes": [[["max_pooling1d_14", 0, 0, {}], ["activation_57", 0, 0, {}]]]}, {"config": {"gamma_constraint": null, "gamma_regularizer": null, "center": true, "scale": true, "epsilon": 0.001, "beta_constraint": null, "momentum": 0.99, "axis": -1, "gamma_initializer": {"config": {}, "class_name": "Ones"}, "name": "batch_normalization_58", "trainable": true, "beta_regularizer": null, "moving_variance_initializer": {"config": {}, "class_name": "Ones"}, "moving_mean_initializer": {"config": {}, "class_name": "Zeros"}, "beta_initializer": {"config": {}, "class_name": "Zeros"}}, "class_name": "BatchNormalization", "name": "batch_normalization_58", "inbound_nodes": [[["add_14", 0, 0, {}]]]}, {"config": {"name": "activation_58", "trainable": true, "activation": "relu"}, "class_name": "Activation", "name": "activation_58", "inbound_nodes": [[["batch_normalization_58", 0, 0, {}]]]}, {"config": {"padding": "same", "kernel_constraint": null, "kernel_size": [16], "data_format": "channels_last", "use_bias": true, "dilation_rate": [1], "kernel_initializer": {"config": {"seed": null, "mode": "fan_in", "scale": 2.0, "distribution": "normal"}, "class_name": "VarianceScaling"}, "activity_regularizer": null, "filters": 256, "kernel_regularizer": {"config": {"l1": 0.0, "l2": 0.009999999776482582}, "class_name": "L1L2"}, "bias_initializer": {"config": {}, "class_name": "Zeros"}, "name": "conv1d_117", "trainable": true, "activation": "linear", "bias_constraint": null, "strides": [1], "bias_regularizer": null}, "class_name": "Conv1D", "name": "conv1d_117", "inbound_nodes": [[["activation_58", 0, 0, {}]]]}, {"config": {"padding": "same", "kernel_constraint": null, "kernel_size": [64], "data_format": "channels_last", "use_bias": true, "dilation_rate": [1], "kernel_initializer": {"config": {"seed": null, "mode": "fan_in", "scale": 2.0, "distribution": "normal"}, "class_name": "VarianceScaling"}, "activity_regularizer": null, "filters": 256, "kernel_regularizer": {"config": {"l1": 0.0, "l2": 0.009999999776482582}, "class_name": "L1L2"}, "bias_initializer": {"config": {}, "class_name": "Zeros"}, "name": "conv1d_118", "trainable": true, "activation": "linear", "bias_constraint": null, "strides": [1], "bias_regularizer": null}, "class_name": "Conv1D", "name": "conv1d_118", "inbound_nodes": [[["activation_58", 0, 0, {}]]]}, {"config": {"padding": "same", "kernel_constraint": null, "kernel_size": [32], "data_format": "channels_last", "use_bias": true, "dilation_rate": [1], "kernel_initializer": {"config": {"seed": null, "mode": "fan_in", "scale": 2.0, "distribution": "normal"}, "class_name": "VarianceScaling"}, "activity_regularizer": null, "filters": 256, "kernel_regularizer": {"config": {"l1": 0.0, "l2": 0.009999999776482582}, "class_name": "L1L2"}, "bias_initializer": {"config": {}, "class_name": "Zeros"}, "name": "conv1d_119", "trainable": true, "activation": "linear", "bias_constraint": null, "strides": [1], "bias_regularizer": null}, "class_name": "Conv1D", "name": "conv1d_119", "inbound_nodes": [[["activation_58", 0, 0, {}]]]}, {"config": {"axis": 2, "name": "concatenate_30", "trainable": true}, "class_name": "Concatenate", "name": "concatenate_30", "inbound_nodes": [[["conv1d_117", 0, 0, {}], ["conv1d_118", 0, 0, {}], ["conv1d_119", 0, 0, {}]]]}, {"config": {"padding": "same", "kernel_constraint": null, "kernel_size": [1], "data_format": "channels_last", "use_bias": true, "dilation_rate": [1], "kernel_initializer": {"config": {"seed": null, "mode": "fan_in", "scale": 2.0, "distribution": "normal"}, "class_name": "VarianceScaling"}, "activity_regularizer": null, "filters": 256, "kernel_regularizer": {"config": {"l1": 0.0, "l2": 0.009999999776482582}, "class_name": "L1L2"}, "bias_initializer": {"config": {}, "class_name": "Zeros"}, "name": "conv1d_120", "trainable": true, "activation": "linear", "bias_constraint": null, "strides": [1], "bias_regularizer": null}, "class_name": "Conv1D", "name": "conv1d_120", "inbound_nodes": [[["concatenate_30", 0, 0, {}]]]}, {"config": {"name": "self__attention_30", "trainable": true}, "class_name": "Self_Attention", "name": "self__attention_30", "inbound_nodes": [[["conv1d_120", 0, 0, {}]]]}, {"config": {"gamma_constraint": null, "gamma_regularizer": null, "center": true, "scale": true, "epsilon": 0.001, "beta_constraint": null, "momentum": 0.99, "axis": -1, "gamma_initializer": {"config": {}, "class_name": "Ones"}, "name": "batch_normalization_59", "trainable": true, "beta_regularizer": null, "moving_variance_initializer": {"config": {}, "class_name": "Ones"}, "moving_mean_initializer": {"config": {}, "class_name": "Zeros"}, "beta_initializer": {"config": {}, "class_name": "Zeros"}}, "class_name": "BatchNormalization", "name": "batch_normalization_59", "inbound_nodes": [[["self__attention_30", 0, 0, {}]]]}, {"config": {"name": "activation_59", "trainable": true, "activation": "relu"}, "class_name": "Activation", "name": "activation_59", "inbound_nodes": [[["batch_normalization_59", 0, 0, {}]]]}, {"config": {"gamma_constraint": null, "gamma_regularizer": null, "center": true, "scale": true, "epsilon": 0.001, "beta_constraint": null, "momentum": 0.99, "axis": -1, "gamma_initializer": {"config": {}, "class_name": "Ones"}, "name": "batch_normalization_60", "trainable": true, "beta_regularizer": null, "moving_variance_initializer": {"config": {}, "class_name": "Ones"}, "moving_mean_initializer": {"config": {}, "class_name": "Zeros"}, "beta_initializer": {"config": {}, "class_name": "Zeros"}}, "class_name": "BatchNormalization", "name": "batch_normalization_60", "inbound_nodes": [[["activation_59", 0, 0, {}]]]}, {"config": {"name": "activation_60", "trainable": true, "activation": "relu"}, "class_name": "Activation", "name": "activation_60", "inbound_nodes": [[["batch_normalization_60", 0, 0, {}]]]}, {"config": {"trainable": true, "seed": null, "noise_shape": null, "name": "dropout_15", "rate": 0.5}, "class_name": "Dropout", "name": "dropout_15", "inbound_nodes": [[["activation_60", 0, 0, {}]]]}, {"config": {"padding": "same", "kernel_constraint": null, "kernel_size": [16], "data_format": "channels_last", "use_bias": true, "dilation_rate": [1], "kernel_initializer": {"config": {"seed": null, "mode": "fan_in", "scale": 2.0, "distribution": "normal"}, "class_name": "VarianceScaling"}, "activity_regularizer": null, "filters": 256, "kernel_regularizer": {"config": {"l1": 0.0, "l2": 0.009999999776482582}, "class_name": "L1L2"}, "bias_initializer": {"config": {}, "class_name": "Zeros"}, "name": "conv1d_121", "trainable": true, "activation": "linear", "bias_constraint": null, "strides": [1], "bias_regularizer": null}, "class_name": "Conv1D", "name": "conv1d_121", "inbound_nodes": [[["dropout_15", 0, 0, {}]]]}, {"config": {"padding": "same", "kernel_constraint": null, "kernel_size": [64], "data_format": "channels_last", "use_bias": true, "dilation_rate": [1], "kernel_initializer": {"config": {"seed": null, "mode": "fan_in", "scale": 2.0, "distribution": "normal"}, "class_name": "VarianceScaling"}, "activity_regularizer": null, "filters": 256, "kernel_regularizer": {"config": {"l1": 0.0, "l2": 0.009999999776482582}, "class_name": "L1L2"}, "bias_initializer": {"config": {}, "class_name": "Zeros"}, "name": "conv1d_122", "trainable": true, "activation": "linear", "bias_constraint": null, "strides": [1], "bias_regularizer": null}, "class_name": "Conv1D", "name": "conv1d_122", "inbound_nodes": [[["dropout_15", 0, 0, {}]]]}, {"config": {"padding": "same", "kernel_constraint": null, "kernel_size": [32], "data_format": "channels_last", "use_bias": true, "dilation_rate": [1], "kernel_initializer": {"config": {"seed": null, "mode": "fan_in", "scale": 2.0, "distribution": "normal"}, "class_name": "VarianceScaling"}, "activity_regularizer": null, "filters": 256, "kernel_regularizer": {"config": {"l1": 0.0, "l2": 0.009999999776482582}, "class_name": "L1L2"}, "bias_initializer": {"config": {}, "class_name": "Zeros"}, "name": "conv1d_123", "trainable": true, "activation": "linear", "bias_constraint": null, "strides": [1], "bias_regularizer": null}, "class_name": "Conv1D", "name": "conv1d_123", "inbound_nodes": [[["dropout_15", 0, 0, {}]]]}, {"config": {"axis": 2, "name": "concatenate_31", "trainable": true}, "class_name": "Concatenate", "name": "concatenate_31", "inbound_nodes": [[["conv1d_121", 0, 0, {}], ["conv1d_122", 0, 0, {}], ["conv1d_123", 0, 0, {}]]]}, {"config": {"padding": "same", "kernel_constraint": null, "kernel_size": [1], "data_format": "channels_last", "use_bias": true, "dilation_rate": [1], "kernel_initializer": {"config": {"seed": null, "mode": "fan_in", "scale": 2.0, "distribution": "normal"}, "class_name": "VarianceScaling"}, "activity_regularizer": null, "filters": 256, "kernel_regularizer": {"config": {"l1": 0.0, "l2": 0.009999999776482582}, "class_name": "L1L2"}, "bias_initializer": {"config": {}, "class_name": "Zeros"}, "name": "conv1d_124", "trainable": true, "activation": "linear", "bias_constraint": null, "strides": [1], "bias_regularizer": null}, "class_name": "Conv1D", "name": "conv1d_124", "inbound_nodes": [[["concatenate_31", 0, 0, {}]]]}, {"config": {"name": "self__attention_31", "trainable": true}, "class_name": "Self_Attention", "name": "self__attention_31", "inbound_nodes": [[["conv1d_124", 0, 0, {}]]]}, {"config": {"gamma_constraint": null, "gamma_regularizer": null, "center": true, "scale": true, "epsilon": 0.001, "beta_constraint": null, "momentum": 0.99, "axis": -1, "gamma_initializer": {"config": {}, "class_name": "Ones"}, "name": "batch_normalization_61", "trainable": true, "beta_regularizer": null, "moving_variance_initializer": {"config": {}, "class_name": "Ones"}, "moving_mean_initializer": {"config": {}, "class_name": "Zeros"}, "beta_initializer": {"config": {}, "class_name": "Zeros"}}, "class_name": "BatchNormalization", "name": "batch_normalization_61", "inbound_nodes": [[["self__attention_31", 0, 0, {}]]]}, {"config": {"padding": "valid", "data_format": "channels_last", "pool_size": [1], "name": "max_pooling1d_15", "trainable": true, "strides": [1]}, "class_name": "MaxPooling1D", "name": "max_pooling1d_15", "inbound_nodes": [[["add_14", 0, 0, {}]]]}, {"config": {"name": "activation_61", "trainable": true, "activation": "relu"}, "class_name": "Activation", "name": "activation_61", "inbound_nodes": [[["batch_normalization_61", 0, 0, {}]]]}, {"config": {"name": "add_15", "trainable": true}, "class_name": "Add", "name": "add_15", "inbound_nodes": [[["max_pooling1d_15", 0, 0, {}], ["activation_61", 0, 0, {}]]]}, {"config": {"gamma_constraint": null, "gamma_regularizer": null, "center": true, "scale": true, "epsilon": 0.001, "beta_constraint": null, "momentum": 0.99, "axis": -1, "gamma_initializer": {"config": {}, "class_name": "Ones"}, "name": "batch_normalization_62", "trainable": true, "beta_regularizer": null, "moving_variance_initializer": {"config": {}, "class_name": "Ones"}, "moving_mean_initializer": {"config": {}, "class_name": "Zeros"}, "beta_initializer": {"config": {}, "class_name": "Zeros"}}, "class_name": "BatchNormalization", "name": "batch_normalization_62", "inbound_nodes": [[["add_15", 0, 0, {}]]]}, {"config": {"name": "activation_62", "trainable": true, "activation": "relu"}, "class_name": "Activation", "name": "activation_62", "inbound_nodes": [[["batch_normalization_62", 0, 0, {}]]]}, {"config": {"padding": "same", "kernel_constraint": null, "kernel_size": [16], "data_format": "channels_last", "use_bias": true, "dilation_rate": [1], "kernel_initializer": {"config": {"seed": null, "mode": "fan_in", "scale": 2.0, "distribution": "normal"}, "class_name": "VarianceScaling"}, "activity_regularizer": null, "filters": 256, "kernel_regularizer": {"config": {"l1": 0.0, "l2": 0.009999999776482582}, "class_name": "L1L2"}, "bias_initializer": {"config": {}, "class_name": "Zeros"}, "name": "conv1d_125", "trainable": true, "activation": "linear", "bias_constraint": null, "strides": [2], "bias_regularizer": null}, "class_name": "Conv1D", "name": "conv1d_125", "inbound_nodes": [[["activation_62", 0, 0, {}]]]}, {"config": {"padding": "same", "kernel_constraint": null, "kernel_size": [64], "data_format": "channels_last", "use_bias": true, "dilation_rate": [1], "kernel_initializer": {"config": {"seed": null, "mode": "fan_in", "scale": 2.0, "distribution": "normal"}, "class_name": "VarianceScaling"}, "activity_regularizer": null, "filters": 256, "kernel_regularizer": {"config": {"l1": 0.0, "l2": 0.009999999776482582}, "class_name": "L1L2"}, "bias_initializer": {"config": {}, "class_name": "Zeros"}, "name": "conv1d_126", "trainable": true, "activation": "linear", "bias_constraint": null, "strides": [2], "bias_regularizer": null}, "class_name": "Conv1D", "name": "conv1d_126", "inbound_nodes": [[["activation_62", 0, 0, {}]]]}, {"config": {"padding": "same", "kernel_constraint": null, "kernel_size": [32], "data_format": "channels_last", "use_bias": true, "dilation_rate": [1], "kernel_initializer": {"config": {"seed": null, "mode": "fan_in", "scale": 2.0, "distribution": "normal"}, "class_name": "VarianceScaling"}, "activity_regularizer": null, "filters": 256, "kernel_regularizer": {"config": {"l1": 0.0, "l2": 0.009999999776482582}, "class_name": "L1L2"}, "bias_initializer": {"config": {}, "class_name": "Zeros"}, "name": "conv1d_127", "trainable": true, "activation": "linear", "bias_constraint": null, "strides": [2], "bias_regularizer": null}, "class_name": "Conv1D", "name": "conv1d_127", "inbound_nodes": [[["activation_62", 0, 0, {}]]]}, {"config": {"axis": 2, "name": "concatenate_32", "trainable": true}, "class_name": "Concatenate", "name": "concatenate_32", "inbound_nodes": [[["conv1d_125", 0, 0, {}], ["conv1d_126", 0, 0, {}], ["conv1d_127", 0, 0, {}]]]}, {"config": {"padding": "same", "kernel_constraint": null, "kernel_size": [2], "data_format": "channels_last", "use_bias": true, "dilation_rate": [1], "kernel_initializer": {"config": {"seed": null, "mode": "fan_in", "scale": 2.0, "distribution": "normal"}, "class_name": "VarianceScaling"}, "activity_regularizer": null, "filters": 256, "kernel_regularizer": {"config": {"l1": 0.0, "l2": 0.009999999776482582}, "class_name": "L1L2"}, "bias_initializer": {"config": {}, "class_name": "Zeros"}, "name": "conv1d_128", "trainable": true, "activation": "linear", "bias_constraint": null, "strides": [1], "bias_regularizer": null}, "class_name": "Conv1D", "name": "conv1d_128", "inbound_nodes": [[["concatenate_32", 0, 0, {}]]]}, {"config": {"name": "self__attention_32", "trainable": true}, "class_name": "Self_Attention", "name": "self__attention_32", "inbound_nodes": [[["conv1d_128", 0, 0, {}]]]}, {"config": {"gamma_constraint": null, "gamma_regularizer": null, "center": true, "scale": true, "epsilon": 0.001, "beta_constraint": null, "momentum": 0.99, "axis": -1, "gamma_initializer": {"config": {}, "class_name": "Ones"}, "name": "batch_normalization_63", "trainable": true, "beta_regularizer": null, "moving_variance_initializer": {"config": {}, "class_name": "Ones"}, "moving_mean_initializer": {"config": {}, "class_name": "Zeros"}, "beta_initializer": {"config": {}, "class_name": "Zeros"}}, "class_name": "BatchNormalization", "name": "batch_normalization_63", "inbound_nodes": [[["self__attention_32", 0, 0, {}]]]}, {"config": {"name": "activation_63", "trainable": true, "activation": "relu"}, "class_name": "Activation", "name": "activation_63", "inbound_nodes": [[["batch_normalization_63", 0, 0, {}]]]}, {"config": {"gamma_constraint": null, "gamma_regularizer": null, "center": true, "scale": true, "epsilon": 0.001, "beta_constraint": null, "momentum": 0.99, "axis": -1, "gamma_initializer": {"config": {}, "class_name": "Ones"}, "name": "batch_normalization_64", "trainable": true, "beta_regularizer": null, "moving_variance_initializer": {"config": {}, "class_name": "Ones"}, "moving_mean_initializer": {"config": {}, "class_name": "Zeros"}, "beta_initializer": {"config": {}, "class_name": "Zeros"}}, "class_name": "BatchNormalization", "name": "batch_normalization_64", "inbound_nodes": [[["activation_63", 0, 0, {}]]]}, {"config": {"name": "activation_64", "trainable": true, "activation": "relu"}, "class_name": "Activation", "name": "activation_64", "inbound_nodes": [[["batch_normalization_64", 0, 0, {}]]]}, {"config": {"trainable": true, "seed": null, "noise_shape": null, "name": "dropout_16", "rate": 0.5}, "class_name": "Dropout", "name": "dropout_16", "inbound_nodes": [[["activation_64", 0, 0, {}]]]}, {"config": {"padding": "same", "kernel_constraint": null, "kernel_size": [16], "data_format": "channels_last", "use_bias": true, "dilation_rate": [1], "kernel_initializer": {"config": {"seed": null, "mode": "fan_in", "scale": 2.0, "distribution": "normal"}, "class_name": "VarianceScaling"}, "activity_regularizer": null, "filters": 256, "kernel_regularizer": {"config": {"l1": 0.0, "l2": 0.009999999776482582}, "class_name": "L1L2"}, "bias_initializer": {"config": {}, "class_name": "Zeros"}, "name": "conv1d_129", "trainable": true, "activation": "linear", "bias_constraint": null, "strides": [1], "bias_regularizer": null}, "class_name": "Conv1D", "name": "conv1d_129", "inbound_nodes": [[["dropout_16", 0, 0, {}]]]}, {"config": {"padding": "same", "kernel_constraint": null, "kernel_size": [64], "data_format": "channels_last", "use_bias": true, "dilation_rate": [1], "kernel_initializer": {"config": {"seed": null, "mode": "fan_in", "scale": 2.0, "distribution": "normal"}, "class_name": "VarianceScaling"}, "activity_regularizer": null, "filters": 256, "kernel_regularizer": {"config": {"l1": 0.0, "l2": 0.009999999776482582}, "class_name": "L1L2"}, "bias_initializer": {"config": {}, "class_name": "Zeros"}, "name": "conv1d_130", "trainable": true, "activation": "linear", "bias_constraint": null, "strides": [1], "bias_regularizer": null}, "class_name": "Conv1D", "name": "conv1d_130", "inbound_nodes": [[["dropout_16", 0, 0, {}]]]}, {"config": {"padding": "same", "kernel_constraint": null, "kernel_size": [32], "data_format": "channels_last", "use_bias": true, "dilation_rate": [1], "kernel_initializer": {"config": {"seed": null, "mode": "fan_in", "scale": 2.0, "distribution": "normal"}, "class_name": "VarianceScaling"}, "activity_regularizer": null, "filters": 256, "kernel_regularizer": {"config": {"l1": 0.0, "l2": 0.009999999776482582}, "class_name": "L1L2"}, "bias_initializer": {"config": {}, "class_name": "Zeros"}, "name": "conv1d_131", "trainable": true, "activation": "linear", "bias_constraint": null, "strides": [1], "bias_regularizer": null}, "class_name": "Conv1D", "name": "conv1d_131", "inbound_nodes": [[["dropout_16", 0, 0, {}]]]}, {"config": {"axis": 2, "name": "concatenate_33", "trainable": true}, "class_name": "Concatenate", "name": "concatenate_33", "inbound_nodes": [[["conv1d_129", 0, 0, {}], ["conv1d_130", 0, 0, {}], ["conv1d_131", 0, 0, {}]]]}, {"config": {"padding": "same", "kernel_constraint": null, "kernel_size": [1], "data_format": "channels_last", "use_bias": true, "dilation_rate": [1], "kernel_initializer": {"config": {"seed": null, "mode": "fan_in", "scale": 2.0, "distribution": "normal"}, "class_name": "VarianceScaling"}, "activity_regularizer": null, "filters": 256, "kernel_regularizer": {"config": {"l1": 0.0, "l2": 0.009999999776482582}, "class_name": "L1L2"}, "bias_initializer": {"config": {}, "class_name": "Zeros"}, "name": "conv1d_132", "trainable": true, "activation": "linear", "bias_constraint": null, "strides": [1], "bias_regularizer": null}, "class_name": "Conv1D", "name": "conv1d_132", "inbound_nodes": [[["concatenate_33", 0, 0, {}]]]}, {"config": {"name": "self__attention_33", "trainable": true}, "class_name": "Self_Attention", "name": "self__attention_33", "inbound_nodes": [[["conv1d_132", 0, 0, {}]]]}, {"config": {"gamma_constraint": null, "gamma_regularizer": null, "center": true, "scale": true, "epsilon": 0.001, "beta_constraint": null, "momentum": 0.99, "axis": -1, "gamma_initializer": {"config": {}, "class_name": "Ones"}, "name": "batch_normalization_65", "trainable": true, "beta_regularizer": null, "moving_variance_initializer": {"config": {}, "class_name": "Ones"}, "moving_mean_initializer": {"config": {}, "class_name": "Zeros"}, "beta_initializer": {"config": {}, "class_name": "Zeros"}}, "class_name": "BatchNormalization", "name": "batch_normalization_65", "inbound_nodes": [[["self__attention_33", 0, 0, {}]]]}, {"config": {"padding": "valid", "data_format": "channels_last", "pool_size": [2], "name": "max_pooling1d_16", "trainable": true, "strides": [2]}, "class_name": "MaxPooling1D", "name": "max_pooling1d_16", "inbound_nodes": [[["add_15", 0, 0, {}]]]}, {"config": {"name": "activation_65", "trainable": true, "activation": "relu"}, "class_name": "Activation", "name": "activation_65", "inbound_nodes": [[["batch_normalization_65", 0, 0, {}]]]}, {"config": {"name": "add_16", "trainable": true}, "class_name": "Add", "name": "add_16", "inbound_nodes": [[["max_pooling1d_16", 0, 0, {}], ["activation_65", 0, 0, {}]]]}, {"config": {"gamma_constraint": null, "gamma_regularizer": null, "center": true, "scale": true, "epsilon": 0.001, "beta_constraint": null, "momentum": 0.99, "axis": -1, "gamma_initializer": {"config": {}, "class_name": "Ones"}, "name": "batch_normalization_66", "trainable": true, "beta_regularizer": null, "moving_variance_initializer": {"config": {}, "class_name": "Ones"}, "moving_mean_initializer": {"config": {}, "class_name": "Zeros"}, "beta_initializer": {"config": {}, "class_name": "Zeros"}}, "class_name": "BatchNormalization", "name": "batch_normalization_66", "inbound_nodes": [[["add_16", 0, 0, {}]]]}, {"config": {"name": "activation_66", "trainable": true, "activation": "relu"}, "class_name": "Activation", "name": "activation_66", "inbound_nodes": [[["batch_normalization_66", 0, 0, {}]]]}, {"config": {"data_format": "channels_last", "name": "flatten_1", "trainable": true}, "class_name": "Flatten", "name": "flatten_1", "inbound_nodes": [[["activation_66", 0, 0, {}]]]}, {"config": {"kernel_constraint": null, "units": 256, "use_bias": true, "kernel_initializer": {"config": {"seed": null, "mode": "fan_avg", "scale": 1.0, "distribution": "uniform"}, "class_name": "VarianceScaling"}, "activity_regularizer": null, "kernel_regularizer": {"config": {"l1": 0.0, "l2": 0.009999999776482582}, "class_name": "L1L2"}, "bias_initializer": {"config": {}, "class_name": "Zeros"}, "name": "dense_1", "trainable": true, "activation": "linear", "bias_constraint": null, "bias_regularizer": null}, "class_name": "Dense", "name": "dense_1", "inbound_nodes": [[["flatten_1", 0, 0, {}]]]}, {"config": {"trainable": true, "seed": null, "noise_shape": null, "name": "dropout_17", "rate": 0.5}, "class_name": "Dropout", "name": "dropout_17", "inbound_nodes": [[["dense_1", 0, 0, {}]]]}, {"config": {"kernel_constraint": null, "units": 9, "use_bias": true, "kernel_initializer": {"config": {"seed": null, "mode": "fan_avg", "scale": 1.0, "distribution": "uniform"}, "class_name": "VarianceScaling"}, "activity_regularizer": null, "kernel_regularizer": null, "bias_initializer": {"config": {}, "class_name": "Zeros"}, "name": "dense_2", "trainable": true, "activation": "linear", "bias_constraint": null, "bias_regularizer": null}, "class_name": "Dense", "name": "dense_2", "inbound_nodes": [[["dropout_17", 0, 0, {}]]]}, {"config": {"name": "activation_67", "trainable": true, "activation": "sigmoid"}, "class_name": "Activation", "name": "activation_67", "inbound_nodes": [[["dense_2", 0, 0, {}]]]}]}, "backend": "tensorflow", "class_name": "Model", "keras_version": "2.2.4"}