{"class_name": "Model", "config": {"input_layers": [["inputs", 0, 0]], "layers": [{"class_name": "InputLayer", "config": {"dtype": "float32", "batch_input_shape": [null, 4096, 12], "name": "inputs", "sparse": false}, "name": "inputs", "inbound_nodes": []}, {"class_name": "SeparableConv1D", "config": {"padding": "same", "data_format": "channels_last", "filters": 32, "bias_initializer": {"class_name": "Zeros", "config": {}}, "activity_regularizer": null, "strides": [1], "depthwise_regularizer": null, "depthwise_constraint": null, "trainable": true, "name": "separable_conv1d_1", "depthwise_initializer": {"class_name": "VarianceScaling", "config": {"scale": 1.0, "distribution": "uniform", "mode": "fan_avg", "seed": null}}, "pointwise_regularizer": null, "kernel_size": [16], "dilation_rate": [1], "bias_regularizer": null, "activation": "linear", "depth_multiplier": 1, "pointwise_initializer": {"class_name": "VarianceScaling", "config": {"scale": 1.0, "distribution": "uniform", "mode": "fan_avg", "seed": null}}, "use_bias": true, "pointwise_constraint": null, "bias_constraint": null}, "name": "separable_conv1d_1", "inbound_nodes": [[["inputs", 0, 0, {}]]]}, {"class_name": "SeparableConv1D", "config": {"padding": "same", "data_format": "channels_last", "filters": 32, "bias_initializer": {"class_name": "Zeros", "config": {}}, "activity_regularizer": null, "strides": [1], "depthwise_regularizer": null, "depthwise_constraint": null, "trainable": true, "name": "separable_conv1d_2", "depthwise_initializer": {"class_name": "VarianceScaling", "config": {"scale": 1.0, "distribution": "uniform", "mode": "fan_avg", "seed": null}}, "pointwise_regularizer": null, "kernel_size": [32], "dilation_rate": [1], "bias_regularizer": null, "activation": "linear", "depth_multiplier": 1, "pointwise_initializer": {"class_name": "VarianceScaling", "config": {"scale": 1.0, "distribution": "uniform", "mode": "fan_avg", "seed": null}}, "use_bias": true, "pointwise_constraint": null, "bias_constraint": null}, "name": "separable_conv1d_2", "inbound_nodes": [[["inputs", 0, 0, {}]]]}, {"class_name": "Concatenate", "config": {"axis": 2, "trainable": true, "name": "concatenate_1"}, "name": "concatenate_1", "inbound_nodes": [[["separable_conv1d_1", 0, 0, {}], ["separable_conv1d_2", 0, 0, {}]]]}, {"class_name": "SeparableConv1D", "config": {"padding": "same", "data_format": "channels_last", "filters": 32, "bias_initializer": {"class_name": "Zeros", "config": {}}, "activity_regularizer": null, "strides": [1], "depthwise_regularizer": null, "depthwise_constraint": null, "trainable": true, "name": "separable_conv1d_3", "depthwise_initializer": {"class_name": "VarianceScaling", "config": {"scale": 1.0, "distribution": "uniform", "mode": "fan_avg", "seed": null}}, "pointwise_regularizer": null, "kernel_size": [1], "dilation_rate": [1], "bias_regularizer": null, "activation": "linear", "depth_multiplier": 1, "pointwise_initializer": {"class_name": "VarianceScaling", "config": {"scale": 1.0, "distribution": "uniform", "mode": "fan_avg", "seed": null}}, "use_bias": true, "pointwise_constraint": null, "bias_constraint": null}, "name": "separable_conv1d_3", "inbound_nodes": [[["concatenate_1", 0, 0, {}]]]}, {"class_name": "BatchNormalization", "config": {"epsilon": 0.001, "scale": true, "center": true, "gamma_constraint": null, "beta_constraint": null, "gamma_regularizer": null, "gamma_initializer": {"class_name": "Ones", "config": {}}, "trainable": true, "name": "batch_normalization_1", "moving_mean_initializer": {"class_name": "Zeros", "config": {}}, "beta_initializer": {"class_name": "Zeros", "config": {}}, "beta_regularizer": null, "axis": -1, "momentum": 0.99, "moving_variance_initializer": {"class_name": "Ones", "config": {}}}, "name": "batch_normalization_1", "inbound_nodes": [[["separable_conv1d_3", 0, 0, {}]]]}, {"class_name": "LeakyReLU", "config": {"alpha": 0.30000001192092896, "trainable": true, "name": "leaky_re_lu_1"}, "name": "leaky_re_lu_1", "inbound_nodes": [[["batch_normalization_1", 0, 0, {}]]]}, {"class_name": "BatchNormalization", "config": {"epsilon": 0.001, "scale": true, "center": true, "gamma_constraint": null, "beta_constraint": null, "gamma_regularizer": null, "gamma_initializer": {"class_name": "Ones", "config": {}}, "trainable": true, "name": "batch_normalization_2", "moving_mean_initializer": {"class_name": "Zeros", "config": {}}, "beta_initializer": {"class_name": "Zeros", "config": {}}, "beta_regularizer": null, "axis": -1, "momentum": 0.99, "moving_variance_initializer": {"class_name": "Ones", "config": {}}}, "name": "batch_normalization_2", "inbound_nodes": [[["leaky_re_lu_1", 0, 0, {}]]]}, {"class_name": "LeakyReLU", "config": {"alpha": 0.30000001192092896, "trainable": true, "name": "leaky_re_lu_2"}, "name": "leaky_re_lu_2", "inbound_nodes": [[["batch_normalization_2", 0, 0, {}]]]}, {"class_name": "SeparableConv1D", "config": {"padding": "same", "data_format": "channels_last", "filters": 32, "bias_initializer": {"class_name": "Zeros", "config": {}}, "activity_regularizer": null, "strides": [1], "depthwise_regularizer": null, "depthwise_constraint": null, "trainable": true, "name": "separable_conv1d_4", "depthwise_initializer": {"class_name": "VarianceScaling", "config": {"scale": 1.0, "distribution": "uniform", "mode": "fan_avg", "seed": null}}, "pointwise_regularizer": null, "kernel_size": [16], "dilation_rate": [1], "bias_regularizer": null, "activation": "linear", "depth_multiplier": 1, "pointwise_initializer": {"class_name": "VarianceScaling", "config": {"scale": 1.0, "distribution": "uniform", "mode": "fan_avg", "seed": null}}, "use_bias": true, "pointwise_constraint": null, "bias_constraint": null}, "name": "separable_conv1d_4", "inbound_nodes": [[["leaky_re_lu_2", 0, 0, {}]]]}, {"class_name": "SeparableConv1D", "config": {"padding": "same", "data_format": "channels_last", "filters": 32, "bias_initializer": {"class_name": "Zeros", "config": {}}, "activity_regularizer": null, "strides": [1], "depthwise_regularizer": null, "depthwise_constraint": null, "trainable": true, "name": "separable_conv1d_5", "depthwise_initializer": {"class_name": "VarianceScaling", "config": {"scale": 1.0, "distribution": "uniform", "mode": "fan_avg", "seed": null}}, "pointwise_regularizer": null, "kernel_size": [32], "dilation_rate": [1], "bias_regularizer": null, "activation": "linear", "depth_multiplier": 1, "pointwise_initializer": {"class_name": "VarianceScaling", "config": {"scale": 1.0, "distribution": "uniform", "mode": "fan_avg", "seed": null}}, "use_bias": true, "pointwise_constraint": null, "bias_constraint": null}, "name": "separable_conv1d_5", "inbound_nodes": [[["leaky_re_lu_2", 0, 0, {}]]]}, {"class_name": "Concatenate", "config": {"axis": 2, "trainable": true, "name": "concatenate_2"}, "name": "concatenate_2", "inbound_nodes": [[["separable_conv1d_4", 0, 0, {}], ["separable_conv1d_5", 0, 0, {}]]]}, {"class_name": "SeparableConv1D", "config": {"padding": "same", "data_format": "channels_last", "filters": 32, "bias_initializer": {"class_name": "Zeros", "config": {}}, "activity_regularizer": null, "strides": [1], "depthwise_regularizer": null, "depthwise_constraint": null, "trainable": true, "name": "separable_conv1d_6", "depthwise_initializer": {"class_name": "VarianceScaling", "config": {"scale": 1.0, "distribution": "uniform", "mode": "fan_avg", "seed": null}}, "pointwise_regularizer": null, "kernel_size": [1], "dilation_rate": [1], "bias_regularizer": null, "activation": "linear", "depth_multiplier": 1, "pointwise_initializer": {"class_name": "VarianceScaling", "config": {"scale": 1.0, "distribution": "uniform", "mode": "fan_avg", "seed": null}}, "use_bias": true, "pointwise_constraint": null, "bias_constraint": null}, "name": "separable_conv1d_6", "inbound_nodes": [[["concatenate_2", 0, 0, {}]]]}, {"class_name": "BatchNormalization", "config": {"epsilon": 0.001, "scale": true, "center": true, "gamma_constraint": null, "beta_constraint": null, "gamma_regularizer": null, "gamma_initializer": {"class_name": "Ones", "config": {}}, "trainable": true, "name": "batch_normalization_3", "moving_mean_initializer": {"class_name": "Zeros", "config": {}}, "beta_initializer": {"class_name": "Zeros", "config": {}}, "beta_regularizer": null, "axis": -1, "momentum": 0.99, "moving_variance_initializer": {"class_name": "Ones", "config": {}}}, "name": "batch_normalization_3", "inbound_nodes": [[["separable_conv1d_6", 0, 0, {}]]]}, {"class_name": "LeakyReLU", "config": {"alpha": 0.30000001192092896, "trainable": true, "name": "leaky_re_lu_3"}, "name": "leaky_re_lu_3", "inbound_nodes": [[["batch_normalization_3", 0, 0, {}]]]}, {"class_name": "BatchNormalization", "config": {"epsilon": 0.001, "scale": true, "center": true, "gamma_constraint": null, "beta_constraint": null, "gamma_regularizer": null, "gamma_initializer": {"class_name": "Ones", "config": {}}, "trainable": true, "name": "batch_normalization_4", "moving_mean_initializer": {"class_name": "Zeros", "config": {}}, "beta_initializer": {"class_name": "Zeros", "config": {}}, "beta_regularizer": null, "axis": -1, "momentum": 0.99, "moving_variance_initializer": {"class_name": "Ones", "config": {}}}, "name": "batch_normalization_4", "inbound_nodes": [[["leaky_re_lu_3", 0, 0, {}]]]}, {"class_name": "LeakyReLU", "config": {"alpha": 0.30000001192092896, "trainable": true, "name": "leaky_re_lu_4"}, "name": "leaky_re_lu_4", "inbound_nodes": [[["batch_normalization_4", 0, 0, {}]]]}, {"class_name": "Dropout", "config": {"noise_shape": null, "seed": null, "trainable": true, "name": "dropout_1", "rate": 0.3}, "name": "dropout_1", "inbound_nodes": [[["leaky_re_lu_4", 0, 0, {}]]]}, {"class_name": "SeparableConv1D", "config": {"padding": "same", "data_format": "channels_last", "filters": 32, "bias_initializer": {"class_name": "Zeros", "config": {}}, "activity_regularizer": null, "strides": [1], "depthwise_regularizer": null, "depthwise_constraint": null, "trainable": true, "name": "separable_conv1d_7", "depthwise_initializer": {"class_name": "VarianceScaling", "config": {"scale": 1.0, "distribution": "uniform", "mode": "fan_avg", "seed": null}}, "pointwise_regularizer": null, "kernel_size": [16], "dilation_rate": [1], "bias_regularizer": null, "activation": "linear", "depth_multiplier": 1, "pointwise_initializer": {"class_name": "VarianceScaling", "config": {"scale": 1.0, "distribution": "uniform", "mode": "fan_avg", "seed": null}}, "use_bias": true, "pointwise_constraint": null, "bias_constraint": null}, "name": "separable_conv1d_7", "inbound_nodes": [[["dropout_1", 0, 0, {}]]]}, {"class_name": "SeparableConv1D", "config": {"padding": "same", "data_format": "channels_last", "filters": 32, "bias_initializer": {"class_name": "Zeros", "config": {}}, "activity_regularizer": null, "strides": [1], "depthwise_regularizer": null, "depthwise_constraint": null, "trainable": true, "name": "separable_conv1d_8", "depthwise_initializer": {"class_name": "VarianceScaling", "config": {"scale": 1.0, "distribution": "uniform", "mode": "fan_avg", "seed": null}}, "pointwise_regularizer": null, "kernel_size": [32], "dilation_rate": [1], "bias_regularizer": null, "activation": "linear", "depth_multiplier": 1, "pointwise_initializer": {"class_name": "VarianceScaling", "config": {"scale": 1.0, "distribution": "uniform", "mode": "fan_avg", "seed": null}}, "use_bias": true, "pointwise_constraint": null, "bias_constraint": null}, "name": "separable_conv1d_8", "inbound_nodes": [[["dropout_1", 0, 0, {}]]]}, {"class_name": "Concatenate", "config": {"axis": 2, "trainable": true, "name": "concatenate_3"}, "name": "concatenate_3", "inbound_nodes": [[["separable_conv1d_7", 0, 0, {}], ["separable_conv1d_8", 0, 0, {}]]]}, {"class_name": "SeparableConv1D", "config": {"padding": "same", "data_format": "channels_last", "filters": 32, "bias_initializer": {"class_name": "Zeros", "config": {}}, "activity_regularizer": null, "strides": [1], "depthwise_regularizer": null, "depthwise_constraint": null, "trainable": true, "name": "separable_conv1d_9", "depthwise_initializer": {"class_name": "VarianceScaling", "config": {"scale": 1.0, "distribution": "uniform", "mode": "fan_avg", "seed": null}}, "pointwise_regularizer": null, "kernel_size": [1], "dilation_rate": [1], "bias_regularizer": null, "activation": "linear", "depth_multiplier": 1, "pointwise_initializer": {"class_name": "VarianceScaling", "config": {"scale": 1.0, "distribution": "uniform", "mode": "fan_avg", "seed": null}}, "use_bias": true, "pointwise_constraint": null, "bias_constraint": null}, "name": "separable_conv1d_9", "inbound_nodes": [[["concatenate_3", 0, 0, {}]]]}, {"class_name": "BatchNormalization", "config": {"epsilon": 0.001, "scale": true, "center": true, "gamma_constraint": null, "beta_constraint": null, "gamma_regularizer": null, "gamma_initializer": {"class_name": "Ones", "config": {}}, "trainable": true, "name": "batch_normalization_5", "moving_mean_initializer": {"class_name": "Zeros", "config": {}}, "beta_initializer": {"class_name": "Zeros", "config": {}}, "beta_regularizer": null, "axis": -1, "momentum": 0.99, "moving_variance_initializer": {"class_name": "Ones", "config": {}}}, "name": "batch_normalization_5", "inbound_nodes": [[["separable_conv1d_9", 0, 0, {}]]]}, {"class_name": "MaxPooling1D", "config": {"padding": "valid", "data_format": "channels_last", "strides": [1], "pool_size": [1], "trainable": true, "name": "max_pooling1d_1"}, "name": "max_pooling1d_1", "inbound_nodes": [[["leaky_re_lu_2", 0, 0, {}]]]}, {"class_name": "LeakyReLU", "config": {"alpha": 0.30000001192092896, "trainable": true, "name": "leaky_re_lu_5"}, "name": "leaky_re_lu_5", "inbound_nodes": [[["batch_normalization_5", 0, 0, {}]]]}, {"class_name": "Add", "config": {"trainable": true, "name": "add_1"}, "name": "add_1", "inbound_nodes": [[["max_pooling1d_1", 0, 0, {}], ["leaky_re_lu_5", 0, 0, {}]]]}, {"class_name": "BatchNormalization", "config": {"epsilon": 0.001, "scale": true, "center": true, "gamma_constraint": null, "beta_constraint": null, "gamma_regularizer": null, "gamma_initializer": {"class_name": "Ones", "config": {}}, "trainable": true, "name": "batch_normalization_6", "moving_mean_initializer": {"class_name": "Zeros", "config": {}}, "beta_initializer": {"class_name": "Zeros", "config": {}}, "beta_regularizer": null, "axis": -1, "momentum": 0.99, "moving_variance_initializer": {"class_name": "Ones", "config": {}}}, "name": "batch_normalization_6", "inbound_nodes": [[["add_1", 0, 0, {}]]]}, {"class_name": "LeakyReLU", "config": {"alpha": 0.30000001192092896, "trainable": true, "name": "leaky_re_lu_6"}, "name": "leaky_re_lu_6", "inbound_nodes": [[["batch_normalization_6", 0, 0, {}]]]}, {"class_name": "SeparableConv1D", "config": {"padding": "same", "data_format": "channels_last", "filters": 32, "bias_initializer": {"class_name": "Zeros", "config": {}}, "activity_regularizer": null, "strides": [2], "depthwise_regularizer": null, "depthwise_constraint": null, "trainable": true, "name": "separable_conv1d_10", "depthwise_initializer": {"class_name": "VarianceScaling", "config": {"scale": 1.0, "distribution": "uniform", "mode": "fan_avg", "seed": null}}, "pointwise_regularizer": null, "kernel_size": [16], "dilation_rate": [1], "bias_regularizer": null, "activation": "linear", "depth_multiplier": 1, "pointwise_initializer": {"class_name": "VarianceScaling", "config": {"scale": 1.0, "distribution": "uniform", "mode": "fan_avg", "seed": null}}, "use_bias": true, "pointwise_constraint": null, "bias_constraint": null}, "name": "separable_conv1d_10", "inbound_nodes": [[["leaky_re_lu_6", 0, 0, {}]]]}, {"class_name": "SeparableConv1D", "config": {"padding": "same", "data_format": "channels_last", "filters": 32, "bias_initializer": {"class_name": "Zeros", "config": {}}, "activity_regularizer": null, "strides": [2], "depthwise_regularizer": null, "depthwise_constraint": null, "trainable": true, "name": "separable_conv1d_11", "depthwise_initializer": {"class_name": "VarianceScaling", "config": {"scale": 1.0, "distribution": "uniform", "mode": "fan_avg", "seed": null}}, "pointwise_regularizer": null, "kernel_size": [32], "dilation_rate": [1], "bias_regularizer": null, "activation": "linear", "depth_multiplier": 1, "pointwise_initializer": {"class_name": "VarianceScaling", "config": {"scale": 1.0, "distribution": "uniform", "mode": "fan_avg", "seed": null}}, "use_bias": true, "pointwise_constraint": null, "bias_constraint": null}, "name": "separable_conv1d_11", "inbound_nodes": [[["leaky_re_lu_6", 0, 0, {}]]]}, {"class_name": "Concatenate", "config": {"axis": 2, "trainable": true, "name": "concatenate_4"}, "name": "concatenate_4", "inbound_nodes": [[["separable_conv1d_10", 0, 0, {}], ["separable_conv1d_11", 0, 0, {}]]]}, {"class_name": "SeparableConv1D", "config": {"padding": "same", "data_format": "channels_last", "filters": 32, "bias_initializer": {"class_name": "Zeros", "config": {}}, "activity_regularizer": null, "strides": [1], "depthwise_regularizer": null, "depthwise_constraint": null, "trainable": true, "name": "separable_conv1d_12", "depthwise_initializer": {"class_name": "VarianceScaling", "config": {"scale": 1.0, "distribution": "uniform", "mode": "fan_avg", "seed": null}}, "pointwise_regularizer": null, "kernel_size": [2], "dilation_rate": [1], "bias_regularizer": null, "activation": "linear", "depth_multiplier": 1, "pointwise_initializer": {"class_name": "VarianceScaling", "config": {"scale": 1.0, "distribution": "uniform", "mode": "fan_avg", "seed": null}}, "use_bias": true, "pointwise_constraint": null, "bias_constraint": null}, "name": "separable_conv1d_12", "inbound_nodes": [[["concatenate_4", 0, 0, {}]]]}, {"class_name": "BatchNormalization", "config": {"epsilon": 0.001, "scale": true, "center": true, "gamma_constraint": null, "beta_constraint": null, "gamma_regularizer": null, "gamma_initializer": {"class_name": "Ones", "config": {}}, "trainable": true, "name": "batch_normalization_7", "moving_mean_initializer": {"class_name": "Zeros", "config": {}}, "beta_initializer": {"class_name": "Zeros", "config": {}}, "beta_regularizer": null, "axis": -1, "momentum": 0.99, "moving_variance_initializer": {"class_name": "Ones", "config": {}}}, "name": "batch_normalization_7", "inbound_nodes": [[["separable_conv1d_12", 0, 0, {}]]]}, {"class_name": "LeakyReLU", "config": {"alpha": 0.30000001192092896, "trainable": true, "name": "leaky_re_lu_7"}, "name": "leaky_re_lu_7", "inbound_nodes": [[["batch_normalization_7", 0, 0, {}]]]}, {"class_name": "BatchNormalization", "config": {"epsilon": 0.001, "scale": true, "center": true, "gamma_constraint": null, "beta_constraint": null, "gamma_regularizer": null, "gamma_initializer": {"class_name": "Ones", "config": {}}, "trainable": true, "name": "batch_normalization_8", "moving_mean_initializer": {"class_name": "Zeros", "config": {}}, "beta_initializer": {"class_name": "Zeros", "config": {}}, "beta_regularizer": null, "axis": -1, "momentum": 0.99, "moving_variance_initializer": {"class_name": "Ones", "config": {}}}, "name": "batch_normalization_8", "inbound_nodes": [[["leaky_re_lu_7", 0, 0, {}]]]}, {"class_name": "LeakyReLU", "config": {"alpha": 0.30000001192092896, "trainable": true, "name": "leaky_re_lu_8"}, "name": "leaky_re_lu_8", "inbound_nodes": [[["batch_normalization_8", 0, 0, {}]]]}, {"class_name": "Dropout", "config": {"noise_shape": null, "seed": null, "trainable": true, "name": "dropout_2", "rate": 0.3}, "name": "dropout_2", "inbound_nodes": [[["leaky_re_lu_8", 0, 0, {}]]]}, {"class_name": "SeparableConv1D", "config": {"padding": "same", "data_format": "channels_last", "filters": 32, "bias_initializer": {"class_name": "Zeros", "config": {}}, "activity_regularizer": null, "strides": [1], "depthwise_regularizer": null, "depthwise_constraint": null, "trainable": true, "name": "separable_conv1d_13", "depthwise_initializer": {"class_name": "VarianceScaling", "config": {"scale": 1.0, "distribution": "uniform", "mode": "fan_avg", "seed": null}}, "pointwise_regularizer": null, "kernel_size": [16], "dilation_rate": [1], "bias_regularizer": null, "activation": "linear", "depth_multiplier": 1, "pointwise_initializer": {"class_name": "VarianceScaling", "config": {"scale": 1.0, "distribution": "uniform", "mode": "fan_avg", "seed": null}}, "use_bias": true, "pointwise_constraint": null, "bias_constraint": null}, "name": "separable_conv1d_13", "inbound_nodes": [[["dropout_2", 0, 0, {}]]]}, {"class_name": "SeparableConv1D", "config": {"padding": "same", "data_format": "channels_last", "filters": 32, "bias_initializer": {"class_name": "Zeros", "config": {}}, "activity_regularizer": null, "strides": [1], "depthwise_regularizer": null, "depthwise_constraint": null, "trainable": true, "name": "separable_conv1d_14", "depthwise_initializer": {"class_name": "VarianceScaling", "config": {"scale": 1.0, "distribution": "uniform", "mode": "fan_avg", "seed": null}}, "pointwise_regularizer": null, "kernel_size": [32], "dilation_rate": [1], "bias_regularizer": null, "activation": "linear", "depth_multiplier": 1, "pointwise_initializer": {"class_name": "VarianceScaling", "config": {"scale": 1.0, "distribution": "uniform", "mode": "fan_avg", "seed": null}}, "use_bias": true, "pointwise_constraint": null, "bias_constraint": null}, "name": "separable_conv1d_14", "inbound_nodes": [[["dropout_2", 0, 0, {}]]]}, {"class_name": "Concatenate", "config": {"axis": 2, "trainable": true, "name": "concatenate_5"}, "name": "concatenate_5", "inbound_nodes": [[["separable_conv1d_13", 0, 0, {}], ["separable_conv1d_14", 0, 0, {}]]]}, {"class_name": "SeparableConv1D", "config": {"padding": "same", "data_format": "channels_last", "filters": 32, "bias_initializer": {"class_name": "Zeros", "config": {}}, "activity_regularizer": null, "strides": [1], "depthwise_regularizer": null, "depthwise_constraint": null, "trainable": true, "name": "separable_conv1d_15", "depthwise_initializer": {"class_name": "VarianceScaling", "config": {"scale": 1.0, "distribution": "uniform", "mode": "fan_avg", "seed": null}}, "pointwise_regularizer": null, "kernel_size": [1], "dilation_rate": [1], "bias_regularizer": null, "activation": "linear", "depth_multiplier": 1, "pointwise_initializer": {"class_name": "VarianceScaling", "config": {"scale": 1.0, "distribution": "uniform", "mode": "fan_avg", "seed": null}}, "use_bias": true, "pointwise_constraint": null, "bias_constraint": null}, "name": "separable_conv1d_15", "inbound_nodes": [[["concatenate_5", 0, 0, {}]]]}, {"class_name": "BatchNormalization", "config": {"epsilon": 0.001, "scale": true, "center": true, "gamma_constraint": null, "beta_constraint": null, "gamma_regularizer": null, "gamma_initializer": {"class_name": "Ones", "config": {}}, "trainable": true, "name": "batch_normalization_9", "moving_mean_initializer": {"class_name": "Zeros", "config": {}}, "beta_initializer": {"class_name": "Zeros", "config": {}}, "beta_regularizer": null, "axis": -1, "momentum": 0.99, "moving_variance_initializer": {"class_name": "Ones", "config": {}}}, "name": "batch_normalization_9", "inbound_nodes": [[["separable_conv1d_15", 0, 0, {}]]]}, {"class_name": "MaxPooling1D", "config": {"padding": "valid", "data_format": "channels_last", "strides": [2], "pool_size": [2], "trainable": true, "name": "max_pooling1d_2"}, "name": "max_pooling1d_2", "inbound_nodes": [[["add_1", 0, 0, {}]]]}, {"class_name": "LeakyReLU", "config": {"alpha": 0.30000001192092896, "trainable": true, "name": "leaky_re_lu_9"}, "name": "leaky_re_lu_9", "inbound_nodes": [[["batch_normalization_9", 0, 0, {}]]]}, {"class_name": "Add", "config": {"trainable": true, "name": "add_2"}, "name": "add_2", "inbound_nodes": [[["max_pooling1d_2", 0, 0, {}], ["leaky_re_lu_9", 0, 0, {}]]]}, {"class_name": "BatchNormalization", "config": {"epsilon": 0.001, "scale": true, "center": true, "gamma_constraint": null, "beta_constraint": null, "gamma_regularizer": null, "gamma_initializer": {"class_name": "Ones", "config": {}}, "trainable": true, "name": "batch_normalization_10", "moving_mean_initializer": {"class_name": "Zeros", "config": {}}, "beta_initializer": {"class_name": "Zeros", "config": {}}, "beta_regularizer": null, "axis": -1, "momentum": 0.99, "moving_variance_initializer": {"class_name": "Ones", "config": {}}}, "name": "batch_normalization_10", "inbound_nodes": [[["add_2", 0, 0, {}]]]}, {"class_name": "LeakyReLU", "config": {"alpha": 0.30000001192092896, "trainable": true, "name": "leaky_re_lu_10"}, "name": "leaky_re_lu_10", "inbound_nodes": [[["batch_normalization_10", 0, 0, {}]]]}, {"class_name": "SeparableConv1D", "config": {"padding": "same", "data_format": "channels_last", "filters": 32, "bias_initializer": {"class_name": "Zeros", "config": {}}, "activity_regularizer": null, "strides": [1], "depthwise_regularizer": null, "depthwise_constraint": null, "trainable": true, "name": "separable_conv1d_16", "depthwise_initializer": {"class_name": "VarianceScaling", "config": {"scale": 1.0, "distribution": "uniform", "mode": "fan_avg", "seed": null}}, "pointwise_regularizer": null, "kernel_size": [16], "dilation_rate": [1], "bias_regularizer": null, "activation": "linear", "depth_multiplier": 1, "pointwise_initializer": {"class_name": "VarianceScaling", "config": {"scale": 1.0, "distribution": "uniform", "mode": "fan_avg", "seed": null}}, "use_bias": true, "pointwise_constraint": null, "bias_constraint": null}, "name": "separable_conv1d_16", "inbound_nodes": [[["leaky_re_lu_10", 0, 0, {}]]]}, {"class_name": "SeparableConv1D", "config": {"padding": "same", "data_format": "channels_last", "filters": 32, "bias_initializer": {"class_name": "Zeros", "config": {}}, "activity_regularizer": null, "strides": [1], "depthwise_regularizer": null, "depthwise_constraint": null, "trainable": true, "name": "separable_conv1d_17", "depthwise_initializer": {"class_name": "VarianceScaling", "config": {"scale": 1.0, "distribution": "uniform", "mode": "fan_avg", "seed": null}}, "pointwise_regularizer": null, "kernel_size": [32], "dilation_rate": [1], "bias_regularizer": null, "activation": "linear", "depth_multiplier": 1, "pointwise_initializer": {"class_name": "VarianceScaling", "config": {"scale": 1.0, "distribution": "uniform", "mode": "fan_avg", "seed": null}}, "use_bias": true, "pointwise_constraint": null, "bias_constraint": null}, "name": "separable_conv1d_17", "inbound_nodes": [[["leaky_re_lu_10", 0, 0, {}]]]}, {"class_name": "Concatenate", "config": {"axis": 2, "trainable": true, "name": "concatenate_6"}, "name": "concatenate_6", "inbound_nodes": [[["separable_conv1d_16", 0, 0, {}], ["separable_conv1d_17", 0, 0, {}]]]}, {"class_name": "SeparableConv1D", "config": {"padding": "same", "data_format": "channels_last", "filters": 32, "bias_initializer": {"class_name": "Zeros", "config": {}}, "activity_regularizer": null, "strides": [1], "depthwise_regularizer": null, "depthwise_constraint": null, "trainable": true, "name": "separable_conv1d_18", "depthwise_initializer": {"class_name": "VarianceScaling", "config": {"scale": 1.0, "distribution": "uniform", "mode": "fan_avg", "seed": null}}, "pointwise_regularizer": null, "kernel_size": [1], "dilation_rate": [1], "bias_regularizer": null, "activation": "linear", "depth_multiplier": 1, "pointwise_initializer": {"class_name": "VarianceScaling", "config": {"scale": 1.0, "distribution": "uniform", "mode": "fan_avg", "seed": null}}, "use_bias": true, "pointwise_constraint": null, "bias_constraint": null}, "name": "separable_conv1d_18", "inbound_nodes": [[["concatenate_6", 0, 0, {}]]]}, {"class_name": "BatchNormalization", "config": {"epsilon": 0.001, "scale": true, "center": true, "gamma_constraint": null, "beta_constraint": null, "gamma_regularizer": null, "gamma_initializer": {"class_name": "Ones", "config": {}}, "trainable": true, "name": "batch_normalization_11", "moving_mean_initializer": {"class_name": "Zeros", "config": {}}, "beta_initializer": {"class_name": "Zeros", "config": {}}, "beta_regularizer": null, "axis": -1, "momentum": 0.99, "moving_variance_initializer": {"class_name": "Ones", "config": {}}}, "name": "batch_normalization_11", "inbound_nodes": [[["separable_conv1d_18", 0, 0, {}]]]}, {"class_name": "LeakyReLU", "config": {"alpha": 0.30000001192092896, "trainable": true, "name": "leaky_re_lu_11"}, "name": "leaky_re_lu_11", "inbound_nodes": [[["batch_normalization_11", 0, 0, {}]]]}, {"class_name": "BatchNormalization", "config": {"epsilon": 0.001, "scale": true, "center": true, "gamma_constraint": null, "beta_constraint": null, "gamma_regularizer": null, "gamma_initializer": {"class_name": "Ones", "config": {}}, "trainable": true, "name": "batch_normalization_12", "moving_mean_initializer": {"class_name": "Zeros", "config": {}}, "beta_initializer": {"class_name": "Zeros", "config": {}}, "beta_regularizer": null, "axis": -1, "momentum": 0.99, "moving_variance_initializer": {"class_name": "Ones", "config": {}}}, "name": "batch_normalization_12", "inbound_nodes": [[["leaky_re_lu_11", 0, 0, {}]]]}, {"class_name": "LeakyReLU", "config": {"alpha": 0.30000001192092896, "trainable": true, "name": "leaky_re_lu_12"}, "name": "leaky_re_lu_12", "inbound_nodes": [[["batch_normalization_12", 0, 0, {}]]]}, {"class_name": "Dropout", "config": {"noise_shape": null, "seed": null, "trainable": true, "name": "dropout_3", "rate": 0.3}, "name": "dropout_3", "inbound_nodes": [[["leaky_re_lu_12", 0, 0, {}]]]}, {"class_name": "SeparableConv1D", "config": {"padding": "same", "data_format": "channels_last", "filters": 32, "bias_initializer": {"class_name": "Zeros", "config": {}}, "activity_regularizer": null, "strides": [1], "depthwise_regularizer": null, "depthwise_constraint": null, "trainable": true, "name": "separable_conv1d_19", "depthwise_initializer": {"class_name": "VarianceScaling", "config": {"scale": 1.0, "distribution": "uniform", "mode": "fan_avg", "seed": null}}, "pointwise_regularizer": null, "kernel_size": [16], "dilation_rate": [1], "bias_regularizer": null, "activation": "linear", "depth_multiplier": 1, "pointwise_initializer": {"class_name": "VarianceScaling", "config": {"scale": 1.0, "distribution": "uniform", "mode": "fan_avg", "seed": null}}, "use_bias": true, "pointwise_constraint": null, "bias_constraint": null}, "name": "separable_conv1d_19", "inbound_nodes": [[["dropout_3", 0, 0, {}]]]}, {"class_name": "SeparableConv1D", "config": {"padding": "same", "data_format": "channels_last", "filters": 32, "bias_initializer": {"class_name": "Zeros", "config": {}}, "activity_regularizer": null, "strides": [1], "depthwise_regularizer": null, "depthwise_constraint": null, "trainable": true, "name": "separable_conv1d_20", "depthwise_initializer": {"class_name": "VarianceScaling", "config": {"scale": 1.0, "distribution": "uniform", "mode": "fan_avg", "seed": null}}, "pointwise_regularizer": null, "kernel_size": [32], "dilation_rate": [1], "bias_regularizer": null, "activation": "linear", "depth_multiplier": 1, "pointwise_initializer": {"class_name": "VarianceScaling", "config": {"scale": 1.0, "distribution": "uniform", "mode": "fan_avg", "seed": null}}, "use_bias": true, "pointwise_constraint": null, "bias_constraint": null}, "name": "separable_conv1d_20", "inbound_nodes": [[["dropout_3", 0, 0, {}]]]}, {"class_name": "Concatenate", "config": {"axis": 2, "trainable": true, "name": "concatenate_7"}, "name": "concatenate_7", "inbound_nodes": [[["separable_conv1d_19", 0, 0, {}], ["separable_conv1d_20", 0, 0, {}]]]}, {"class_name": "SeparableConv1D", "config": {"padding": "same", "data_format": "channels_last", "filters": 32, "bias_initializer": {"class_name": "Zeros", "config": {}}, "activity_regularizer": null, "strides": [1], "depthwise_regularizer": null, "depthwise_constraint": null, "trainable": true, "name": "separable_conv1d_21", "depthwise_initializer": {"class_name": "VarianceScaling", "config": {"scale": 1.0, "distribution": "uniform", "mode": "fan_avg", "seed": null}}, "pointwise_regularizer": null, "kernel_size": [1], "dilation_rate": [1], "bias_regularizer": null, "activation": "linear", "depth_multiplier": 1, "pointwise_initializer": {"class_name": "VarianceScaling", "config": {"scale": 1.0, "distribution": "uniform", "mode": "fan_avg", "seed": null}}, "use_bias": true, "pointwise_constraint": null, "bias_constraint": null}, "name": "separable_conv1d_21", "inbound_nodes": [[["concatenate_7", 0, 0, {}]]]}, {"class_name": "BatchNormalization", "config": {"epsilon": 0.001, "scale": true, "center": true, "gamma_constraint": null, "beta_constraint": null, "gamma_regularizer": null, "gamma_initializer": {"class_name": "Ones", "config": {}}, "trainable": true, "name": "batch_normalization_13", "moving_mean_initializer": {"class_name": "Zeros", "config": {}}, "beta_initializer": {"class_name": "Zeros", "config": {}}, "beta_regularizer": null, "axis": -1, "momentum": 0.99, "moving_variance_initializer": {"class_name": "Ones", "config": {}}}, "name": "batch_normalization_13", "inbound_nodes": [[["separable_conv1d_21", 0, 0, {}]]]}, {"class_name": "MaxPooling1D", "config": {"padding": "valid", "data_format": "channels_last", "strides": [1], "pool_size": [1], "trainable": true, "name": "max_pooling1d_3"}, "name": "max_pooling1d_3", "inbound_nodes": [[["add_2", 0, 0, {}]]]}, {"class_name": "LeakyReLU", "config": {"alpha": 0.30000001192092896, "trainable": true, "name": "leaky_re_lu_13"}, "name": "leaky_re_lu_13", "inbound_nodes": [[["batch_normalization_13", 0, 0, {}]]]}, {"class_name": "Add", "config": {"trainable": true, "name": "add_3"}, "name": "add_3", "inbound_nodes": [[["max_pooling1d_3", 0, 0, {}], ["leaky_re_lu_13", 0, 0, {}]]]}, {"class_name": "BatchNormalization", "config": {"epsilon": 0.001, "scale": true, "center": true, "gamma_constraint": null, "beta_constraint": null, "gamma_regularizer": null, "gamma_initializer": {"class_name": "Ones", "config": {}}, "trainable": true, "name": "batch_normalization_14", "moving_mean_initializer": {"class_name": "Zeros", "config": {}}, "beta_initializer": {"class_name": "Zeros", "config": {}}, "beta_regularizer": null, "axis": -1, "momentum": 0.99, "moving_variance_initializer": {"class_name": "Ones", "config": {}}}, "name": "batch_normalization_14", "inbound_nodes": [[["add_3", 0, 0, {}]]]}, {"class_name": "LeakyReLU", "config": {"alpha": 0.30000001192092896, "trainable": true, "name": "leaky_re_lu_14"}, "name": "leaky_re_lu_14", "inbound_nodes": [[["batch_normalization_14", 0, 0, {}]]]}, {"class_name": "SeparableConv1D", "config": {"padding": "same", "data_format": "channels_last", "filters": 32, "bias_initializer": {"class_name": "Zeros", "config": {}}, "activity_regularizer": null, "strides": [2], "depthwise_regularizer": null, "depthwise_constraint": null, "trainable": true, "name": "separable_conv1d_22", "depthwise_initializer": {"class_name": "VarianceScaling", "config": {"scale": 1.0, "distribution": "uniform", "mode": "fan_avg", "seed": null}}, "pointwise_regularizer": null, "kernel_size": [16], "dilation_rate": [1], "bias_regularizer": null, "activation": "linear", "depth_multiplier": 1, "pointwise_initializer": {"class_name": "VarianceScaling", "config": {"scale": 1.0, "distribution": "uniform", "mode": "fan_avg", "seed": null}}, "use_bias": true, "pointwise_constraint": null, "bias_constraint": null}, "name": "separable_conv1d_22", "inbound_nodes": [[["leaky_re_lu_14", 0, 0, {}]]]}, {"class_name": "SeparableConv1D", "config": {"padding": "same", "data_format": "channels_last", "filters": 32, "bias_initializer": {"class_name": "Zeros", "config": {}}, "activity_regularizer": null, "strides": [2], "depthwise_regularizer": null, "depthwise_constraint": null, "trainable": true, "name": "separable_conv1d_23", "depthwise_initializer": {"class_name": "VarianceScaling", "config": {"scale": 1.0, "distribution": "uniform", "mode": "fan_avg", "seed": null}}, "pointwise_regularizer": null, "kernel_size": [32], "dilation_rate": [1], "bias_regularizer": null, "activation": "linear", "depth_multiplier": 1, "pointwise_initializer": {"class_name": "VarianceScaling", "config": {"scale": 1.0, "distribution": "uniform", "mode": "fan_avg", "seed": null}}, "use_bias": true, "pointwise_constraint": null, "bias_constraint": null}, "name": "separable_conv1d_23", "inbound_nodes": [[["leaky_re_lu_14", 0, 0, {}]]]}, {"class_name": "Concatenate", "config": {"axis": 2, "trainable": true, "name": "concatenate_8"}, "name": "concatenate_8", "inbound_nodes": [[["separable_conv1d_22", 0, 0, {}], ["separable_conv1d_23", 0, 0, {}]]]}, {"class_name": "SeparableConv1D", "config": {"padding": "same", "data_format": "channels_last", "filters": 32, "bias_initializer": {"class_name": "Zeros", "config": {}}, "activity_regularizer": null, "strides": [1], "depthwise_regularizer": null, "depthwise_constraint": null, "trainable": true, "name": "separable_conv1d_24", "depthwise_initializer": {"class_name": "VarianceScaling", "config": {"scale": 1.0, "distribution": "uniform", "mode": "fan_avg", "seed": null}}, "pointwise_regularizer": null, "kernel_size": [2], "dilation_rate": [1], "bias_regularizer": null, "activation": "linear", "depth_multiplier": 1, "pointwise_initializer": {"class_name": "VarianceScaling", "config": {"scale": 1.0, "distribution": "uniform", "mode": "fan_avg", "seed": null}}, "use_bias": true, "pointwise_constraint": null, "bias_constraint": null}, "name": "separable_conv1d_24", "inbound_nodes": [[["concatenate_8", 0, 0, {}]]]}, {"class_name": "BatchNormalization", "config": {"epsilon": 0.001, "scale": true, "center": true, "gamma_constraint": null, "beta_constraint": null, "gamma_regularizer": null, "gamma_initializer": {"class_name": "Ones", "config": {}}, "trainable": true, "name": "batch_normalization_15", "moving_mean_initializer": {"class_name": "Zeros", "config": {}}, "beta_initializer": {"class_name": "Zeros", "config": {}}, "beta_regularizer": null, "axis": -1, "momentum": 0.99, "moving_variance_initializer": {"class_name": "Ones", "config": {}}}, "name": "batch_normalization_15", "inbound_nodes": [[["separable_conv1d_24", 0, 0, {}]]]}, {"class_name": "LeakyReLU", "config": {"alpha": 0.30000001192092896, "trainable": true, "name": "leaky_re_lu_15"}, "name": "leaky_re_lu_15", "inbound_nodes": [[["batch_normalization_15", 0, 0, {}]]]}, {"class_name": "BatchNormalization", "config": {"epsilon": 0.001, "scale": true, "center": true, "gamma_constraint": null, "beta_constraint": null, "gamma_regularizer": null, "gamma_initializer": {"class_name": "Ones", "config": {}}, "trainable": true, "name": "batch_normalization_16", "moving_mean_initializer": {"class_name": "Zeros", "config": {}}, "beta_initializer": {"class_name": "Zeros", "config": {}}, "beta_regularizer": null, "axis": -1, "momentum": 0.99, "moving_variance_initializer": {"class_name": "Ones", "config": {}}}, "name": "batch_normalization_16", "inbound_nodes": [[["leaky_re_lu_15", 0, 0, {}]]]}, {"class_name": "LeakyReLU", "config": {"alpha": 0.30000001192092896, "trainable": true, "name": "leaky_re_lu_16"}, "name": "leaky_re_lu_16", "inbound_nodes": [[["batch_normalization_16", 0, 0, {}]]]}, {"class_name": "Dropout", "config": {"noise_shape": null, "seed": null, "trainable": true, "name": "dropout_4", "rate": 0.3}, "name": "dropout_4", "inbound_nodes": [[["leaky_re_lu_16", 0, 0, {}]]]}, {"class_name": "SeparableConv1D", "config": {"padding": "same", "data_format": "channels_last", "filters": 32, "bias_initializer": {"class_name": "Zeros", "config": {}}, "activity_regularizer": null, "strides": [1], "depthwise_regularizer": null, "depthwise_constraint": null, "trainable": true, "name": "separable_conv1d_25", "depthwise_initializer": {"class_name": "VarianceScaling", "config": {"scale": 1.0, "distribution": "uniform", "mode": "fan_avg", "seed": null}}, "pointwise_regularizer": null, "kernel_size": [16], "dilation_rate": [1], "bias_regularizer": null, "activation": "linear", "depth_multiplier": 1, "pointwise_initializer": {"class_name": "VarianceScaling", "config": {"scale": 1.0, "distribution": "uniform", "mode": "fan_avg", "seed": null}}, "use_bias": true, "pointwise_constraint": null, "bias_constraint": null}, "name": "separable_conv1d_25", "inbound_nodes": [[["dropout_4", 0, 0, {}]]]}, {"class_name": "SeparableConv1D", "config": {"padding": "same", "data_format": "channels_last", "filters": 32, "bias_initializer": {"class_name": "Zeros", "config": {}}, "activity_regularizer": null, "strides": [1], "depthwise_regularizer": null, "depthwise_constraint": null, "trainable": true, "name": "separable_conv1d_26", "depthwise_initializer": {"class_name": "VarianceScaling", "config": {"scale": 1.0, "distribution": "uniform", "mode": "fan_avg", "seed": null}}, "pointwise_regularizer": null, "kernel_size": [32], "dilation_rate": [1], "bias_regularizer": null, "activation": "linear", "depth_multiplier": 1, "pointwise_initializer": {"class_name": "VarianceScaling", "config": {"scale": 1.0, "distribution": "uniform", "mode": "fan_avg", "seed": null}}, "use_bias": true, "pointwise_constraint": null, "bias_constraint": null}, "name": "separable_conv1d_26", "inbound_nodes": [[["dropout_4", 0, 0, {}]]]}, {"class_name": "Concatenate", "config": {"axis": 2, "trainable": true, "name": "concatenate_9"}, "name": "concatenate_9", "inbound_nodes": [[["separable_conv1d_25", 0, 0, {}], ["separable_conv1d_26", 0, 0, {}]]]}, {"class_name": "SeparableConv1D", "config": {"padding": "same", "data_format": "channels_last", "filters": 32, "bias_initializer": {"class_name": "Zeros", "config": {}}, "activity_regularizer": null, "strides": [1], "depthwise_regularizer": null, "depthwise_constraint": null, "trainable": true, "name": "separable_conv1d_27", "depthwise_initializer": {"class_name": "VarianceScaling", "config": {"scale": 1.0, "distribution": "uniform", "mode": "fan_avg", "seed": null}}, "pointwise_regularizer": null, "kernel_size": [1], "dilation_rate": [1], "bias_regularizer": null, "activation": "linear", "depth_multiplier": 1, "pointwise_initializer": {"class_name": "VarianceScaling", "config": {"scale": 1.0, "distribution": "uniform", "mode": "fan_avg", "seed": null}}, "use_bias": true, "pointwise_constraint": null, "bias_constraint": null}, "name": "separable_conv1d_27", "inbound_nodes": [[["concatenate_9", 0, 0, {}]]]}, {"class_name": "BatchNormalization", "config": {"epsilon": 0.001, "scale": true, "center": true, "gamma_constraint": null, "beta_constraint": null, "gamma_regularizer": null, "gamma_initializer": {"class_name": "Ones", "config": {}}, "trainable": true, "name": "batch_normalization_17", "moving_mean_initializer": {"class_name": "Zeros", "config": {}}, "beta_initializer": {"class_name": "Zeros", "config": {}}, "beta_regularizer": null, "axis": -1, "momentum": 0.99, "moving_variance_initializer": {"class_name": "Ones", "config": {}}}, "name": "batch_normalization_17", "inbound_nodes": [[["separable_conv1d_27", 0, 0, {}]]]}, {"class_name": "MaxPooling1D", "config": {"padding": "valid", "data_format": "channels_last", "strides": [2], "pool_size": [2], "trainable": true, "name": "max_pooling1d_4"}, "name": "max_pooling1d_4", "inbound_nodes": [[["add_3", 0, 0, {}]]]}, {"class_name": "LeakyReLU", "config": {"alpha": 0.30000001192092896, "trainable": true, "name": "leaky_re_lu_17"}, "name": "leaky_re_lu_17", "inbound_nodes": [[["batch_normalization_17", 0, 0, {}]]]}, {"class_name": "Add", "config": {"trainable": true, "name": "add_4"}, "name": "add_4", "inbound_nodes": [[["max_pooling1d_4", 0, 0, {}], ["leaky_re_lu_17", 0, 0, {}]]]}, {"class_name": "BatchNormalization", "config": {"epsilon": 0.001, "scale": true, "center": true, "gamma_constraint": null, "beta_constraint": null, "gamma_regularizer": null, "gamma_initializer": {"class_name": "Ones", "config": {}}, "trainable": true, "name": "batch_normalization_18", "moving_mean_initializer": {"class_name": "Zeros", "config": {}}, "beta_initializer": {"class_name": "Zeros", "config": {}}, "beta_regularizer": null, "axis": -1, "momentum": 0.99, "moving_variance_initializer": {"class_name": "Ones", "config": {}}}, "name": "batch_normalization_18", "inbound_nodes": [[["add_4", 0, 0, {}]]]}, {"class_name": "LeakyReLU", "config": {"alpha": 0.30000001192092896, "trainable": true, "name": "leaky_re_lu_18"}, "name": "leaky_re_lu_18", "inbound_nodes": [[["batch_normalization_18", 0, 0, {}]]]}, {"class_name": "SeparableConv1D", "config": {"padding": "same", "data_format": "channels_last", "filters": 64, "bias_initializer": {"class_name": "Zeros", "config": {}}, "activity_regularizer": null, "strides": [1], "depthwise_regularizer": null, "depthwise_constraint": null, "trainable": true, "name": "separable_conv1d_28", "depthwise_initializer": {"class_name": "VarianceScaling", "config": {"scale": 1.0, "distribution": "uniform", "mode": "fan_avg", "seed": null}}, "pointwise_regularizer": null, "kernel_size": [16], "dilation_rate": [1], "bias_regularizer": null, "activation": "linear", "depth_multiplier": 1, "pointwise_initializer": {"class_name": "VarianceScaling", "config": {"scale": 1.0, "distribution": "uniform", "mode": "fan_avg", "seed": null}}, "use_bias": true, "pointwise_constraint": null, "bias_constraint": null}, "name": "separable_conv1d_28", "inbound_nodes": [[["leaky_re_lu_18", 0, 0, {}]]]}, {"class_name": "SeparableConv1D", "config": {"padding": "same", "data_format": "channels_last", "filters": 64, "bias_initializer": {"class_name": "Zeros", "config": {}}, "activity_regularizer": null, "strides": [1], "depthwise_regularizer": null, "depthwise_constraint": null, "trainable": true, "name": "separable_conv1d_29", "depthwise_initializer": {"class_name": "VarianceScaling", "config": {"scale": 1.0, "distribution": "uniform", "mode": "fan_avg", "seed": null}}, "pointwise_regularizer": null, "kernel_size": [32], "dilation_rate": [1], "bias_regularizer": null, "activation": "linear", "depth_multiplier": 1, "pointwise_initializer": {"class_name": "VarianceScaling", "config": {"scale": 1.0, "distribution": "uniform", "mode": "fan_avg", "seed": null}}, "use_bias": true, "pointwise_constraint": null, "bias_constraint": null}, "name": "separable_conv1d_29", "inbound_nodes": [[["leaky_re_lu_18", 0, 0, {}]]]}, {"class_name": "Concatenate", "config": {"axis": 2, "trainable": true, "name": "concatenate_10"}, "name": "concatenate_10", "inbound_nodes": [[["separable_conv1d_28", 0, 0, {}], ["separable_conv1d_29", 0, 0, {}]]]}, {"class_name": "SeparableConv1D", "config": {"padding": "same", "data_format": "channels_last", "filters": 64, "bias_initializer": {"class_name": "Zeros", "config": {}}, "activity_regularizer": null, "strides": [1], "depthwise_regularizer": null, "depthwise_constraint": null, "trainable": true, "name": "separable_conv1d_30", "depthwise_initializer": {"class_name": "VarianceScaling", "config": {"scale": 1.0, "distribution": "uniform", "mode": "fan_avg", "seed": null}}, "pointwise_regularizer": null, "kernel_size": [1], "dilation_rate": [1], "bias_regularizer": null, "activation": "linear", "depth_multiplier": 1, "pointwise_initializer": {"class_name": "VarianceScaling", "config": {"scale": 1.0, "distribution": "uniform", "mode": "fan_avg", "seed": null}}, "use_bias": true, "pointwise_constraint": null, "bias_constraint": null}, "name": "separable_conv1d_30", "inbound_nodes": [[["concatenate_10", 0, 0, {}]]]}, {"class_name": "BatchNormalization", "config": {"epsilon": 0.001, "scale": true, "center": true, "gamma_constraint": null, "beta_constraint": null, "gamma_regularizer": null, "gamma_initializer": {"class_name": "Ones", "config": {}}, "trainable": true, "name": "batch_normalization_19", "moving_mean_initializer": {"class_name": "Zeros", "config": {}}, "beta_initializer": {"class_name": "Zeros", "config": {}}, "beta_regularizer": null, "axis": -1, "momentum": 0.99, "moving_variance_initializer": {"class_name": "Ones", "config": {}}}, "name": "batch_normalization_19", "inbound_nodes": [[["separable_conv1d_30", 0, 0, {}]]]}, {"class_name": "LeakyReLU", "config": {"alpha": 0.30000001192092896, "trainable": true, "name": "leaky_re_lu_19"}, "name": "leaky_re_lu_19", "inbound_nodes": [[["batch_normalization_19", 0, 0, {}]]]}, {"class_name": "BatchNormalization", "config": {"epsilon": 0.001, "scale": true, "center": true, "gamma_constraint": null, "beta_constraint": null, "gamma_regularizer": null, "gamma_initializer": {"class_name": "Ones", "config": {}}, "trainable": true, "name": "batch_normalization_20", "moving_mean_initializer": {"class_name": "Zeros", "config": {}}, "beta_initializer": {"class_name": "Zeros", "config": {}}, "beta_regularizer": null, "axis": -1, "momentum": 0.99, "moving_variance_initializer": {"class_name": "Ones", "config": {}}}, "name": "batch_normalization_20", "inbound_nodes": [[["leaky_re_lu_19", 0, 0, {}]]]}, {"class_name": "LeakyReLU", "config": {"alpha": 0.30000001192092896, "trainable": true, "name": "leaky_re_lu_20"}, "name": "leaky_re_lu_20", "inbound_nodes": [[["batch_normalization_20", 0, 0, {}]]]}, {"class_name": "Dropout", "config": {"noise_shape": null, "seed": null, "trainable": true, "name": "dropout_5", "rate": 0.3}, "name": "dropout_5", "inbound_nodes": [[["leaky_re_lu_20", 0, 0, {}]]]}, {"class_name": "SeparableConv1D", "config": {"padding": "same", "data_format": "channels_last", "filters": 64, "bias_initializer": {"class_name": "Zeros", "config": {}}, "activity_regularizer": null, "strides": [1], "depthwise_regularizer": null, "depthwise_constraint": null, "trainable": true, "name": "separable_conv1d_31", "depthwise_initializer": {"class_name": "VarianceScaling", "config": {"scale": 1.0, "distribution": "uniform", "mode": "fan_avg", "seed": null}}, "pointwise_regularizer": null, "kernel_size": [16], "dilation_rate": [1], "bias_regularizer": null, "activation": "linear", "depth_multiplier": 1, "pointwise_initializer": {"class_name": "VarianceScaling", "config": {"scale": 1.0, "distribution": "uniform", "mode": "fan_avg", "seed": null}}, "use_bias": true, "pointwise_constraint": null, "bias_constraint": null}, "name": "separable_conv1d_31", "inbound_nodes": [[["dropout_5", 0, 0, {}]]]}, {"class_name": "SeparableConv1D", "config": {"padding": "same", "data_format": "channels_last", "filters": 64, "bias_initializer": {"class_name": "Zeros", "config": {}}, "activity_regularizer": null, "strides": [1], "depthwise_regularizer": null, "depthwise_constraint": null, "trainable": true, "name": "separable_conv1d_32", "depthwise_initializer": {"class_name": "VarianceScaling", "config": {"scale": 1.0, "distribution": "uniform", "mode": "fan_avg", "seed": null}}, "pointwise_regularizer": null, "kernel_size": [32], "dilation_rate": [1], "bias_regularizer": null, "activation": "linear", "depth_multiplier": 1, "pointwise_initializer": {"class_name": "VarianceScaling", "config": {"scale": 1.0, "distribution": "uniform", "mode": "fan_avg", "seed": null}}, "use_bias": true, "pointwise_constraint": null, "bias_constraint": null}, "name": "separable_conv1d_32", "inbound_nodes": [[["dropout_5", 0, 0, {}]]]}, {"class_name": "Concatenate", "config": {"axis": 2, "trainable": true, "name": "concatenate_11"}, "name": "concatenate_11", "inbound_nodes": [[["separable_conv1d_31", 0, 0, {}], ["separable_conv1d_32", 0, 0, {}]]]}, {"class_name": "SeparableConv1D", "config": {"padding": "same", "data_format": "channels_last", "filters": 64, "bias_initializer": {"class_name": "Zeros", "config": {}}, "activity_regularizer": null, "strides": [1], "depthwise_regularizer": null, "depthwise_constraint": null, "trainable": true, "name": "separable_conv1d_33", "depthwise_initializer": {"class_name": "VarianceScaling", "config": {"scale": 1.0, "distribution": "uniform", "mode": "fan_avg", "seed": null}}, "pointwise_regularizer": null, "kernel_size": [1], "dilation_rate": [1], "bias_regularizer": null, "activation": "linear", "depth_multiplier": 1, "pointwise_initializer": {"class_name": "VarianceScaling", "config": {"scale": 1.0, "distribution": "uniform", "mode": "fan_avg", "seed": null}}, "use_bias": true, "pointwise_constraint": null, "bias_constraint": null}, "name": "separable_conv1d_33", "inbound_nodes": [[["concatenate_11", 0, 0, {}]]]}, {"class_name": "MaxPooling1D", "config": {"padding": "valid", "data_format": "channels_last", "strides": [1], "pool_size": [1], "trainable": true, "name": "max_pooling1d_5"}, "name": "max_pooling1d_5", "inbound_nodes": [[["add_4", 0, 0, {}]]]}, {"class_name": "BatchNormalization", "config": {"epsilon": 0.001, "scale": true, "center": true, "gamma_constraint": null, "beta_constraint": null, "gamma_regularizer": null, "gamma_initializer": {"class_name": "Ones", "config": {}}, "trainable": true, "name": "batch_normalization_21", "moving_mean_initializer": {"class_name": "Zeros", "config": {}}, "beta_initializer": {"class_name": "Zeros", "config": {}}, "beta_regularizer": null, "axis": -1, "momentum": 0.99, "moving_variance_initializer": {"class_name": "Ones", "config": {}}}, "name": "batch_normalization_21", "inbound_nodes": [[["separable_conv1d_33", 0, 0, {}]]]}, {"class_name": "Lambda", "config": {"function": ["4wEAAAAAAAAAAgAAAAQAAABTAAAAcygAAAB0AABqAQB8AACDAQB9AQB0AABqAgB8AAB8AQBnAgBk\nAQBkAgCDAQFTKQNO2gRheGlz6QIAAAApA9oBS9oKemVyb3NfbGlrZdoLY29uY2F0ZW5hdGUpAtoB\neNoBeakAcggAAAD6Ni9tZWRpYS91dXNlci9kYXRhLzk5NS1JQ1UgIHBsdXNlIGZldHVyZS9zcmMv\nbmV0d29yay5wedoHemVyb3BhZKgAAABzBAAAAAABDwE=\n", null, null], "output_shape_type": "lambda", "name": "lambda_1", "function_type": "lambda", "arguments": {}, "trainable": true, "output_shape": ["4wEAAAAAAAAAAgAAAAQAAABTAAAAczwAAAB0AAB8AACDAQB9AQB0AQB8AQCDAQBkAQBrAgBzJAB0\nAgCCAQB8AQBkAgAFGWQCADkDPHQDAHwBAIMBAFMpA07pAwAAAOkCAAAAKQTaBGxpc3TaA2xlbtoO\nQXNzZXJ0aW9uRXJyb3LaBXR1cGxlKQLaC2lucHV0X3NoYXBl2gVzaGFwZakAcgkAAAD6Ni9tZWRp\nYS91dXNlci9kYXRhLzk5NS1JQ1UgIHBsdXNlIGZldHVyZS9zcmMvbmV0d29yay5wedoUemVyb3Bh\nZF9vdXRwdXRfc2hhcGWsAAAAcwgAAAAAAQwBGAEOAQ==\n", null, null]}, "name": "lambda_1", "inbound_nodes": [[["max_pooling1d_5", 0, 0, {}]]]}, {"class_name": "LeakyReLU", "config": {"alpha": 0.30000001192092896, "trainable": true, "name": "leaky_re_lu_21"}, "name": "leaky_re_lu_21", "inbound_nodes": [[["batch_normalization_21", 0, 0, {}]]]}, {"class_name": "Add", "config": {"trainable": true, "name": "add_5"}, "name": "add_5", "inbound_nodes": [[["lambda_1", 0, 0, {}], ["leaky_re_lu_21", 0, 0, {}]]]}, {"class_name": "BatchNormalization", "config": {"epsilon": 0.001, "scale": true, "center": true, "gamma_constraint": null, "beta_constraint": null, "gamma_regularizer": null, "gamma_initializer": {"class_name": "Ones", "config": {}}, "trainable": true, "name": "batch_normalization_22", "moving_mean_initializer": {"class_name": "Zeros", "config": {}}, "beta_initializer": {"class_name": "Zeros", "config": {}}, "beta_regularizer": null, "axis": -1, "momentum": 0.99, "moving_variance_initializer": {"class_name": "Ones", "config": {}}}, "name": "batch_normalization_22", "inbound_nodes": [[["add_5", 0, 0, {}]]]}, {"class_name": "LeakyReLU", "config": {"alpha": 0.30000001192092896, "trainable": true, "name": "leaky_re_lu_22"}, "name": "leaky_re_lu_22", "inbound_nodes": [[["batch_normalization_22", 0, 0, {}]]]}, {"class_name": "SeparableConv1D", "config": {"padding": "same", "data_format": "channels_last", "filters": 64, "bias_initializer": {"class_name": "Zeros", "config": {}}, "activity_regularizer": null, "strides": [2], "depthwise_regularizer": null, "depthwise_constraint": null, "trainable": true, "name": "separable_conv1d_34", "depthwise_initializer": {"class_name": "VarianceScaling", "config": {"scale": 1.0, "distribution": "uniform", "mode": "fan_avg", "seed": null}}, "pointwise_regularizer": null, "kernel_size": [16], "dilation_rate": [1], "bias_regularizer": null, "activation": "linear", "depth_multiplier": 1, "pointwise_initializer": {"class_name": "VarianceScaling", "config": {"scale": 1.0, "distribution": "uniform", "mode": "fan_avg", "seed": null}}, "use_bias": true, "pointwise_constraint": null, "bias_constraint": null}, "name": "separable_conv1d_34", "inbound_nodes": [[["leaky_re_lu_22", 0, 0, {}]]]}, {"class_name": "SeparableConv1D", "config": {"padding": "same", "data_format": "channels_last", "filters": 64, "bias_initializer": {"class_name": "Zeros", "config": {}}, "activity_regularizer": null, "strides": [2], "depthwise_regularizer": null, "depthwise_constraint": null, "trainable": true, "name": "separable_conv1d_35", "depthwise_initializer": {"class_name": "VarianceScaling", "config": {"scale": 1.0, "distribution": "uniform", "mode": "fan_avg", "seed": null}}, "pointwise_regularizer": null, "kernel_size": [32], "dilation_rate": [1], "bias_regularizer": null, "activation": "linear", "depth_multiplier": 1, "pointwise_initializer": {"class_name": "VarianceScaling", "config": {"scale": 1.0, "distribution": "uniform", "mode": "fan_avg", "seed": null}}, "use_bias": true, "pointwise_constraint": null, "bias_constraint": null}, "name": "separable_conv1d_35", "inbound_nodes": [[["leaky_re_lu_22", 0, 0, {}]]]}, {"class_name": "Concatenate", "config": {"axis": 2, "trainable": true, "name": "concatenate_12"}, "name": "concatenate_12", "inbound_nodes": [[["separable_conv1d_34", 0, 0, {}], ["separable_conv1d_35", 0, 0, {}]]]}, {"class_name": "SeparableConv1D", "config": {"padding": "same", "data_format": "channels_last", "filters": 64, "bias_initializer": {"class_name": "Zeros", "config": {}}, "activity_regularizer": null, "strides": [1], "depthwise_regularizer": null, "depthwise_constraint": null, "trainable": true, "name": "separable_conv1d_36", "depthwise_initializer": {"class_name": "VarianceScaling", "config": {"scale": 1.0, "distribution": "uniform", "mode": "fan_avg", "seed": null}}, "pointwise_regularizer": null, "kernel_size": [2], "dilation_rate": [1], "bias_regularizer": null, "activation": "linear", "depth_multiplier": 1, "pointwise_initializer": {"class_name": "VarianceScaling", "config": {"scale": 1.0, "distribution": "uniform", "mode": "fan_avg", "seed": null}}, "use_bias": true, "pointwise_constraint": null, "bias_constraint": null}, "name": "separable_conv1d_36", "inbound_nodes": [[["concatenate_12", 0, 0, {}]]]}, {"class_name": "BatchNormalization", "config": {"epsilon": 0.001, "scale": true, "center": true, "gamma_constraint": null, "beta_constraint": null, "gamma_regularizer": null, "gamma_initializer": {"class_name": "Ones", "config": {}}, "trainable": true, "name": "batch_normalization_23", "moving_mean_initializer": {"class_name": "Zeros", "config": {}}, "beta_initializer": {"class_name": "Zeros", "config": {}}, "beta_regularizer": null, "axis": -1, "momentum": 0.99, "moving_variance_initializer": {"class_name": "Ones", "config": {}}}, "name": "batch_normalization_23", "inbound_nodes": [[["separable_conv1d_36", 0, 0, {}]]]}, {"class_name": "LeakyReLU", "config": {"alpha": 0.30000001192092896, "trainable": true, "name": "leaky_re_lu_23"}, "name": "leaky_re_lu_23", "inbound_nodes": [[["batch_normalization_23", 0, 0, {}]]]}, {"class_name": "BatchNormalization", "config": {"epsilon": 0.001, "scale": true, "center": true, "gamma_constraint": null, "beta_constraint": null, "gamma_regularizer": null, "gamma_initializer": {"class_name": "Ones", "config": {}}, "trainable": true, "name": "batch_normalization_24", "moving_mean_initializer": {"class_name": "Zeros", "config": {}}, "beta_initializer": {"class_name": "Zeros", "config": {}}, "beta_regularizer": null, "axis": -1, "momentum": 0.99, "moving_variance_initializer": {"class_name": "Ones", "config": {}}}, "name": "batch_normalization_24", "inbound_nodes": [[["leaky_re_lu_23", 0, 0, {}]]]}, {"class_name": "LeakyReLU", "config": {"alpha": 0.30000001192092896, "trainable": true, "name": "leaky_re_lu_24"}, "name": "leaky_re_lu_24", "inbound_nodes": [[["batch_normalization_24", 0, 0, {}]]]}, {"class_name": "Dropout", "config": {"noise_shape": null, "seed": null, "trainable": true, "name": "dropout_6", "rate": 0.3}, "name": "dropout_6", "inbound_nodes": [[["leaky_re_lu_24", 0, 0, {}]]]}, {"class_name": "SeparableConv1D", "config": {"padding": "same", "data_format": "channels_last", "filters": 64, "bias_initializer": {"class_name": "Zeros", "config": {}}, "activity_regularizer": null, "strides": [1], "depthwise_regularizer": null, "depthwise_constraint": null, "trainable": true, "name": "separable_conv1d_37", "depthwise_initializer": {"class_name": "VarianceScaling", "config": {"scale": 1.0, "distribution": "uniform", "mode": "fan_avg", "seed": null}}, "pointwise_regularizer": null, "kernel_size": [16], "dilation_rate": [1], "bias_regularizer": null, "activation": "linear", "depth_multiplier": 1, "pointwise_initializer": {"class_name": "VarianceScaling", "config": {"scale": 1.0, "distribution": "uniform", "mode": "fan_avg", "seed": null}}, "use_bias": true, "pointwise_constraint": null, "bias_constraint": null}, "name": "separable_conv1d_37", "inbound_nodes": [[["dropout_6", 0, 0, {}]]]}, {"class_name": "SeparableConv1D", "config": {"padding": "same", "data_format": "channels_last", "filters": 64, "bias_initializer": {"class_name": "Zeros", "config": {}}, "activity_regularizer": null, "strides": [1], "depthwise_regularizer": null, "depthwise_constraint": null, "trainable": true, "name": "separable_conv1d_38", "depthwise_initializer": {"class_name": "VarianceScaling", "config": {"scale": 1.0, "distribution": "uniform", "mode": "fan_avg", "seed": null}}, "pointwise_regularizer": null, "kernel_size": [32], "dilation_rate": [1], "bias_regularizer": null, "activation": "linear", "depth_multiplier": 1, "pointwise_initializer": {"class_name": "VarianceScaling", "config": {"scale": 1.0, "distribution": "uniform", "mode": "fan_avg", "seed": null}}, "use_bias": true, "pointwise_constraint": null, "bias_constraint": null}, "name": "separable_conv1d_38", "inbound_nodes": [[["dropout_6", 0, 0, {}]]]}, {"class_name": "Concatenate", "config": {"axis": 2, "trainable": true, "name": "concatenate_13"}, "name": "concatenate_13", "inbound_nodes": [[["separable_conv1d_37", 0, 0, {}], ["separable_conv1d_38", 0, 0, {}]]]}, {"class_name": "SeparableConv1D", "config": {"padding": "same", "data_format": "channels_last", "filters": 64, "bias_initializer": {"class_name": "Zeros", "config": {}}, "activity_regularizer": null, "strides": [1], "depthwise_regularizer": null, "depthwise_constraint": null, "trainable": true, "name": "separable_conv1d_39", "depthwise_initializer": {"class_name": "VarianceScaling", "config": {"scale": 1.0, "distribution": "uniform", "mode": "fan_avg", "seed": null}}, "pointwise_regularizer": null, "kernel_size": [1], "dilation_rate": [1], "bias_regularizer": null, "activation": "linear", "depth_multiplier": 1, "pointwise_initializer": {"class_name": "VarianceScaling", "config": {"scale": 1.0, "distribution": "uniform", "mode": "fan_avg", "seed": null}}, "use_bias": true, "pointwise_constraint": null, "bias_constraint": null}, "name": "separable_conv1d_39", "inbound_nodes": [[["concatenate_13", 0, 0, {}]]]}, {"class_name": "BatchNormalization", "config": {"epsilon": 0.001, "scale": true, "center": true, "gamma_constraint": null, "beta_constraint": null, "gamma_regularizer": null, "gamma_initializer": {"class_name": "Ones", "config": {}}, "trainable": true, "name": "batch_normalization_25", "moving_mean_initializer": {"class_name": "Zeros", "config": {}}, "beta_initializer": {"class_name": "Zeros", "config": {}}, "beta_regularizer": null, "axis": -1, "momentum": 0.99, "moving_variance_initializer": {"class_name": "Ones", "config": {}}}, "name": "batch_normalization_25", "inbound_nodes": [[["separable_conv1d_39", 0, 0, {}]]]}, {"class_name": "MaxPooling1D", "config": {"padding": "valid", "data_format": "channels_last", "strides": [2], "pool_size": [2], "trainable": true, "name": "max_pooling1d_6"}, "name": "max_pooling1d_6", "inbound_nodes": [[["add_5", 0, 0, {}]]]}, {"class_name": "LeakyReLU", "config": {"alpha": 0.30000001192092896, "trainable": true, "name": "leaky_re_lu_25"}, "name": "leaky_re_lu_25", "inbound_nodes": [[["batch_normalization_25", 0, 0, {}]]]}, {"class_name": "Add", "config": {"trainable": true, "name": "add_6"}, "name": "add_6", "inbound_nodes": [[["max_pooling1d_6", 0, 0, {}], ["leaky_re_lu_25", 0, 0, {}]]]}, {"class_name": "BatchNormalization", "config": {"epsilon": 0.001, "scale": true, "center": true, "gamma_constraint": null, "beta_constraint": null, "gamma_regularizer": null, "gamma_initializer": {"class_name": "Ones", "config": {}}, "trainable": true, "name": "batch_normalization_26", "moving_mean_initializer": {"class_name": "Zeros", "config": {}}, "beta_initializer": {"class_name": "Zeros", "config": {}}, "beta_regularizer": null, "axis": -1, "momentum": 0.99, "moving_variance_initializer": {"class_name": "Ones", "config": {}}}, "name": "batch_normalization_26", "inbound_nodes": [[["add_6", 0, 0, {}]]]}, {"class_name": "LeakyReLU", "config": {"alpha": 0.30000001192092896, "trainable": true, "name": "leaky_re_lu_26"}, "name": "leaky_re_lu_26", "inbound_nodes": [[["batch_normalization_26", 0, 0, {}]]]}, {"class_name": "SeparableConv1D", "config": {"padding": "same", "data_format": "channels_last", "filters": 64, "bias_initializer": {"class_name": "Zeros", "config": {}}, "activity_regularizer": null, "strides": [1], "depthwise_regularizer": null, "depthwise_constraint": null, "trainable": true, "name": "separable_conv1d_40", "depthwise_initializer": {"class_name": "VarianceScaling", "config": {"scale": 1.0, "distribution": "uniform", "mode": "fan_avg", "seed": null}}, "pointwise_regularizer": null, "kernel_size": [16], "dilation_rate": [1], "bias_regularizer": null, "activation": "linear", "depth_multiplier": 1, "pointwise_initializer": {"class_name": "VarianceScaling", "config": {"scale": 1.0, "distribution": "uniform", "mode": "fan_avg", "seed": null}}, "use_bias": true, "pointwise_constraint": null, "bias_constraint": null}, "name": "separable_conv1d_40", "inbound_nodes": [[["leaky_re_lu_26", 0, 0, {}]]]}, {"class_name": "SeparableConv1D", "config": {"padding": "same", "data_format": "channels_last", "filters": 64, "bias_initializer": {"class_name": "Zeros", "config": {}}, "activity_regularizer": null, "strides": [1], "depthwise_regularizer": null, "depthwise_constraint": null, "trainable": true, "name": "separable_conv1d_41", "depthwise_initializer": {"class_name": "VarianceScaling", "config": {"scale": 1.0, "distribution": "uniform", "mode": "fan_avg", "seed": null}}, "pointwise_regularizer": null, "kernel_size": [32], "dilation_rate": [1], "bias_regularizer": null, "activation": "linear", "depth_multiplier": 1, "pointwise_initializer": {"class_name": "VarianceScaling", "config": {"scale": 1.0, "distribution": "uniform", "mode": "fan_avg", "seed": null}}, "use_bias": true, "pointwise_constraint": null, "bias_constraint": null}, "name": "separable_conv1d_41", "inbound_nodes": [[["leaky_re_lu_26", 0, 0, {}]]]}, {"class_name": "Concatenate", "config": {"axis": 2, "trainable": true, "name": "concatenate_14"}, "name": "concatenate_14", "inbound_nodes": [[["separable_conv1d_40", 0, 0, {}], ["separable_conv1d_41", 0, 0, {}]]]}, {"class_name": "SeparableConv1D", "config": {"padding": "same", "data_format": "channels_last", "filters": 64, "bias_initializer": {"class_name": "Zeros", "config": {}}, "activity_regularizer": null, "strides": [1], "depthwise_regularizer": null, "depthwise_constraint": null, "trainable": true, "name": "separable_conv1d_42", "depthwise_initializer": {"class_name": "VarianceScaling", "config": {"scale": 1.0, "distribution": "uniform", "mode": "fan_avg", "seed": null}}, "pointwise_regularizer": null, "kernel_size": [1], "dilation_rate": [1], "bias_regularizer": null, "activation": "linear", "depth_multiplier": 1, "pointwise_initializer": {"class_name": "VarianceScaling", "config": {"scale": 1.0, "distribution": "uniform", "mode": "fan_avg", "seed": null}}, "use_bias": true, "pointwise_constraint": null, "bias_constraint": null}, "name": "separable_conv1d_42", "inbound_nodes": [[["concatenate_14", 0, 0, {}]]]}, {"class_name": "BatchNormalization", "config": {"epsilon": 0.001, "scale": true, "center": true, "gamma_constraint": null, "beta_constraint": null, "gamma_regularizer": null, "gamma_initializer": {"class_name": "Ones", "config": {}}, "trainable": true, "name": "batch_normalization_27", "moving_mean_initializer": {"class_name": "Zeros", "config": {}}, "beta_initializer": {"class_name": "Zeros", "config": {}}, "beta_regularizer": null, "axis": -1, "momentum": 0.99, "moving_variance_initializer": {"class_name": "Ones", "config": {}}}, "name": "batch_normalization_27", "inbound_nodes": [[["separable_conv1d_42", 0, 0, {}]]]}, {"class_name": "LeakyReLU", "config": {"alpha": 0.30000001192092896, "trainable": true, "name": "leaky_re_lu_27"}, "name": "leaky_re_lu_27", "inbound_nodes": [[["batch_normalization_27", 0, 0, {}]]]}, {"class_name": "BatchNormalization", "config": {"epsilon": 0.001, "scale": true, "center": true, "gamma_constraint": null, "beta_constraint": null, "gamma_regularizer": null, "gamma_initializer": {"class_name": "Ones", "config": {}}, "trainable": true, "name": "batch_normalization_28", "moving_mean_initializer": {"class_name": "Zeros", "config": {}}, "beta_initializer": {"class_name": "Zeros", "config": {}}, "beta_regularizer": null, "axis": -1, "momentum": 0.99, "moving_variance_initializer": {"class_name": "Ones", "config": {}}}, "name": "batch_normalization_28", "inbound_nodes": [[["leaky_re_lu_27", 0, 0, {}]]]}, {"class_name": "LeakyReLU", "config": {"alpha": 0.30000001192092896, "trainable": true, "name": "leaky_re_lu_28"}, "name": "leaky_re_lu_28", "inbound_nodes": [[["batch_normalization_28", 0, 0, {}]]]}, {"class_name": "Dropout", "config": {"noise_shape": null, "seed": null, "trainable": true, "name": "dropout_7", "rate": 0.3}, "name": "dropout_7", "inbound_nodes": [[["leaky_re_lu_28", 0, 0, {}]]]}, {"class_name": "SeparableConv1D", "config": {"padding": "same", "data_format": "channels_last", "filters": 64, "bias_initializer": {"class_name": "Zeros", "config": {}}, "activity_regularizer": null, "strides": [1], "depthwise_regularizer": null, "depthwise_constraint": null, "trainable": true, "name": "separable_conv1d_43", "depthwise_initializer": {"class_name": "VarianceScaling", "config": {"scale": 1.0, "distribution": "uniform", "mode": "fan_avg", "seed": null}}, "pointwise_regularizer": null, "kernel_size": [16], "dilation_rate": [1], "bias_regularizer": null, "activation": "linear", "depth_multiplier": 1, "pointwise_initializer": {"class_name": "VarianceScaling", "config": {"scale": 1.0, "distribution": "uniform", "mode": "fan_avg", "seed": null}}, "use_bias": true, "pointwise_constraint": null, "bias_constraint": null}, "name": "separable_conv1d_43", "inbound_nodes": [[["dropout_7", 0, 0, {}]]]}, {"class_name": "SeparableConv1D", "config": {"padding": "same", "data_format": "channels_last", "filters": 64, "bias_initializer": {"class_name": "Zeros", "config": {}}, "activity_regularizer": null, "strides": [1], "depthwise_regularizer": null, "depthwise_constraint": null, "trainable": true, "name": "separable_conv1d_44", "depthwise_initializer": {"class_name": "VarianceScaling", "config": {"scale": 1.0, "distribution": "uniform", "mode": "fan_avg", "seed": null}}, "pointwise_regularizer": null, "kernel_size": [32], "dilation_rate": [1], "bias_regularizer": null, "activation": "linear", "depth_multiplier": 1, "pointwise_initializer": {"class_name": "VarianceScaling", "config": {"scale": 1.0, "distribution": "uniform", "mode": "fan_avg", "seed": null}}, "use_bias": true, "pointwise_constraint": null, "bias_constraint": null}, "name": "separable_conv1d_44", "inbound_nodes": [[["dropout_7", 0, 0, {}]]]}, {"class_name": "Concatenate", "config": {"axis": 2, "trainable": true, "name": "concatenate_15"}, "name": "concatenate_15", "inbound_nodes": [[["separable_conv1d_43", 0, 0, {}], ["separable_conv1d_44", 0, 0, {}]]]}, {"class_name": "SeparableConv1D", "config": {"padding": "same", "data_format": "channels_last", "filters": 64, "bias_initializer": {"class_name": "Zeros", "config": {}}, "activity_regularizer": null, "strides": [1], "depthwise_regularizer": null, "depthwise_constraint": null, "trainable": true, "name": "separable_conv1d_45", "depthwise_initializer": {"class_name": "VarianceScaling", "config": {"scale": 1.0, "distribution": "uniform", "mode": "fan_avg", "seed": null}}, "pointwise_regularizer": null, "kernel_size": [1], "dilation_rate": [1], "bias_regularizer": null, "activation": "linear", "depth_multiplier": 1, "pointwise_initializer": {"class_name": "VarianceScaling", "config": {"scale": 1.0, "distribution": "uniform", "mode": "fan_avg", "seed": null}}, "use_bias": true, "pointwise_constraint": null, "bias_constraint": null}, "name": "separable_conv1d_45", "inbound_nodes": [[["concatenate_15", 0, 0, {}]]]}, {"class_name": "BatchNormalization", "config": {"epsilon": 0.001, "scale": true, "center": true, "gamma_constraint": null, "beta_constraint": null, "gamma_regularizer": null, "gamma_initializer": {"class_name": "Ones", "config": {}}, "trainable": true, "name": "batch_normalization_29", "moving_mean_initializer": {"class_name": "Zeros", "config": {}}, "beta_initializer": {"class_name": "Zeros", "config": {}}, "beta_regularizer": null, "axis": -1, "momentum": 0.99, "moving_variance_initializer": {"class_name": "Ones", "config": {}}}, "name": "batch_normalization_29", "inbound_nodes": [[["separable_conv1d_45", 0, 0, {}]]]}, {"class_name": "MaxPooling1D", "config": {"padding": "valid", "data_format": "channels_last", "strides": [1], "pool_size": [1], "trainable": true, "name": "max_pooling1d_7"}, "name": "max_pooling1d_7", "inbound_nodes": [[["add_6", 0, 0, {}]]]}, {"class_name": "LeakyReLU", "config": {"alpha": 0.30000001192092896, "trainable": true, "name": "leaky_re_lu_29"}, "name": "leaky_re_lu_29", "inbound_nodes": [[["batch_normalization_29", 0, 0, {}]]]}, {"class_name": "Add", "config": {"trainable": true, "name": "add_7"}, "name": "add_7", "inbound_nodes": [[["max_pooling1d_7", 0, 0, {}], ["leaky_re_lu_29", 0, 0, {}]]]}, {"class_name": "BatchNormalization", "config": {"epsilon": 0.001, "scale": true, "center": true, "gamma_constraint": null, "beta_constraint": null, "gamma_regularizer": null, "gamma_initializer": {"class_name": "Ones", "config": {}}, "trainable": true, "name": "batch_normalization_30", "moving_mean_initializer": {"class_name": "Zeros", "config": {}}, "beta_initializer": {"class_name": "Zeros", "config": {}}, "beta_regularizer": null, "axis": -1, "momentum": 0.99, "moving_variance_initializer": {"class_name": "Ones", "config": {}}}, "name": "batch_normalization_30", "inbound_nodes": [[["add_7", 0, 0, {}]]]}, {"class_name": "LeakyReLU", "config": {"alpha": 0.30000001192092896, "trainable": true, "name": "leaky_re_lu_30"}, "name": "leaky_re_lu_30", "inbound_nodes": [[["batch_normalization_30", 0, 0, {}]]]}, {"class_name": "SeparableConv1D", "config": {"padding": "same", "data_format": "channels_last", "filters": 64, "bias_initializer": {"class_name": "Zeros", "config": {}}, "activity_regularizer": null, "strides": [2], "depthwise_regularizer": null, "depthwise_constraint": null, "trainable": true, "name": "separable_conv1d_46", "depthwise_initializer": {"class_name": "VarianceScaling", "config": {"scale": 1.0, "distribution": "uniform", "mode": "fan_avg", "seed": null}}, "pointwise_regularizer": null, "kernel_size": [16], "dilation_rate": [1], "bias_regularizer": null, "activation": "linear", "depth_multiplier": 1, "pointwise_initializer": {"class_name": "VarianceScaling", "config": {"scale": 1.0, "distribution": "uniform", "mode": "fan_avg", "seed": null}}, "use_bias": true, "pointwise_constraint": null, "bias_constraint": null}, "name": "separable_conv1d_46", "inbound_nodes": [[["leaky_re_lu_30", 0, 0, {}]]]}, {"class_name": "SeparableConv1D", "config": {"padding": "same", "data_format": "channels_last", "filters": 64, "bias_initializer": {"class_name": "Zeros", "config": {}}, "activity_regularizer": null, "strides": [2], "depthwise_regularizer": null, "depthwise_constraint": null, "trainable": true, "name": "separable_conv1d_47", "depthwise_initializer": {"class_name": "VarianceScaling", "config": {"scale": 1.0, "distribution": "uniform", "mode": "fan_avg", "seed": null}}, "pointwise_regularizer": null, "kernel_size": [32], "dilation_rate": [1], "bias_regularizer": null, "activation": "linear", "depth_multiplier": 1, "pointwise_initializer": {"class_name": "VarianceScaling", "config": {"scale": 1.0, "distribution": "uniform", "mode": "fan_avg", "seed": null}}, "use_bias": true, "pointwise_constraint": null, "bias_constraint": null}, "name": "separable_conv1d_47", "inbound_nodes": [[["leaky_re_lu_30", 0, 0, {}]]]}, {"class_name": "Concatenate", "config": {"axis": 2, "trainable": true, "name": "concatenate_16"}, "name": "concatenate_16", "inbound_nodes": [[["separable_conv1d_46", 0, 0, {}], ["separable_conv1d_47", 0, 0, {}]]]}, {"class_name": "SeparableConv1D", "config": {"padding": "same", "data_format": "channels_last", "filters": 64, "bias_initializer": {"class_name": "Zeros", "config": {}}, "activity_regularizer": null, "strides": [1], "depthwise_regularizer": null, "depthwise_constraint": null, "trainable": true, "name": "separable_conv1d_48", "depthwise_initializer": {"class_name": "VarianceScaling", "config": {"scale": 1.0, "distribution": "uniform", "mode": "fan_avg", "seed": null}}, "pointwise_regularizer": null, "kernel_size": [2], "dilation_rate": [1], "bias_regularizer": null, "activation": "linear", "depth_multiplier": 1, "pointwise_initializer": {"class_name": "VarianceScaling", "config": {"scale": 1.0, "distribution": "uniform", "mode": "fan_avg", "seed": null}}, "use_bias": true, "pointwise_constraint": null, "bias_constraint": null}, "name": "separable_conv1d_48", "inbound_nodes": [[["concatenate_16", 0, 0, {}]]]}, {"class_name": "BatchNormalization", "config": {"epsilon": 0.001, "scale": true, "center": true, "gamma_constraint": null, "beta_constraint": null, "gamma_regularizer": null, "gamma_initializer": {"class_name": "Ones", "config": {}}, "trainable": true, "name": "batch_normalization_31", "moving_mean_initializer": {"class_name": "Zeros", "config": {}}, "beta_initializer": {"class_name": "Zeros", "config": {}}, "beta_regularizer": null, "axis": -1, "momentum": 0.99, "moving_variance_initializer": {"class_name": "Ones", "config": {}}}, "name": "batch_normalization_31", "inbound_nodes": [[["separable_conv1d_48", 0, 0, {}]]]}, {"class_name": "LeakyReLU", "config": {"alpha": 0.30000001192092896, "trainable": true, "name": "leaky_re_lu_31"}, "name": "leaky_re_lu_31", "inbound_nodes": [[["batch_normalization_31", 0, 0, {}]]]}, {"class_name": "BatchNormalization", "config": {"epsilon": 0.001, "scale": true, "center": true, "gamma_constraint": null, "beta_constraint": null, "gamma_regularizer": null, "gamma_initializer": {"class_name": "Ones", "config": {}}, "trainable": true, "name": "batch_normalization_32", "moving_mean_initializer": {"class_name": "Zeros", "config": {}}, "beta_initializer": {"class_name": "Zeros", "config": {}}, "beta_regularizer": null, "axis": -1, "momentum": 0.99, "moving_variance_initializer": {"class_name": "Ones", "config": {}}}, "name": "batch_normalization_32", "inbound_nodes": [[["leaky_re_lu_31", 0, 0, {}]]]}, {"class_name": "LeakyReLU", "config": {"alpha": 0.30000001192092896, "trainable": true, "name": "leaky_re_lu_32"}, "name": "leaky_re_lu_32", "inbound_nodes": [[["batch_normalization_32", 0, 0, {}]]]}, {"class_name": "Dropout", "config": {"noise_shape": null, "seed": null, "trainable": true, "name": "dropout_8", "rate": 0.3}, "name": "dropout_8", "inbound_nodes": [[["leaky_re_lu_32", 0, 0, {}]]]}, {"class_name": "SeparableConv1D", "config": {"padding": "same", "data_format": "channels_last", "filters": 64, "bias_initializer": {"class_name": "Zeros", "config": {}}, "activity_regularizer": null, "strides": [1], "depthwise_regularizer": null, "depthwise_constraint": null, "trainable": true, "name": "separable_conv1d_49", "depthwise_initializer": {"class_name": "VarianceScaling", "config": {"scale": 1.0, "distribution": "uniform", "mode": "fan_avg", "seed": null}}, "pointwise_regularizer": null, "kernel_size": [16], "dilation_rate": [1], "bias_regularizer": null, "activation": "linear", "depth_multiplier": 1, "pointwise_initializer": {"class_name": "VarianceScaling", "config": {"scale": 1.0, "distribution": "uniform", "mode": "fan_avg", "seed": null}}, "use_bias": true, "pointwise_constraint": null, "bias_constraint": null}, "name": "separable_conv1d_49", "inbound_nodes": [[["dropout_8", 0, 0, {}]]]}, {"class_name": "SeparableConv1D", "config": {"padding": "same", "data_format": "channels_last", "filters": 64, "bias_initializer": {"class_name": "Zeros", "config": {}}, "activity_regularizer": null, "strides": [1], "depthwise_regularizer": null, "depthwise_constraint": null, "trainable": true, "name": "separable_conv1d_50", "depthwise_initializer": {"class_name": "VarianceScaling", "config": {"scale": 1.0, "distribution": "uniform", "mode": "fan_avg", "seed": null}}, "pointwise_regularizer": null, "kernel_size": [32], "dilation_rate": [1], "bias_regularizer": null, "activation": "linear", "depth_multiplier": 1, "pointwise_initializer": {"class_name": "VarianceScaling", "config": {"scale": 1.0, "distribution": "uniform", "mode": "fan_avg", "seed": null}}, "use_bias": true, "pointwise_constraint": null, "bias_constraint": null}, "name": "separable_conv1d_50", "inbound_nodes": [[["dropout_8", 0, 0, {}]]]}, {"class_name": "Concatenate", "config": {"axis": 2, "trainable": true, "name": "concatenate_17"}, "name": "concatenate_17", "inbound_nodes": [[["separable_conv1d_49", 0, 0, {}], ["separable_conv1d_50", 0, 0, {}]]]}, {"class_name": "SeparableConv1D", "config": {"padding": "same", "data_format": "channels_last", "filters": 64, "bias_initializer": {"class_name": "Zeros", "config": {}}, "activity_regularizer": null, "strides": [1], "depthwise_regularizer": null, "depthwise_constraint": null, "trainable": true, "name": "separable_conv1d_51", "depthwise_initializer": {"class_name": "VarianceScaling", "config": {"scale": 1.0, "distribution": "uniform", "mode": "fan_avg", "seed": null}}, "pointwise_regularizer": null, "kernel_size": [1], "dilation_rate": [1], "bias_regularizer": null, "activation": "linear", "depth_multiplier": 1, "pointwise_initializer": {"class_name": "VarianceScaling", "config": {"scale": 1.0, "distribution": "uniform", "mode": "fan_avg", "seed": null}}, "use_bias": true, "pointwise_constraint": null, "bias_constraint": null}, "name": "separable_conv1d_51", "inbound_nodes": [[["concatenate_17", 0, 0, {}]]]}, {"class_name": "BatchNormalization", "config": {"epsilon": 0.001, "scale": true, "center": true, "gamma_constraint": null, "beta_constraint": null, "gamma_regularizer": null, "gamma_initializer": {"class_name": "Ones", "config": {}}, "trainable": true, "name": "batch_normalization_33", "moving_mean_initializer": {"class_name": "Zeros", "config": {}}, "beta_initializer": {"class_name": "Zeros", "config": {}}, "beta_regularizer": null, "axis": -1, "momentum": 0.99, "moving_variance_initializer": {"class_name": "Ones", "config": {}}}, "name": "batch_normalization_33", "inbound_nodes": [[["separable_conv1d_51", 0, 0, {}]]]}, {"class_name": "MaxPooling1D", "config": {"padding": "valid", "data_format": "channels_last", "strides": [2], "pool_size": [2], "trainable": true, "name": "max_pooling1d_8"}, "name": "max_pooling1d_8", "inbound_nodes": [[["add_7", 0, 0, {}]]]}, {"class_name": "LeakyReLU", "config": {"alpha": 0.30000001192092896, "trainable": true, "name": "leaky_re_lu_33"}, "name": "leaky_re_lu_33", "inbound_nodes": [[["batch_normalization_33", 0, 0, {}]]]}, {"class_name": "Add", "config": {"trainable": true, "name": "add_8"}, "name": "add_8", "inbound_nodes": [[["max_pooling1d_8", 0, 0, {}], ["leaky_re_lu_33", 0, 0, {}]]]}, {"class_name": "BatchNormalization", "config": {"epsilon": 0.001, "scale": true, "center": true, "gamma_constraint": null, "beta_constraint": null, "gamma_regularizer": null, "gamma_initializer": {"class_name": "Ones", "config": {}}, "trainable": true, "name": "batch_normalization_34", "moving_mean_initializer": {"class_name": "Zeros", "config": {}}, "beta_initializer": {"class_name": "Zeros", "config": {}}, "beta_regularizer": null, "axis": -1, "momentum": 0.99, "moving_variance_initializer": {"class_name": "Ones", "config": {}}}, "name": "batch_normalization_34", "inbound_nodes": [[["add_8", 0, 0, {}]]]}, {"class_name": "LeakyReLU", "config": {"alpha": 0.30000001192092896, "trainable": true, "name": "leaky_re_lu_34"}, "name": "leaky_re_lu_34", "inbound_nodes": [[["batch_normalization_34", 0, 0, {}]]]}, {"class_name": "SeparableConv1D", "config": {"padding": "same", "data_format": "channels_last", "filters": 128, "bias_initializer": {"class_name": "Zeros", "config": {}}, "activity_regularizer": null, "strides": [1], "depthwise_regularizer": null, "depthwise_constraint": null, "trainable": true, "name": "separable_conv1d_52", "depthwise_initializer": {"class_name": "VarianceScaling", "config": {"scale": 1.0, "distribution": "uniform", "mode": "fan_avg", "seed": null}}, "pointwise_regularizer": null, "kernel_size": [16], "dilation_rate": [1], "bias_regularizer": null, "activation": "linear", "depth_multiplier": 1, "pointwise_initializer": {"class_name": "VarianceScaling", "config": {"scale": 1.0, "distribution": "uniform", "mode": "fan_avg", "seed": null}}, "use_bias": true, "pointwise_constraint": null, "bias_constraint": null}, "name": "separable_conv1d_52", "inbound_nodes": [[["leaky_re_lu_34", 0, 0, {}]]]}, {"class_name": "SeparableConv1D", "config": {"padding": "same", "data_format": "channels_last", "filters": 128, "bias_initializer": {"class_name": "Zeros", "config": {}}, "activity_regularizer": null, "strides": [1], "depthwise_regularizer": null, "depthwise_constraint": null, "trainable": true, "name": "separable_conv1d_53", "depthwise_initializer": {"class_name": "VarianceScaling", "config": {"scale": 1.0, "distribution": "uniform", "mode": "fan_avg", "seed": null}}, "pointwise_regularizer": null, "kernel_size": [32], "dilation_rate": [1], "bias_regularizer": null, "activation": "linear", "depth_multiplier": 1, "pointwise_initializer": {"class_name": "VarianceScaling", "config": {"scale": 1.0, "distribution": "uniform", "mode": "fan_avg", "seed": null}}, "use_bias": true, "pointwise_constraint": null, "bias_constraint": null}, "name": "separable_conv1d_53", "inbound_nodes": [[["leaky_re_lu_34", 0, 0, {}]]]}, {"class_name": "Concatenate", "config": {"axis": 2, "trainable": true, "name": "concatenate_18"}, "name": "concatenate_18", "inbound_nodes": [[["separable_conv1d_52", 0, 0, {}], ["separable_conv1d_53", 0, 0, {}]]]}, {"class_name": "SeparableConv1D", "config": {"padding": "same", "data_format": "channels_last", "filters": 128, "bias_initializer": {"class_name": "Zeros", "config": {}}, "activity_regularizer": null, "strides": [1], "depthwise_regularizer": null, "depthwise_constraint": null, "trainable": true, "name": "separable_conv1d_54", "depthwise_initializer": {"class_name": "VarianceScaling", "config": {"scale": 1.0, "distribution": "uniform", "mode": "fan_avg", "seed": null}}, "pointwise_regularizer": null, "kernel_size": [1], "dilation_rate": [1], "bias_regularizer": null, "activation": "linear", "depth_multiplier": 1, "pointwise_initializer": {"class_name": "VarianceScaling", "config": {"scale": 1.0, "distribution": "uniform", "mode": "fan_avg", "seed": null}}, "use_bias": true, "pointwise_constraint": null, "bias_constraint": null}, "name": "separable_conv1d_54", "inbound_nodes": [[["concatenate_18", 0, 0, {}]]]}, {"class_name": "BatchNormalization", "config": {"epsilon": 0.001, "scale": true, "center": true, "gamma_constraint": null, "beta_constraint": null, "gamma_regularizer": null, "gamma_initializer": {"class_name": "Ones", "config": {}}, "trainable": true, "name": "batch_normalization_35", "moving_mean_initializer": {"class_name": "Zeros", "config": {}}, "beta_initializer": {"class_name": "Zeros", "config": {}}, "beta_regularizer": null, "axis": -1, "momentum": 0.99, "moving_variance_initializer": {"class_name": "Ones", "config": {}}}, "name": "batch_normalization_35", "inbound_nodes": [[["separable_conv1d_54", 0, 0, {}]]]}, {"class_name": "LeakyReLU", "config": {"alpha": 0.30000001192092896, "trainable": true, "name": "leaky_re_lu_35"}, "name": "leaky_re_lu_35", "inbound_nodes": [[["batch_normalization_35", 0, 0, {}]]]}, {"class_name": "BatchNormalization", "config": {"epsilon": 0.001, "scale": true, "center": true, "gamma_constraint": null, "beta_constraint": null, "gamma_regularizer": null, "gamma_initializer": {"class_name": "Ones", "config": {}}, "trainable": true, "name": "batch_normalization_36", "moving_mean_initializer": {"class_name": "Zeros", "config": {}}, "beta_initializer": {"class_name": "Zeros", "config": {}}, "beta_regularizer": null, "axis": -1, "momentum": 0.99, "moving_variance_initializer": {"class_name": "Ones", "config": {}}}, "name": "batch_normalization_36", "inbound_nodes": [[["leaky_re_lu_35", 0, 0, {}]]]}, {"class_name": "LeakyReLU", "config": {"alpha": 0.30000001192092896, "trainable": true, "name": "leaky_re_lu_36"}, "name": "leaky_re_lu_36", "inbound_nodes": [[["batch_normalization_36", 0, 0, {}]]]}, {"class_name": "Dropout", "config": {"noise_shape": null, "seed": null, "trainable": true, "name": "dropout_9", "rate": 0.3}, "name": "dropout_9", "inbound_nodes": [[["leaky_re_lu_36", 0, 0, {}]]]}, {"class_name": "SeparableConv1D", "config": {"padding": "same", "data_format": "channels_last", "filters": 128, "bias_initializer": {"class_name": "Zeros", "config": {}}, "activity_regularizer": null, "strides": [1], "depthwise_regularizer": null, "depthwise_constraint": null, "trainable": true, "name": "separable_conv1d_55", "depthwise_initializer": {"class_name": "VarianceScaling", "config": {"scale": 1.0, "distribution": "uniform", "mode": "fan_avg", "seed": null}}, "pointwise_regularizer": null, "kernel_size": [16], "dilation_rate": [1], "bias_regularizer": null, "activation": "linear", "depth_multiplier": 1, "pointwise_initializer": {"class_name": "VarianceScaling", "config": {"scale": 1.0, "distribution": "uniform", "mode": "fan_avg", "seed": null}}, "use_bias": true, "pointwise_constraint": null, "bias_constraint": null}, "name": "separable_conv1d_55", "inbound_nodes": [[["dropout_9", 0, 0, {}]]]}, {"class_name": "SeparableConv1D", "config": {"padding": "same", "data_format": "channels_last", "filters": 128, "bias_initializer": {"class_name": "Zeros", "config": {}}, "activity_regularizer": null, "strides": [1], "depthwise_regularizer": null, "depthwise_constraint": null, "trainable": true, "name": "separable_conv1d_56", "depthwise_initializer": {"class_name": "VarianceScaling", "config": {"scale": 1.0, "distribution": "uniform", "mode": "fan_avg", "seed": null}}, "pointwise_regularizer": null, "kernel_size": [32], "dilation_rate": [1], "bias_regularizer": null, "activation": "linear", "depth_multiplier": 1, "pointwise_initializer": {"class_name": "VarianceScaling", "config": {"scale": 1.0, "distribution": "uniform", "mode": "fan_avg", "seed": null}}, "use_bias": true, "pointwise_constraint": null, "bias_constraint": null}, "name": "separable_conv1d_56", "inbound_nodes": [[["dropout_9", 0, 0, {}]]]}, {"class_name": "Concatenate", "config": {"axis": 2, "trainable": true, "name": "concatenate_19"}, "name": "concatenate_19", "inbound_nodes": [[["separable_conv1d_55", 0, 0, {}], ["separable_conv1d_56", 0, 0, {}]]]}, {"class_name": "SeparableConv1D", "config": {"padding": "same", "data_format": "channels_last", "filters": 128, "bias_initializer": {"class_name": "Zeros", "config": {}}, "activity_regularizer": null, "strides": [1], "depthwise_regularizer": null, "depthwise_constraint": null, "trainable": true, "name": "separable_conv1d_57", "depthwise_initializer": {"class_name": "VarianceScaling", "config": {"scale": 1.0, "distribution": "uniform", "mode": "fan_avg", "seed": null}}, "pointwise_regularizer": null, "kernel_size": [1], "dilation_rate": [1], "bias_regularizer": null, "activation": "linear", "depth_multiplier": 1, "pointwise_initializer": {"class_name": "VarianceScaling", "config": {"scale": 1.0, "distribution": "uniform", "mode": "fan_avg", "seed": null}}, "use_bias": true, "pointwise_constraint": null, "bias_constraint": null}, "name": "separable_conv1d_57", "inbound_nodes": [[["concatenate_19", 0, 0, {}]]]}, {"class_name": "MaxPooling1D", "config": {"padding": "valid", "data_format": "channels_last", "strides": [1], "pool_size": [1], "trainable": true, "name": "max_pooling1d_9"}, "name": "max_pooling1d_9", "inbound_nodes": [[["add_8", 0, 0, {}]]]}, {"class_name": "BatchNormalization", "config": {"epsilon": 0.001, "scale": true, "center": true, "gamma_constraint": null, "beta_constraint": null, "gamma_regularizer": null, "gamma_initializer": {"class_name": "Ones", "config": {}}, "trainable": true, "name": "batch_normalization_37", "moving_mean_initializer": {"class_name": "Zeros", "config": {}}, "beta_initializer": {"class_name": "Zeros", "config": {}}, "beta_regularizer": null, "axis": -1, "momentum": 0.99, "moving_variance_initializer": {"class_name": "Ones", "config": {}}}, "name": "batch_normalization_37", "inbound_nodes": [[["separable_conv1d_57", 0, 0, {}]]]}, {"class_name": "Lambda", "config": {"function": ["4wEAAAAAAAAAAgAAAAQAAABTAAAAcygAAAB0AABqAQB8AACDAQB9AQB0AABqAgB8AAB8AQBnAgBk\nAQBkAgCDAQFTKQNO2gRheGlz6QIAAAApA9oBS9oKemVyb3NfbGlrZdoLY29uY2F0ZW5hdGUpAtoB\neNoBeakAcggAAAD6Ni9tZWRpYS91dXNlci9kYXRhLzk5NS1JQ1UgIHBsdXNlIGZldHVyZS9zcmMv\nbmV0d29yay5wedoHemVyb3BhZKgAAABzBAAAAAABDwE=\n", null, null], "output_shape_type": "lambda", "name": "lambda_2", "function_type": "lambda", "arguments": {}, "trainable": true, "output_shape": ["4wEAAAAAAAAAAgAAAAQAAABTAAAAczwAAAB0AAB8AACDAQB9AQB0AQB8AQCDAQBkAQBrAgBzJAB0\nAgCCAQB8AQBkAgAFGWQCADkDPHQDAHwBAIMBAFMpA07pAwAAAOkCAAAAKQTaBGxpc3TaA2xlbtoO\nQXNzZXJ0aW9uRXJyb3LaBXR1cGxlKQLaC2lucHV0X3NoYXBl2gVzaGFwZakAcgkAAAD6Ni9tZWRp\nYS91dXNlci9kYXRhLzk5NS1JQ1UgIHBsdXNlIGZldHVyZS9zcmMvbmV0d29yay5wedoUemVyb3Bh\nZF9vdXRwdXRfc2hhcGWsAAAAcwgAAAAAAQwBGAEOAQ==\n", null, null]}, "name": "lambda_2", "inbound_nodes": [[["max_pooling1d_9", 0, 0, {}]]]}, {"class_name": "LeakyReLU", "config": {"alpha": 0.30000001192092896, "trainable": true, "name": "leaky_re_lu_37"}, "name": "leaky_re_lu_37", "inbound_nodes": [[["batch_normalization_37", 0, 0, {}]]]}, {"class_name": "Add", "config": {"trainable": true, "name": "add_9"}, "name": "add_9", "inbound_nodes": [[["lambda_2", 0, 0, {}], ["leaky_re_lu_37", 0, 0, {}]]]}, {"class_name": "BatchNormalization", "config": {"epsilon": 0.001, "scale": true, "center": true, "gamma_constraint": null, "beta_constraint": null, "gamma_regularizer": null, "gamma_initializer": {"class_name": "Ones", "config": {}}, "trainable": true, "name": "batch_normalization_38", "moving_mean_initializer": {"class_name": "Zeros", "config": {}}, "beta_initializer": {"class_name": "Zeros", "config": {}}, "beta_regularizer": null, "axis": -1, "momentum": 0.99, "moving_variance_initializer": {"class_name": "Ones", "config": {}}}, "name": "batch_normalization_38", "inbound_nodes": [[["add_9", 0, 0, {}]]]}, {"class_name": "LeakyReLU", "config": {"alpha": 0.30000001192092896, "trainable": true, "name": "leaky_re_lu_38"}, "name": "leaky_re_lu_38", "inbound_nodes": [[["batch_normalization_38", 0, 0, {}]]]}, {"class_name": "SeparableConv1D", "config": {"padding": "same", "data_format": "channels_last", "filters": 128, "bias_initializer": {"class_name": "Zeros", "config": {}}, "activity_regularizer": null, "strides": [2], "depthwise_regularizer": null, "depthwise_constraint": null, "trainable": true, "name": "separable_conv1d_58", "depthwise_initializer": {"class_name": "VarianceScaling", "config": {"scale": 1.0, "distribution": "uniform", "mode": "fan_avg", "seed": null}}, "pointwise_regularizer": null, "kernel_size": [16], "dilation_rate": [1], "bias_regularizer": null, "activation": "linear", "depth_multiplier": 1, "pointwise_initializer": {"class_name": "VarianceScaling", "config": {"scale": 1.0, "distribution": "uniform", "mode": "fan_avg", "seed": null}}, "use_bias": true, "pointwise_constraint": null, "bias_constraint": null}, "name": "separable_conv1d_58", "inbound_nodes": [[["leaky_re_lu_38", 0, 0, {}]]]}, {"class_name": "SeparableConv1D", "config": {"padding": "same", "data_format": "channels_last", "filters": 128, "bias_initializer": {"class_name": "Zeros", "config": {}}, "activity_regularizer": null, "strides": [2], "depthwise_regularizer": null, "depthwise_constraint": null, "trainable": true, "name": "separable_conv1d_59", "depthwise_initializer": {"class_name": "VarianceScaling", "config": {"scale": 1.0, "distribution": "uniform", "mode": "fan_avg", "seed": null}}, "pointwise_regularizer": null, "kernel_size": [32], "dilation_rate": [1], "bias_regularizer": null, "activation": "linear", "depth_multiplier": 1, "pointwise_initializer": {"class_name": "VarianceScaling", "config": {"scale": 1.0, "distribution": "uniform", "mode": "fan_avg", "seed": null}}, "use_bias": true, "pointwise_constraint": null, "bias_constraint": null}, "name": "separable_conv1d_59", "inbound_nodes": [[["leaky_re_lu_38", 0, 0, {}]]]}, {"class_name": "Concatenate", "config": {"axis": 2, "trainable": true, "name": "concatenate_20"}, "name": "concatenate_20", "inbound_nodes": [[["separable_conv1d_58", 0, 0, {}], ["separable_conv1d_59", 0, 0, {}]]]}, {"class_name": "SeparableConv1D", "config": {"padding": "same", "data_format": "channels_last", "filters": 128, "bias_initializer": {"class_name": "Zeros", "config": {}}, "activity_regularizer": null, "strides": [1], "depthwise_regularizer": null, "depthwise_constraint": null, "trainable": true, "name": "separable_conv1d_60", "depthwise_initializer": {"class_name": "VarianceScaling", "config": {"scale": 1.0, "distribution": "uniform", "mode": "fan_avg", "seed": null}}, "pointwise_regularizer": null, "kernel_size": [2], "dilation_rate": [1], "bias_regularizer": null, "activation": "linear", "depth_multiplier": 1, "pointwise_initializer": {"class_name": "VarianceScaling", "config": {"scale": 1.0, "distribution": "uniform", "mode": "fan_avg", "seed": null}}, "use_bias": true, "pointwise_constraint": null, "bias_constraint": null}, "name": "separable_conv1d_60", "inbound_nodes": [[["concatenate_20", 0, 0, {}]]]}, {"class_name": "BatchNormalization", "config": {"epsilon": 0.001, "scale": true, "center": true, "gamma_constraint": null, "beta_constraint": null, "gamma_regularizer": null, "gamma_initializer": {"class_name": "Ones", "config": {}}, "trainable": true, "name": "batch_normalization_39", "moving_mean_initializer": {"class_name": "Zeros", "config": {}}, "beta_initializer": {"class_name": "Zeros", "config": {}}, "beta_regularizer": null, "axis": -1, "momentum": 0.99, "moving_variance_initializer": {"class_name": "Ones", "config": {}}}, "name": "batch_normalization_39", "inbound_nodes": [[["separable_conv1d_60", 0, 0, {}]]]}, {"class_name": "LeakyReLU", "config": {"alpha": 0.30000001192092896, "trainable": true, "name": "leaky_re_lu_39"}, "name": "leaky_re_lu_39", "inbound_nodes": [[["batch_normalization_39", 0, 0, {}]]]}, {"class_name": "BatchNormalization", "config": {"epsilon": 0.001, "scale": true, "center": true, "gamma_constraint": null, "beta_constraint": null, "gamma_regularizer": null, "gamma_initializer": {"class_name": "Ones", "config": {}}, "trainable": true, "name": "batch_normalization_40", "moving_mean_initializer": {"class_name": "Zeros", "config": {}}, "beta_initializer": {"class_name": "Zeros", "config": {}}, "beta_regularizer": null, "axis": -1, "momentum": 0.99, "moving_variance_initializer": {"class_name": "Ones", "config": {}}}, "name": "batch_normalization_40", "inbound_nodes": [[["leaky_re_lu_39", 0, 0, {}]]]}, {"class_name": "LeakyReLU", "config": {"alpha": 0.30000001192092896, "trainable": true, "name": "leaky_re_lu_40"}, "name": "leaky_re_lu_40", "inbound_nodes": [[["batch_normalization_40", 0, 0, {}]]]}, {"class_name": "Dropout", "config": {"noise_shape": null, "seed": null, "trainable": true, "name": "dropout_10", "rate": 0.3}, "name": "dropout_10", "inbound_nodes": [[["leaky_re_lu_40", 0, 0, {}]]]}, {"class_name": "SeparableConv1D", "config": {"padding": "same", "data_format": "channels_last", "filters": 128, "bias_initializer": {"class_name": "Zeros", "config": {}}, "activity_regularizer": null, "strides": [1], "depthwise_regularizer": null, "depthwise_constraint": null, "trainable": true, "name": "separable_conv1d_61", "depthwise_initializer": {"class_name": "VarianceScaling", "config": {"scale": 1.0, "distribution": "uniform", "mode": "fan_avg", "seed": null}}, "pointwise_regularizer": null, "kernel_size": [16], "dilation_rate": [1], "bias_regularizer": null, "activation": "linear", "depth_multiplier": 1, "pointwise_initializer": {"class_name": "VarianceScaling", "config": {"scale": 1.0, "distribution": "uniform", "mode": "fan_avg", "seed": null}}, "use_bias": true, "pointwise_constraint": null, "bias_constraint": null}, "name": "separable_conv1d_61", "inbound_nodes": [[["dropout_10", 0, 0, {}]]]}, {"class_name": "SeparableConv1D", "config": {"padding": "same", "data_format": "channels_last", "filters": 128, "bias_initializer": {"class_name": "Zeros", "config": {}}, "activity_regularizer": null, "strides": [1], "depthwise_regularizer": null, "depthwise_constraint": null, "trainable": true, "name": "separable_conv1d_62", "depthwise_initializer": {"class_name": "VarianceScaling", "config": {"scale": 1.0, "distribution": "uniform", "mode": "fan_avg", "seed": null}}, "pointwise_regularizer": null, "kernel_size": [32], "dilation_rate": [1], "bias_regularizer": null, "activation": "linear", "depth_multiplier": 1, "pointwise_initializer": {"class_name": "VarianceScaling", "config": {"scale": 1.0, "distribution": "uniform", "mode": "fan_avg", "seed": null}}, "use_bias": true, "pointwise_constraint": null, "bias_constraint": null}, "name": "separable_conv1d_62", "inbound_nodes": [[["dropout_10", 0, 0, {}]]]}, {"class_name": "Concatenate", "config": {"axis": 2, "trainable": true, "name": "concatenate_21"}, "name": "concatenate_21", "inbound_nodes": [[["separable_conv1d_61", 0, 0, {}], ["separable_conv1d_62", 0, 0, {}]]]}, {"class_name": "SeparableConv1D", "config": {"padding": "same", "data_format": "channels_last", "filters": 128, "bias_initializer": {"class_name": "Zeros", "config": {}}, "activity_regularizer": null, "strides": [1], "depthwise_regularizer": null, "depthwise_constraint": null, "trainable": true, "name": "separable_conv1d_63", "depthwise_initializer": {"class_name": "VarianceScaling", "config": {"scale": 1.0, "distribution": "uniform", "mode": "fan_avg", "seed": null}}, "pointwise_regularizer": null, "kernel_size": [1], "dilation_rate": [1], "bias_regularizer": null, "activation": "linear", "depth_multiplier": 1, "pointwise_initializer": {"class_name": "VarianceScaling", "config": {"scale": 1.0, "distribution": "uniform", "mode": "fan_avg", "seed": null}}, "use_bias": true, "pointwise_constraint": null, "bias_constraint": null}, "name": "separable_conv1d_63", "inbound_nodes": [[["concatenate_21", 0, 0, {}]]]}, {"class_name": "BatchNormalization", "config": {"epsilon": 0.001, "scale": true, "center": true, "gamma_constraint": null, "beta_constraint": null, "gamma_regularizer": null, "gamma_initializer": {"class_name": "Ones", "config": {}}, "trainable": true, "name": "batch_normalization_41", "moving_mean_initializer": {"class_name": "Zeros", "config": {}}, "beta_initializer": {"class_name": "Zeros", "config": {}}, "beta_regularizer": null, "axis": -1, "momentum": 0.99, "moving_variance_initializer": {"class_name": "Ones", "config": {}}}, "name": "batch_normalization_41", "inbound_nodes": [[["separable_conv1d_63", 0, 0, {}]]]}, {"class_name": "MaxPooling1D", "config": {"padding": "valid", "data_format": "channels_last", "strides": [2], "pool_size": [2], "trainable": true, "name": "max_pooling1d_10"}, "name": "max_pooling1d_10", "inbound_nodes": [[["add_9", 0, 0, {}]]]}, {"class_name": "LeakyReLU", "config": {"alpha": 0.30000001192092896, "trainable": true, "name": "leaky_re_lu_41"}, "name": "leaky_re_lu_41", "inbound_nodes": [[["batch_normalization_41", 0, 0, {}]]]}, {"class_name": "Add", "config": {"trainable": true, "name": "add_10"}, "name": "add_10", "inbound_nodes": [[["max_pooling1d_10", 0, 0, {}], ["leaky_re_lu_41", 0, 0, {}]]]}, {"class_name": "BatchNormalization", "config": {"epsilon": 0.001, "scale": true, "center": true, "gamma_constraint": null, "beta_constraint": null, "gamma_regularizer": null, "gamma_initializer": {"class_name": "Ones", "config": {}}, "trainable": true, "name": "batch_normalization_42", "moving_mean_initializer": {"class_name": "Zeros", "config": {}}, "beta_initializer": {"class_name": "Zeros", "config": {}}, "beta_regularizer": null, "axis": -1, "momentum": 0.99, "moving_variance_initializer": {"class_name": "Ones", "config": {}}}, "name": "batch_normalization_42", "inbound_nodes": [[["add_10", 0, 0, {}]]]}, {"class_name": "LeakyReLU", "config": {"alpha": 0.30000001192092896, "trainable": true, "name": "leaky_re_lu_42"}, "name": "leaky_re_lu_42", "inbound_nodes": [[["batch_normalization_42", 0, 0, {}]]]}, {"class_name": "SeparableConv1D", "config": {"padding": "same", "data_format": "channels_last", "filters": 128, "bias_initializer": {"class_name": "Zeros", "config": {}}, "activity_regularizer": null, "strides": [1], "depthwise_regularizer": null, "depthwise_constraint": null, "trainable": true, "name": "separable_conv1d_64", "depthwise_initializer": {"class_name": "VarianceScaling", "config": {"scale": 1.0, "distribution": "uniform", "mode": "fan_avg", "seed": null}}, "pointwise_regularizer": null, "kernel_size": [16], "dilation_rate": [1], "bias_regularizer": null, "activation": "linear", "depth_multiplier": 1, "pointwise_initializer": {"class_name": "VarianceScaling", "config": {"scale": 1.0, "distribution": "uniform", "mode": "fan_avg", "seed": null}}, "use_bias": true, "pointwise_constraint": null, "bias_constraint": null}, "name": "separable_conv1d_64", "inbound_nodes": [[["leaky_re_lu_42", 0, 0, {}]]]}, {"class_name": "SeparableConv1D", "config": {"padding": "same", "data_format": "channels_last", "filters": 128, "bias_initializer": {"class_name": "Zeros", "config": {}}, "activity_regularizer": null, "strides": [1], "depthwise_regularizer": null, "depthwise_constraint": null, "trainable": true, "name": "separable_conv1d_65", "depthwise_initializer": {"class_name": "VarianceScaling", "config": {"scale": 1.0, "distribution": "uniform", "mode": "fan_avg", "seed": null}}, "pointwise_regularizer": null, "kernel_size": [32], "dilation_rate": [1], "bias_regularizer": null, "activation": "linear", "depth_multiplier": 1, "pointwise_initializer": {"class_name": "VarianceScaling", "config": {"scale": 1.0, "distribution": "uniform", "mode": "fan_avg", "seed": null}}, "use_bias": true, "pointwise_constraint": null, "bias_constraint": null}, "name": "separable_conv1d_65", "inbound_nodes": [[["leaky_re_lu_42", 0, 0, {}]]]}, {"class_name": "Concatenate", "config": {"axis": 2, "trainable": true, "name": "concatenate_22"}, "name": "concatenate_22", "inbound_nodes": [[["separable_conv1d_64", 0, 0, {}], ["separable_conv1d_65", 0, 0, {}]]]}, {"class_name": "SeparableConv1D", "config": {"padding": "same", "data_format": "channels_last", "filters": 128, "bias_initializer": {"class_name": "Zeros", "config": {}}, "activity_regularizer": null, "strides": [1], "depthwise_regularizer": null, "depthwise_constraint": null, "trainable": true, "name": "separable_conv1d_66", "depthwise_initializer": {"class_name": "VarianceScaling", "config": {"scale": 1.0, "distribution": "uniform", "mode": "fan_avg", "seed": null}}, "pointwise_regularizer": null, "kernel_size": [1], "dilation_rate": [1], "bias_regularizer": null, "activation": "linear", "depth_multiplier": 1, "pointwise_initializer": {"class_name": "VarianceScaling", "config": {"scale": 1.0, "distribution": "uniform", "mode": "fan_avg", "seed": null}}, "use_bias": true, "pointwise_constraint": null, "bias_constraint": null}, "name": "separable_conv1d_66", "inbound_nodes": [[["concatenate_22", 0, 0, {}]]]}, {"class_name": "BatchNormalization", "config": {"epsilon": 0.001, "scale": true, "center": true, "gamma_constraint": null, "beta_constraint": null, "gamma_regularizer": null, "gamma_initializer": {"class_name": "Ones", "config": {}}, "trainable": true, "name": "batch_normalization_43", "moving_mean_initializer": {"class_name": "Zeros", "config": {}}, "beta_initializer": {"class_name": "Zeros", "config": {}}, "beta_regularizer": null, "axis": -1, "momentum": 0.99, "moving_variance_initializer": {"class_name": "Ones", "config": {}}}, "name": "batch_normalization_43", "inbound_nodes": [[["separable_conv1d_66", 0, 0, {}]]]}, {"class_name": "LeakyReLU", "config": {"alpha": 0.30000001192092896, "trainable": true, "name": "leaky_re_lu_43"}, "name": "leaky_re_lu_43", "inbound_nodes": [[["batch_normalization_43", 0, 0, {}]]]}, {"class_name": "BatchNormalization", "config": {"epsilon": 0.001, "scale": true, "center": true, "gamma_constraint": null, "beta_constraint": null, "gamma_regularizer": null, "gamma_initializer": {"class_name": "Ones", "config": {}}, "trainable": true, "name": "batch_normalization_44", "moving_mean_initializer": {"class_name": "Zeros", "config": {}}, "beta_initializer": {"class_name": "Zeros", "config": {}}, "beta_regularizer": null, "axis": -1, "momentum": 0.99, "moving_variance_initializer": {"class_name": "Ones", "config": {}}}, "name": "batch_normalization_44", "inbound_nodes": [[["leaky_re_lu_43", 0, 0, {}]]]}, {"class_name": "LeakyReLU", "config": {"alpha": 0.30000001192092896, "trainable": true, "name": "leaky_re_lu_44"}, "name": "leaky_re_lu_44", "inbound_nodes": [[["batch_normalization_44", 0, 0, {}]]]}, {"class_name": "Dropout", "config": {"noise_shape": null, "seed": null, "trainable": true, "name": "dropout_11", "rate": 0.3}, "name": "dropout_11", "inbound_nodes": [[["leaky_re_lu_44", 0, 0, {}]]]}, {"class_name": "SeparableConv1D", "config": {"padding": "same", "data_format": "channels_last", "filters": 128, "bias_initializer": {"class_name": "Zeros", "config": {}}, "activity_regularizer": null, "strides": [1], "depthwise_regularizer": null, "depthwise_constraint": null, "trainable": true, "name": "separable_conv1d_67", "depthwise_initializer": {"class_name": "VarianceScaling", "config": {"scale": 1.0, "distribution": "uniform", "mode": "fan_avg", "seed": null}}, "pointwise_regularizer": null, "kernel_size": [16], "dilation_rate": [1], "bias_regularizer": null, "activation": "linear", "depth_multiplier": 1, "pointwise_initializer": {"class_name": "VarianceScaling", "config": {"scale": 1.0, "distribution": "uniform", "mode": "fan_avg", "seed": null}}, "use_bias": true, "pointwise_constraint": null, "bias_constraint": null}, "name": "separable_conv1d_67", "inbound_nodes": [[["dropout_11", 0, 0, {}]]]}, {"class_name": "SeparableConv1D", "config": {"padding": "same", "data_format": "channels_last", "filters": 128, "bias_initializer": {"class_name": "Zeros", "config": {}}, "activity_regularizer": null, "strides": [1], "depthwise_regularizer": null, "depthwise_constraint": null, "trainable": true, "name": "separable_conv1d_68", "depthwise_initializer": {"class_name": "VarianceScaling", "config": {"scale": 1.0, "distribution": "uniform", "mode": "fan_avg", "seed": null}}, "pointwise_regularizer": null, "kernel_size": [32], "dilation_rate": [1], "bias_regularizer": null, "activation": "linear", "depth_multiplier": 1, "pointwise_initializer": {"class_name": "VarianceScaling", "config": {"scale": 1.0, "distribution": "uniform", "mode": "fan_avg", "seed": null}}, "use_bias": true, "pointwise_constraint": null, "bias_constraint": null}, "name": "separable_conv1d_68", "inbound_nodes": [[["dropout_11", 0, 0, {}]]]}, {"class_name": "Concatenate", "config": {"axis": 2, "trainable": true, "name": "concatenate_23"}, "name": "concatenate_23", "inbound_nodes": [[["separable_conv1d_67", 0, 0, {}], ["separable_conv1d_68", 0, 0, {}]]]}, {"class_name": "SeparableConv1D", "config": {"padding": "same", "data_format": "channels_last", "filters": 128, "bias_initializer": {"class_name": "Zeros", "config": {}}, "activity_regularizer": null, "strides": [1], "depthwise_regularizer": null, "depthwise_constraint": null, "trainable": true, "name": "separable_conv1d_69", "depthwise_initializer": {"class_name": "VarianceScaling", "config": {"scale": 1.0, "distribution": "uniform", "mode": "fan_avg", "seed": null}}, "pointwise_regularizer": null, "kernel_size": [1], "dilation_rate": [1], "bias_regularizer": null, "activation": "linear", "depth_multiplier": 1, "pointwise_initializer": {"class_name": "VarianceScaling", "config": {"scale": 1.0, "distribution": "uniform", "mode": "fan_avg", "seed": null}}, "use_bias": true, "pointwise_constraint": null, "bias_constraint": null}, "name": "separable_conv1d_69", "inbound_nodes": [[["concatenate_23", 0, 0, {}]]]}, {"class_name": "BatchNormalization", "config": {"epsilon": 0.001, "scale": true, "center": true, "gamma_constraint": null, "beta_constraint": null, "gamma_regularizer": null, "gamma_initializer": {"class_name": "Ones", "config": {}}, "trainable": true, "name": "batch_normalization_45", "moving_mean_initializer": {"class_name": "Zeros", "config": {}}, "beta_initializer": {"class_name": "Zeros", "config": {}}, "beta_regularizer": null, "axis": -1, "momentum": 0.99, "moving_variance_initializer": {"class_name": "Ones", "config": {}}}, "name": "batch_normalization_45", "inbound_nodes": [[["separable_conv1d_69", 0, 0, {}]]]}, {"class_name": "MaxPooling1D", "config": {"padding": "valid", "data_format": "channels_last", "strides": [1], "pool_size": [1], "trainable": true, "name": "max_pooling1d_11"}, "name": "max_pooling1d_11", "inbound_nodes": [[["add_10", 0, 0, {}]]]}, {"class_name": "LeakyReLU", "config": {"alpha": 0.30000001192092896, "trainable": true, "name": "leaky_re_lu_45"}, "name": "leaky_re_lu_45", "inbound_nodes": [[["batch_normalization_45", 0, 0, {}]]]}, {"class_name": "Add", "config": {"trainable": true, "name": "add_11"}, "name": "add_11", "inbound_nodes": [[["max_pooling1d_11", 0, 0, {}], ["leaky_re_lu_45", 0, 0, {}]]]}, {"class_name": "BatchNormalization", "config": {"epsilon": 0.001, "scale": true, "center": true, "gamma_constraint": null, "beta_constraint": null, "gamma_regularizer": null, "gamma_initializer": {"class_name": "Ones", "config": {}}, "trainable": true, "name": "batch_normalization_46", "moving_mean_initializer": {"class_name": "Zeros", "config": {}}, "beta_initializer": {"class_name": "Zeros", "config": {}}, "beta_regularizer": null, "axis": -1, "momentum": 0.99, "moving_variance_initializer": {"class_name": "Ones", "config": {}}}, "name": "batch_normalization_46", "inbound_nodes": [[["add_11", 0, 0, {}]]]}, {"class_name": "LeakyReLU", "config": {"alpha": 0.30000001192092896, "trainable": true, "name": "leaky_re_lu_46"}, "name": "leaky_re_lu_46", "inbound_nodes": [[["batch_normalization_46", 0, 0, {}]]]}, {"class_name": "SeparableConv1D", "config": {"padding": "same", "data_format": "channels_last", "filters": 128, "bias_initializer": {"class_name": "Zeros", "config": {}}, "activity_regularizer": null, "strides": [2], "depthwise_regularizer": null, "depthwise_constraint": null, "trainable": true, "name": "separable_conv1d_70", "depthwise_initializer": {"class_name": "VarianceScaling", "config": {"scale": 1.0, "distribution": "uniform", "mode": "fan_avg", "seed": null}}, "pointwise_regularizer": null, "kernel_size": [16], "dilation_rate": [1], "bias_regularizer": null, "activation": "linear", "depth_multiplier": 1, "pointwise_initializer": {"class_name": "VarianceScaling", "config": {"scale": 1.0, "distribution": "uniform", "mode": "fan_avg", "seed": null}}, "use_bias": true, "pointwise_constraint": null, "bias_constraint": null}, "name": "separable_conv1d_70", "inbound_nodes": [[["leaky_re_lu_46", 0, 0, {}]]]}, {"class_name": "SeparableConv1D", "config": {"padding": "same", "data_format": "channels_last", "filters": 128, "bias_initializer": {"class_name": "Zeros", "config": {}}, "activity_regularizer": null, "strides": [2], "depthwise_regularizer": null, "depthwise_constraint": null, "trainable": true, "name": "separable_conv1d_71", "depthwise_initializer": {"class_name": "VarianceScaling", "config": {"scale": 1.0, "distribution": "uniform", "mode": "fan_avg", "seed": null}}, "pointwise_regularizer": null, "kernel_size": [32], "dilation_rate": [1], "bias_regularizer": null, "activation": "linear", "depth_multiplier": 1, "pointwise_initializer": {"class_name": "VarianceScaling", "config": {"scale": 1.0, "distribution": "uniform", "mode": "fan_avg", "seed": null}}, "use_bias": true, "pointwise_constraint": null, "bias_constraint": null}, "name": "separable_conv1d_71", "inbound_nodes": [[["leaky_re_lu_46", 0, 0, {}]]]}, {"class_name": "Concatenate", "config": {"axis": 2, "trainable": true, "name": "concatenate_24"}, "name": "concatenate_24", "inbound_nodes": [[["separable_conv1d_70", 0, 0, {}], ["separable_conv1d_71", 0, 0, {}]]]}, {"class_name": "SeparableConv1D", "config": {"padding": "same", "data_format": "channels_last", "filters": 128, "bias_initializer": {"class_name": "Zeros", "config": {}}, "activity_regularizer": null, "strides": [1], "depthwise_regularizer": null, "depthwise_constraint": null, "trainable": true, "name": "separable_conv1d_72", "depthwise_initializer": {"class_name": "VarianceScaling", "config": {"scale": 1.0, "distribution": "uniform", "mode": "fan_avg", "seed": null}}, "pointwise_regularizer": null, "kernel_size": [2], "dilation_rate": [1], "bias_regularizer": null, "activation": "linear", "depth_multiplier": 1, "pointwise_initializer": {"class_name": "VarianceScaling", "config": {"scale": 1.0, "distribution": "uniform", "mode": "fan_avg", "seed": null}}, "use_bias": true, "pointwise_constraint": null, "bias_constraint": null}, "name": "separable_conv1d_72", "inbound_nodes": [[["concatenate_24", 0, 0, {}]]]}, {"class_name": "BatchNormalization", "config": {"epsilon": 0.001, "scale": true, "center": true, "gamma_constraint": null, "beta_constraint": null, "gamma_regularizer": null, "gamma_initializer": {"class_name": "Ones", "config": {}}, "trainable": true, "name": "batch_normalization_47", "moving_mean_initializer": {"class_name": "Zeros", "config": {}}, "beta_initializer": {"class_name": "Zeros", "config": {}}, "beta_regularizer": null, "axis": -1, "momentum": 0.99, "moving_variance_initializer": {"class_name": "Ones", "config": {}}}, "name": "batch_normalization_47", "inbound_nodes": [[["separable_conv1d_72", 0, 0, {}]]]}, {"class_name": "LeakyReLU", "config": {"alpha": 0.30000001192092896, "trainable": true, "name": "leaky_re_lu_47"}, "name": "leaky_re_lu_47", "inbound_nodes": [[["batch_normalization_47", 0, 0, {}]]]}, {"class_name": "BatchNormalization", "config": {"epsilon": 0.001, "scale": true, "center": true, "gamma_constraint": null, "beta_constraint": null, "gamma_regularizer": null, "gamma_initializer": {"class_name": "Ones", "config": {}}, "trainable": true, "name": "batch_normalization_48", "moving_mean_initializer": {"class_name": "Zeros", "config": {}}, "beta_initializer": {"class_name": "Zeros", "config": {}}, "beta_regularizer": null, "axis": -1, "momentum": 0.99, "moving_variance_initializer": {"class_name": "Ones", "config": {}}}, "name": "batch_normalization_48", "inbound_nodes": [[["leaky_re_lu_47", 0, 0, {}]]]}, {"class_name": "LeakyReLU", "config": {"alpha": 0.30000001192092896, "trainable": true, "name": "leaky_re_lu_48"}, "name": "leaky_re_lu_48", "inbound_nodes": [[["batch_normalization_48", 0, 0, {}]]]}, {"class_name": "Dropout", "config": {"noise_shape": null, "seed": null, "trainable": true, "name": "dropout_12", "rate": 0.3}, "name": "dropout_12", "inbound_nodes": [[["leaky_re_lu_48", 0, 0, {}]]]}, {"class_name": "SeparableConv1D", "config": {"padding": "same", "data_format": "channels_last", "filters": 128, "bias_initializer": {"class_name": "Zeros", "config": {}}, "activity_regularizer": null, "strides": [1], "depthwise_regularizer": null, "depthwise_constraint": null, "trainable": true, "name": "separable_conv1d_73", "depthwise_initializer": {"class_name": "VarianceScaling", "config": {"scale": 1.0, "distribution": "uniform", "mode": "fan_avg", "seed": null}}, "pointwise_regularizer": null, "kernel_size": [16], "dilation_rate": [1], "bias_regularizer": null, "activation": "linear", "depth_multiplier": 1, "pointwise_initializer": {"class_name": "VarianceScaling", "config": {"scale": 1.0, "distribution": "uniform", "mode": "fan_avg", "seed": null}}, "use_bias": true, "pointwise_constraint": null, "bias_constraint": null}, "name": "separable_conv1d_73", "inbound_nodes": [[["dropout_12", 0, 0, {}]]]}, {"class_name": "SeparableConv1D", "config": {"padding": "same", "data_format": "channels_last", "filters": 128, "bias_initializer": {"class_name": "Zeros", "config": {}}, "activity_regularizer": null, "strides": [1], "depthwise_regularizer": null, "depthwise_constraint": null, "trainable": true, "name": "separable_conv1d_74", "depthwise_initializer": {"class_name": "VarianceScaling", "config": {"scale": 1.0, "distribution": "uniform", "mode": "fan_avg", "seed": null}}, "pointwise_regularizer": null, "kernel_size": [32], "dilation_rate": [1], "bias_regularizer": null, "activation": "linear", "depth_multiplier": 1, "pointwise_initializer": {"class_name": "VarianceScaling", "config": {"scale": 1.0, "distribution": "uniform", "mode": "fan_avg", "seed": null}}, "use_bias": true, "pointwise_constraint": null, "bias_constraint": null}, "name": "separable_conv1d_74", "inbound_nodes": [[["dropout_12", 0, 0, {}]]]}, {"class_name": "Concatenate", "config": {"axis": 2, "trainable": true, "name": "concatenate_25"}, "name": "concatenate_25", "inbound_nodes": [[["separable_conv1d_73", 0, 0, {}], ["separable_conv1d_74", 0, 0, {}]]]}, {"class_name": "SeparableConv1D", "config": {"padding": "same", "data_format": "channels_last", "filters": 128, "bias_initializer": {"class_name": "Zeros", "config": {}}, "activity_regularizer": null, "strides": [1], "depthwise_regularizer": null, "depthwise_constraint": null, "trainable": true, "name": "separable_conv1d_75", "depthwise_initializer": {"class_name": "VarianceScaling", "config": {"scale": 1.0, "distribution": "uniform", "mode": "fan_avg", "seed": null}}, "pointwise_regularizer": null, "kernel_size": [1], "dilation_rate": [1], "bias_regularizer": null, "activation": "linear", "depth_multiplier": 1, "pointwise_initializer": {"class_name": "VarianceScaling", "config": {"scale": 1.0, "distribution": "uniform", "mode": "fan_avg", "seed": null}}, "use_bias": true, "pointwise_constraint": null, "bias_constraint": null}, "name": "separable_conv1d_75", "inbound_nodes": [[["concatenate_25", 0, 0, {}]]]}, {"class_name": "BatchNormalization", "config": {"epsilon": 0.001, "scale": true, "center": true, "gamma_constraint": null, "beta_constraint": null, "gamma_regularizer": null, "gamma_initializer": {"class_name": "Ones", "config": {}}, "trainable": true, "name": "batch_normalization_49", "moving_mean_initializer": {"class_name": "Zeros", "config": {}}, "beta_initializer": {"class_name": "Zeros", "config": {}}, "beta_regularizer": null, "axis": -1, "momentum": 0.99, "moving_variance_initializer": {"class_name": "Ones", "config": {}}}, "name": "batch_normalization_49", "inbound_nodes": [[["separable_conv1d_75", 0, 0, {}]]]}, {"class_name": "MaxPooling1D", "config": {"padding": "valid", "data_format": "channels_last", "strides": [2], "pool_size": [2], "trainable": true, "name": "max_pooling1d_12"}, "name": "max_pooling1d_12", "inbound_nodes": [[["add_11", 0, 0, {}]]]}, {"class_name": "LeakyReLU", "config": {"alpha": 0.30000001192092896, "trainable": true, "name": "leaky_re_lu_49"}, "name": "leaky_re_lu_49", "inbound_nodes": [[["batch_normalization_49", 0, 0, {}]]]}, {"class_name": "Add", "config": {"trainable": true, "name": "add_12"}, "name": "add_12", "inbound_nodes": [[["max_pooling1d_12", 0, 0, {}], ["leaky_re_lu_49", 0, 0, {}]]]}, {"class_name": "BatchNormalization", "config": {"epsilon": 0.001, "scale": true, "center": true, "gamma_constraint": null, "beta_constraint": null, "gamma_regularizer": null, "gamma_initializer": {"class_name": "Ones", "config": {}}, "trainable": true, "name": "batch_normalization_50", "moving_mean_initializer": {"class_name": "Zeros", "config": {}}, "beta_initializer": {"class_name": "Zeros", "config": {}}, "beta_regularizer": null, "axis": -1, "momentum": 0.99, "moving_variance_initializer": {"class_name": "Ones", "config": {}}}, "name": "batch_normalization_50", "inbound_nodes": [[["add_12", 0, 0, {}]]]}, {"class_name": "LeakyReLU", "config": {"alpha": 0.30000001192092896, "trainable": true, "name": "leaky_re_lu_50"}, "name": "leaky_re_lu_50", "inbound_nodes": [[["batch_normalization_50", 0, 0, {}]]]}, {"class_name": "SeparableConv1D", "config": {"padding": "same", "data_format": "channels_last", "filters": 256, "bias_initializer": {"class_name": "Zeros", "config": {}}, "activity_regularizer": null, "strides": [1], "depthwise_regularizer": null, "depthwise_constraint": null, "trainable": true, "name": "separable_conv1d_76", "depthwise_initializer": {"class_name": "VarianceScaling", "config": {"scale": 1.0, "distribution": "uniform", "mode": "fan_avg", "seed": null}}, "pointwise_regularizer": null, "kernel_size": [16], "dilation_rate": [1], "bias_regularizer": null, "activation": "linear", "depth_multiplier": 1, "pointwise_initializer": {"class_name": "VarianceScaling", "config": {"scale": 1.0, "distribution": "uniform", "mode": "fan_avg", "seed": null}}, "use_bias": true, "pointwise_constraint": null, "bias_constraint": null}, "name": "separable_conv1d_76", "inbound_nodes": [[["leaky_re_lu_50", 0, 0, {}]]]}, {"class_name": "SeparableConv1D", "config": {"padding": "same", "data_format": "channels_last", "filters": 256, "bias_initializer": {"class_name": "Zeros", "config": {}}, "activity_regularizer": null, "strides": [1], "depthwise_regularizer": null, "depthwise_constraint": null, "trainable": true, "name": "separable_conv1d_77", "depthwise_initializer": {"class_name": "VarianceScaling", "config": {"scale": 1.0, "distribution": "uniform", "mode": "fan_avg", "seed": null}}, "pointwise_regularizer": null, "kernel_size": [32], "dilation_rate": [1], "bias_regularizer": null, "activation": "linear", "depth_multiplier": 1, "pointwise_initializer": {"class_name": "VarianceScaling", "config": {"scale": 1.0, "distribution": "uniform", "mode": "fan_avg", "seed": null}}, "use_bias": true, "pointwise_constraint": null, "bias_constraint": null}, "name": "separable_conv1d_77", "inbound_nodes": [[["leaky_re_lu_50", 0, 0, {}]]]}, {"class_name": "Concatenate", "config": {"axis": 2, "trainable": true, "name": "concatenate_26"}, "name": "concatenate_26", "inbound_nodes": [[["separable_conv1d_76", 0, 0, {}], ["separable_conv1d_77", 0, 0, {}]]]}, {"class_name": "SeparableConv1D", "config": {"padding": "same", "data_format": "channels_last", "filters": 256, "bias_initializer": {"class_name": "Zeros", "config": {}}, "activity_regularizer": null, "strides": [1], "depthwise_regularizer": null, "depthwise_constraint": null, "trainable": true, "name": "separable_conv1d_78", "depthwise_initializer": {"class_name": "VarianceScaling", "config": {"scale": 1.0, "distribution": "uniform", "mode": "fan_avg", "seed": null}}, "pointwise_regularizer": null, "kernel_size": [1], "dilation_rate": [1], "bias_regularizer": null, "activation": "linear", "depth_multiplier": 1, "pointwise_initializer": {"class_name": "VarianceScaling", "config": {"scale": 1.0, "distribution": "uniform", "mode": "fan_avg", "seed": null}}, "use_bias": true, "pointwise_constraint": null, "bias_constraint": null}, "name": "separable_conv1d_78", "inbound_nodes": [[["concatenate_26", 0, 0, {}]]]}, {"class_name": "BatchNormalization", "config": {"epsilon": 0.001, "scale": true, "center": true, "gamma_constraint": null, "beta_constraint": null, "gamma_regularizer": null, "gamma_initializer": {"class_name": "Ones", "config": {}}, "trainable": true, "name": "batch_normalization_51", "moving_mean_initializer": {"class_name": "Zeros", "config": {}}, "beta_initializer": {"class_name": "Zeros", "config": {}}, "beta_regularizer": null, "axis": -1, "momentum": 0.99, "moving_variance_initializer": {"class_name": "Ones", "config": {}}}, "name": "batch_normalization_51", "inbound_nodes": [[["separable_conv1d_78", 0, 0, {}]]]}, {"class_name": "LeakyReLU", "config": {"alpha": 0.30000001192092896, "trainable": true, "name": "leaky_re_lu_51"}, "name": "leaky_re_lu_51", "inbound_nodes": [[["batch_normalization_51", 0, 0, {}]]]}, {"class_name": "BatchNormalization", "config": {"epsilon": 0.001, "scale": true, "center": true, "gamma_constraint": null, "beta_constraint": null, "gamma_regularizer": null, "gamma_initializer": {"class_name": "Ones", "config": {}}, "trainable": true, "name": "batch_normalization_52", "moving_mean_initializer": {"class_name": "Zeros", "config": {}}, "beta_initializer": {"class_name": "Zeros", "config": {}}, "beta_regularizer": null, "axis": -1, "momentum": 0.99, "moving_variance_initializer": {"class_name": "Ones", "config": {}}}, "name": "batch_normalization_52", "inbound_nodes": [[["leaky_re_lu_51", 0, 0, {}]]]}, {"class_name": "LeakyReLU", "config": {"alpha": 0.30000001192092896, "trainable": true, "name": "leaky_re_lu_52"}, "name": "leaky_re_lu_52", "inbound_nodes": [[["batch_normalization_52", 0, 0, {}]]]}, {"class_name": "Dropout", "config": {"noise_shape": null, "seed": null, "trainable": true, "name": "dropout_13", "rate": 0.3}, "name": "dropout_13", "inbound_nodes": [[["leaky_re_lu_52", 0, 0, {}]]]}, {"class_name": "SeparableConv1D", "config": {"padding": "same", "data_format": "channels_last", "filters": 256, "bias_initializer": {"class_name": "Zeros", "config": {}}, "activity_regularizer": null, "strides": [1], "depthwise_regularizer": null, "depthwise_constraint": null, "trainable": true, "name": "separable_conv1d_79", "depthwise_initializer": {"class_name": "VarianceScaling", "config": {"scale": 1.0, "distribution": "uniform", "mode": "fan_avg", "seed": null}}, "pointwise_regularizer": null, "kernel_size": [16], "dilation_rate": [1], "bias_regularizer": null, "activation": "linear", "depth_multiplier": 1, "pointwise_initializer": {"class_name": "VarianceScaling", "config": {"scale": 1.0, "distribution": "uniform", "mode": "fan_avg", "seed": null}}, "use_bias": true, "pointwise_constraint": null, "bias_constraint": null}, "name": "separable_conv1d_79", "inbound_nodes": [[["dropout_13", 0, 0, {}]]]}, {"class_name": "SeparableConv1D", "config": {"padding": "same", "data_format": "channels_last", "filters": 256, "bias_initializer": {"class_name": "Zeros", "config": {}}, "activity_regularizer": null, "strides": [1], "depthwise_regularizer": null, "depthwise_constraint": null, "trainable": true, "name": "separable_conv1d_80", "depthwise_initializer": {"class_name": "VarianceScaling", "config": {"scale": 1.0, "distribution": "uniform", "mode": "fan_avg", "seed": null}}, "pointwise_regularizer": null, "kernel_size": [32], "dilation_rate": [1], "bias_regularizer": null, "activation": "linear", "depth_multiplier": 1, "pointwise_initializer": {"class_name": "VarianceScaling", "config": {"scale": 1.0, "distribution": "uniform", "mode": "fan_avg", "seed": null}}, "use_bias": true, "pointwise_constraint": null, "bias_constraint": null}, "name": "separable_conv1d_80", "inbound_nodes": [[["dropout_13", 0, 0, {}]]]}, {"class_name": "Concatenate", "config": {"axis": 2, "trainable": true, "name": "concatenate_27"}, "name": "concatenate_27", "inbound_nodes": [[["separable_conv1d_79", 0, 0, {}], ["separable_conv1d_80", 0, 0, {}]]]}, {"class_name": "SeparableConv1D", "config": {"padding": "same", "data_format": "channels_last", "filters": 256, "bias_initializer": {"class_name": "Zeros", "config": {}}, "activity_regularizer": null, "strides": [1], "depthwise_regularizer": null, "depthwise_constraint": null, "trainable": true, "name": "separable_conv1d_81", "depthwise_initializer": {"class_name": "VarianceScaling", "config": {"scale": 1.0, "distribution": "uniform", "mode": "fan_avg", "seed": null}}, "pointwise_regularizer": null, "kernel_size": [1], "dilation_rate": [1], "bias_regularizer": null, "activation": "linear", "depth_multiplier": 1, "pointwise_initializer": {"class_name": "VarianceScaling", "config": {"scale": 1.0, "distribution": "uniform", "mode": "fan_avg", "seed": null}}, "use_bias": true, "pointwise_constraint": null, "bias_constraint": null}, "name": "separable_conv1d_81", "inbound_nodes": [[["concatenate_27", 0, 0, {}]]]}, {"class_name": "MaxPooling1D", "config": {"padding": "valid", "data_format": "channels_last", "strides": [1], "pool_size": [1], "trainable": true, "name": "max_pooling1d_13"}, "name": "max_pooling1d_13", "inbound_nodes": [[["add_12", 0, 0, {}]]]}, {"class_name": "BatchNormalization", "config": {"epsilon": 0.001, "scale": true, "center": true, "gamma_constraint": null, "beta_constraint": null, "gamma_regularizer": null, "gamma_initializer": {"class_name": "Ones", "config": {}}, "trainable": true, "name": "batch_normalization_53", "moving_mean_initializer": {"class_name": "Zeros", "config": {}}, "beta_initializer": {"class_name": "Zeros", "config": {}}, "beta_regularizer": null, "axis": -1, "momentum": 0.99, "moving_variance_initializer": {"class_name": "Ones", "config": {}}}, "name": "batch_normalization_53", "inbound_nodes": [[["separable_conv1d_81", 0, 0, {}]]]}, {"class_name": "Lambda", "config": {"function": ["4wEAAAAAAAAAAgAAAAQAAABTAAAAcygAAAB0AABqAQB8AACDAQB9AQB0AABqAgB8AAB8AQBnAgBk\nAQBkAgCDAQFTKQNO2gRheGlz6QIAAAApA9oBS9oKemVyb3NfbGlrZdoLY29uY2F0ZW5hdGUpAtoB\neNoBeakAcggAAAD6Ni9tZWRpYS91dXNlci9kYXRhLzk5NS1JQ1UgIHBsdXNlIGZldHVyZS9zcmMv\nbmV0d29yay5wedoHemVyb3BhZKgAAABzBAAAAAABDwE=\n", null, null], "output_shape_type": "lambda", "name": "lambda_3", "function_type": "lambda", "arguments": {}, "trainable": true, "output_shape": ["4wEAAAAAAAAAAgAAAAQAAABTAAAAczwAAAB0AAB8AACDAQB9AQB0AQB8AQCDAQBkAQBrAgBzJAB0\nAgCCAQB8AQBkAgAFGWQCADkDPHQDAHwBAIMBAFMpA07pAwAAAOkCAAAAKQTaBGxpc3TaA2xlbtoO\nQXNzZXJ0aW9uRXJyb3LaBXR1cGxlKQLaC2lucHV0X3NoYXBl2gVzaGFwZakAcgkAAAD6Ni9tZWRp\nYS91dXNlci9kYXRhLzk5NS1JQ1UgIHBsdXNlIGZldHVyZS9zcmMvbmV0d29yay5wedoUemVyb3Bh\nZF9vdXRwdXRfc2hhcGWsAAAAcwgAAAAAAQwBGAEOAQ==\n", null, null]}, "name": "lambda_3", "inbound_nodes": [[["max_pooling1d_13", 0, 0, {}]]]}, {"class_name": "LeakyReLU", "config": {"alpha": 0.30000001192092896, "trainable": true, "name": "leaky_re_lu_53"}, "name": "leaky_re_lu_53", "inbound_nodes": [[["batch_normalization_53", 0, 0, {}]]]}, {"class_name": "Add", "config": {"trainable": true, "name": "add_13"}, "name": "add_13", "inbound_nodes": [[["lambda_3", 0, 0, {}], ["leaky_re_lu_53", 0, 0, {}]]]}, {"class_name": "BatchNormalization", "config": {"epsilon": 0.001, "scale": true, "center": true, "gamma_constraint": null, "beta_constraint": null, "gamma_regularizer": null, "gamma_initializer": {"class_name": "Ones", "config": {}}, "trainable": true, "name": "batch_normalization_54", "moving_mean_initializer": {"class_name": "Zeros", "config": {}}, "beta_initializer": {"class_name": "Zeros", "config": {}}, "beta_regularizer": null, "axis": -1, "momentum": 0.99, "moving_variance_initializer": {"class_name": "Ones", "config": {}}}, "name": "batch_normalization_54", "inbound_nodes": [[["add_13", 0, 0, {}]]]}, {"class_name": "LeakyReLU", "config": {"alpha": 0.30000001192092896, "trainable": true, "name": "leaky_re_lu_54"}, "name": "leaky_re_lu_54", "inbound_nodes": [[["batch_normalization_54", 0, 0, {}]]]}, {"class_name": "SeparableConv1D", "config": {"padding": "same", "data_format": "channels_last", "filters": 256, "bias_initializer": {"class_name": "Zeros", "config": {}}, "activity_regularizer": null, "strides": [2], "depthwise_regularizer": null, "depthwise_constraint": null, "trainable": true, "name": "separable_conv1d_82", "depthwise_initializer": {"class_name": "VarianceScaling", "config": {"scale": 1.0, "distribution": "uniform", "mode": "fan_avg", "seed": null}}, "pointwise_regularizer": null, "kernel_size": [16], "dilation_rate": [1], "bias_regularizer": null, "activation": "linear", "depth_multiplier": 1, "pointwise_initializer": {"class_name": "VarianceScaling", "config": {"scale": 1.0, "distribution": "uniform", "mode": "fan_avg", "seed": null}}, "use_bias": true, "pointwise_constraint": null, "bias_constraint": null}, "name": "separable_conv1d_82", "inbound_nodes": [[["leaky_re_lu_54", 0, 0, {}]]]}, {"class_name": "SeparableConv1D", "config": {"padding": "same", "data_format": "channels_last", "filters": 256, "bias_initializer": {"class_name": "Zeros", "config": {}}, "activity_regularizer": null, "strides": [2], "depthwise_regularizer": null, "depthwise_constraint": null, "trainable": true, "name": "separable_conv1d_83", "depthwise_initializer": {"class_name": "VarianceScaling", "config": {"scale": 1.0, "distribution": "uniform", "mode": "fan_avg", "seed": null}}, "pointwise_regularizer": null, "kernel_size": [32], "dilation_rate": [1], "bias_regularizer": null, "activation": "linear", "depth_multiplier": 1, "pointwise_initializer": {"class_name": "VarianceScaling", "config": {"scale": 1.0, "distribution": "uniform", "mode": "fan_avg", "seed": null}}, "use_bias": true, "pointwise_constraint": null, "bias_constraint": null}, "name": "separable_conv1d_83", "inbound_nodes": [[["leaky_re_lu_54", 0, 0, {}]]]}, {"class_name": "Concatenate", "config": {"axis": 2, "trainable": true, "name": "concatenate_28"}, "name": "concatenate_28", "inbound_nodes": [[["separable_conv1d_82", 0, 0, {}], ["separable_conv1d_83", 0, 0, {}]]]}, {"class_name": "SeparableConv1D", "config": {"padding": "same", "data_format": "channels_last", "filters": 256, "bias_initializer": {"class_name": "Zeros", "config": {}}, "activity_regularizer": null, "strides": [1], "depthwise_regularizer": null, "depthwise_constraint": null, "trainable": true, "name": "separable_conv1d_84", "depthwise_initializer": {"class_name": "VarianceScaling", "config": {"scale": 1.0, "distribution": "uniform", "mode": "fan_avg", "seed": null}}, "pointwise_regularizer": null, "kernel_size": [2], "dilation_rate": [1], "bias_regularizer": null, "activation": "linear", "depth_multiplier": 1, "pointwise_initializer": {"class_name": "VarianceScaling", "config": {"scale": 1.0, "distribution": "uniform", "mode": "fan_avg", "seed": null}}, "use_bias": true, "pointwise_constraint": null, "bias_constraint": null}, "name": "separable_conv1d_84", "inbound_nodes": [[["concatenate_28", 0, 0, {}]]]}, {"class_name": "BatchNormalization", "config": {"epsilon": 0.001, "scale": true, "center": true, "gamma_constraint": null, "beta_constraint": null, "gamma_regularizer": null, "gamma_initializer": {"class_name": "Ones", "config": {}}, "trainable": true, "name": "batch_normalization_55", "moving_mean_initializer": {"class_name": "Zeros", "config": {}}, "beta_initializer": {"class_name": "Zeros", "config": {}}, "beta_regularizer": null, "axis": -1, "momentum": 0.99, "moving_variance_initializer": {"class_name": "Ones", "config": {}}}, "name": "batch_normalization_55", "inbound_nodes": [[["separable_conv1d_84", 0, 0, {}]]]}, {"class_name": "LeakyReLU", "config": {"alpha": 0.30000001192092896, "trainable": true, "name": "leaky_re_lu_55"}, "name": "leaky_re_lu_55", "inbound_nodes": [[["batch_normalization_55", 0, 0, {}]]]}, {"class_name": "BatchNormalization", "config": {"epsilon": 0.001, "scale": true, "center": true, "gamma_constraint": null, "beta_constraint": null, "gamma_regularizer": null, "gamma_initializer": {"class_name": "Ones", "config": {}}, "trainable": true, "name": "batch_normalization_56", "moving_mean_initializer": {"class_name": "Zeros", "config": {}}, "beta_initializer": {"class_name": "Zeros", "config": {}}, "beta_regularizer": null, "axis": -1, "momentum": 0.99, "moving_variance_initializer": {"class_name": "Ones", "config": {}}}, "name": "batch_normalization_56", "inbound_nodes": [[["leaky_re_lu_55", 0, 0, {}]]]}, {"class_name": "LeakyReLU", "config": {"alpha": 0.30000001192092896, "trainable": true, "name": "leaky_re_lu_56"}, "name": "leaky_re_lu_56", "inbound_nodes": [[["batch_normalization_56", 0, 0, {}]]]}, {"class_name": "Dropout", "config": {"noise_shape": null, "seed": null, "trainable": true, "name": "dropout_14", "rate": 0.3}, "name": "dropout_14", "inbound_nodes": [[["leaky_re_lu_56", 0, 0, {}]]]}, {"class_name": "SeparableConv1D", "config": {"padding": "same", "data_format": "channels_last", "filters": 256, "bias_initializer": {"class_name": "Zeros", "config": {}}, "activity_regularizer": null, "strides": [1], "depthwise_regularizer": null, "depthwise_constraint": null, "trainable": true, "name": "separable_conv1d_85", "depthwise_initializer": {"class_name": "VarianceScaling", "config": {"scale": 1.0, "distribution": "uniform", "mode": "fan_avg", "seed": null}}, "pointwise_regularizer": null, "kernel_size": [16], "dilation_rate": [1], "bias_regularizer": null, "activation": "linear", "depth_multiplier": 1, "pointwise_initializer": {"class_name": "VarianceScaling", "config": {"scale": 1.0, "distribution": "uniform", "mode": "fan_avg", "seed": null}}, "use_bias": true, "pointwise_constraint": null, "bias_constraint": null}, "name": "separable_conv1d_85", "inbound_nodes": [[["dropout_14", 0, 0, {}]]]}, {"class_name": "SeparableConv1D", "config": {"padding": "same", "data_format": "channels_last", "filters": 256, "bias_initializer": {"class_name": "Zeros", "config": {}}, "activity_regularizer": null, "strides": [1], "depthwise_regularizer": null, "depthwise_constraint": null, "trainable": true, "name": "separable_conv1d_86", "depthwise_initializer": {"class_name": "VarianceScaling", "config": {"scale": 1.0, "distribution": "uniform", "mode": "fan_avg", "seed": null}}, "pointwise_regularizer": null, "kernel_size": [32], "dilation_rate": [1], "bias_regularizer": null, "activation": "linear", "depth_multiplier": 1, "pointwise_initializer": {"class_name": "VarianceScaling", "config": {"scale": 1.0, "distribution": "uniform", "mode": "fan_avg", "seed": null}}, "use_bias": true, "pointwise_constraint": null, "bias_constraint": null}, "name": "separable_conv1d_86", "inbound_nodes": [[["dropout_14", 0, 0, {}]]]}, {"class_name": "Concatenate", "config": {"axis": 2, "trainable": true, "name": "concatenate_29"}, "name": "concatenate_29", "inbound_nodes": [[["separable_conv1d_85", 0, 0, {}], ["separable_conv1d_86", 0, 0, {}]]]}, {"class_name": "SeparableConv1D", "config": {"padding": "same", "data_format": "channels_last", "filters": 256, "bias_initializer": {"class_name": "Zeros", "config": {}}, "activity_regularizer": null, "strides": [1], "depthwise_regularizer": null, "depthwise_constraint": null, "trainable": true, "name": "separable_conv1d_87", "depthwise_initializer": {"class_name": "VarianceScaling", "config": {"scale": 1.0, "distribution": "uniform", "mode": "fan_avg", "seed": null}}, "pointwise_regularizer": null, "kernel_size": [1], "dilation_rate": [1], "bias_regularizer": null, "activation": "linear", "depth_multiplier": 1, "pointwise_initializer": {"class_name": "VarianceScaling", "config": {"scale": 1.0, "distribution": "uniform", "mode": "fan_avg", "seed": null}}, "use_bias": true, "pointwise_constraint": null, "bias_constraint": null}, "name": "separable_conv1d_87", "inbound_nodes": [[["concatenate_29", 0, 0, {}]]]}, {"class_name": "BatchNormalization", "config": {"epsilon": 0.001, "scale": true, "center": true, "gamma_constraint": null, "beta_constraint": null, "gamma_regularizer": null, "gamma_initializer": {"class_name": "Ones", "config": {}}, "trainable": true, "name": "batch_normalization_57", "moving_mean_initializer": {"class_name": "Zeros", "config": {}}, "beta_initializer": {"class_name": "Zeros", "config": {}}, "beta_regularizer": null, "axis": -1, "momentum": 0.99, "moving_variance_initializer": {"class_name": "Ones", "config": {}}}, "name": "batch_normalization_57", "inbound_nodes": [[["separable_conv1d_87", 0, 0, {}]]]}, {"class_name": "MaxPooling1D", "config": {"padding": "valid", "data_format": "channels_last", "strides": [2], "pool_size": [2], "trainable": true, "name": "max_pooling1d_14"}, "name": "max_pooling1d_14", "inbound_nodes": [[["add_13", 0, 0, {}]]]}, {"class_name": "LeakyReLU", "config": {"alpha": 0.30000001192092896, "trainable": true, "name": "leaky_re_lu_57"}, "name": "leaky_re_lu_57", "inbound_nodes": [[["batch_normalization_57", 0, 0, {}]]]}, {"class_name": "Add", "config": {"trainable": true, "name": "add_14"}, "name": "add_14", "inbound_nodes": [[["max_pooling1d_14", 0, 0, {}], ["leaky_re_lu_57", 0, 0, {}]]]}, {"class_name": "BatchNormalization", "config": {"epsilon": 0.001, "scale": true, "center": true, "gamma_constraint": null, "beta_constraint": null, "gamma_regularizer": null, "gamma_initializer": {"class_name": "Ones", "config": {}}, "trainable": true, "name": "batch_normalization_58", "moving_mean_initializer": {"class_name": "Zeros", "config": {}}, "beta_initializer": {"class_name": "Zeros", "config": {}}, "beta_regularizer": null, "axis": -1, "momentum": 0.99, "moving_variance_initializer": {"class_name": "Ones", "config": {}}}, "name": "batch_normalization_58", "inbound_nodes": [[["add_14", 0, 0, {}]]]}, {"class_name": "LeakyReLU", "config": {"alpha": 0.30000001192092896, "trainable": true, "name": "leaky_re_lu_58"}, "name": "leaky_re_lu_58", "inbound_nodes": [[["batch_normalization_58", 0, 0, {}]]]}, {"class_name": "SeparableConv1D", "config": {"padding": "same", "data_format": "channels_last", "filters": 256, "bias_initializer": {"class_name": "Zeros", "config": {}}, "activity_regularizer": null, "strides": [1], "depthwise_regularizer": null, "depthwise_constraint": null, "trainable": true, "name": "separable_conv1d_88", "depthwise_initializer": {"class_name": "VarianceScaling", "config": {"scale": 1.0, "distribution": "uniform", "mode": "fan_avg", "seed": null}}, "pointwise_regularizer": null, "kernel_size": [16], "dilation_rate": [1], "bias_regularizer": null, "activation": "linear", "depth_multiplier": 1, "pointwise_initializer": {"class_name": "VarianceScaling", "config": {"scale": 1.0, "distribution": "uniform", "mode": "fan_avg", "seed": null}}, "use_bias": true, "pointwise_constraint": null, "bias_constraint": null}, "name": "separable_conv1d_88", "inbound_nodes": [[["leaky_re_lu_58", 0, 0, {}]]]}, {"class_name": "SeparableConv1D", "config": {"padding": "same", "data_format": "channels_last", "filters": 256, "bias_initializer": {"class_name": "Zeros", "config": {}}, "activity_regularizer": null, "strides": [1], "depthwise_regularizer": null, "depthwise_constraint": null, "trainable": true, "name": "separable_conv1d_89", "depthwise_initializer": {"class_name": "VarianceScaling", "config": {"scale": 1.0, "distribution": "uniform", "mode": "fan_avg", "seed": null}}, "pointwise_regularizer": null, "kernel_size": [32], "dilation_rate": [1], "bias_regularizer": null, "activation": "linear", "depth_multiplier": 1, "pointwise_initializer": {"class_name": "VarianceScaling", "config": {"scale": 1.0, "distribution": "uniform", "mode": "fan_avg", "seed": null}}, "use_bias": true, "pointwise_constraint": null, "bias_constraint": null}, "name": "separable_conv1d_89", "inbound_nodes": [[["leaky_re_lu_58", 0, 0, {}]]]}, {"class_name": "Concatenate", "config": {"axis": 2, "trainable": true, "name": "concatenate_30"}, "name": "concatenate_30", "inbound_nodes": [[["separable_conv1d_88", 0, 0, {}], ["separable_conv1d_89", 0, 0, {}]]]}, {"class_name": "SeparableConv1D", "config": {"padding": "same", "data_format": "channels_last", "filters": 256, "bias_initializer": {"class_name": "Zeros", "config": {}}, "activity_regularizer": null, "strides": [1], "depthwise_regularizer": null, "depthwise_constraint": null, "trainable": true, "name": "separable_conv1d_90", "depthwise_initializer": {"class_name": "VarianceScaling", "config": {"scale": 1.0, "distribution": "uniform", "mode": "fan_avg", "seed": null}}, "pointwise_regularizer": null, "kernel_size": [1], "dilation_rate": [1], "bias_regularizer": null, "activation": "linear", "depth_multiplier": 1, "pointwise_initializer": {"class_name": "VarianceScaling", "config": {"scale": 1.0, "distribution": "uniform", "mode": "fan_avg", "seed": null}}, "use_bias": true, "pointwise_constraint": null, "bias_constraint": null}, "name": "separable_conv1d_90", "inbound_nodes": [[["concatenate_30", 0, 0, {}]]]}, {"class_name": "BatchNormalization", "config": {"epsilon": 0.001, "scale": true, "center": true, "gamma_constraint": null, "beta_constraint": null, "gamma_regularizer": null, "gamma_initializer": {"class_name": "Ones", "config": {}}, "trainable": true, "name": "batch_normalization_59", "moving_mean_initializer": {"class_name": "Zeros", "config": {}}, "beta_initializer": {"class_name": "Zeros", "config": {}}, "beta_regularizer": null, "axis": -1, "momentum": 0.99, "moving_variance_initializer": {"class_name": "Ones", "config": {}}}, "name": "batch_normalization_59", "inbound_nodes": [[["separable_conv1d_90", 0, 0, {}]]]}, {"class_name": "LeakyReLU", "config": {"alpha": 0.30000001192092896, "trainable": true, "name": "leaky_re_lu_59"}, "name": "leaky_re_lu_59", "inbound_nodes": [[["batch_normalization_59", 0, 0, {}]]]}, {"class_name": "BatchNormalization", "config": {"epsilon": 0.001, "scale": true, "center": true, "gamma_constraint": null, "beta_constraint": null, "gamma_regularizer": null, "gamma_initializer": {"class_name": "Ones", "config": {}}, "trainable": true, "name": "batch_normalization_60", "moving_mean_initializer": {"class_name": "Zeros", "config": {}}, "beta_initializer": {"class_name": "Zeros", "config": {}}, "beta_regularizer": null, "axis": -1, "momentum": 0.99, "moving_variance_initializer": {"class_name": "Ones", "config": {}}}, "name": "batch_normalization_60", "inbound_nodes": [[["leaky_re_lu_59", 0, 0, {}]]]}, {"class_name": "LeakyReLU", "config": {"alpha": 0.30000001192092896, "trainable": true, "name": "leaky_re_lu_60"}, "name": "leaky_re_lu_60", "inbound_nodes": [[["batch_normalization_60", 0, 0, {}]]]}, {"class_name": "Dropout", "config": {"noise_shape": null, "seed": null, "trainable": true, "name": "dropout_15", "rate": 0.3}, "name": "dropout_15", "inbound_nodes": [[["leaky_re_lu_60", 0, 0, {}]]]}, {"class_name": "SeparableConv1D", "config": {"padding": "same", "data_format": "channels_last", "filters": 256, "bias_initializer": {"class_name": "Zeros", "config": {}}, "activity_regularizer": null, "strides": [1], "depthwise_regularizer": null, "depthwise_constraint": null, "trainable": true, "name": "separable_conv1d_91", "depthwise_initializer": {"class_name": "VarianceScaling", "config": {"scale": 1.0, "distribution": "uniform", "mode": "fan_avg", "seed": null}}, "pointwise_regularizer": null, "kernel_size": [16], "dilation_rate": [1], "bias_regularizer": null, "activation": "linear", "depth_multiplier": 1, "pointwise_initializer": {"class_name": "VarianceScaling", "config": {"scale": 1.0, "distribution": "uniform", "mode": "fan_avg", "seed": null}}, "use_bias": true, "pointwise_constraint": null, "bias_constraint": null}, "name": "separable_conv1d_91", "inbound_nodes": [[["dropout_15", 0, 0, {}]]]}, {"class_name": "SeparableConv1D", "config": {"padding": "same", "data_format": "channels_last", "filters": 256, "bias_initializer": {"class_name": "Zeros", "config": {}}, "activity_regularizer": null, "strides": [1], "depthwise_regularizer": null, "depthwise_constraint": null, "trainable": true, "name": "separable_conv1d_92", "depthwise_initializer": {"class_name": "VarianceScaling", "config": {"scale": 1.0, "distribution": "uniform", "mode": "fan_avg", "seed": null}}, "pointwise_regularizer": null, "kernel_size": [32], "dilation_rate": [1], "bias_regularizer": null, "activation": "linear", "depth_multiplier": 1, "pointwise_initializer": {"class_name": "VarianceScaling", "config": {"scale": 1.0, "distribution": "uniform", "mode": "fan_avg", "seed": null}}, "use_bias": true, "pointwise_constraint": null, "bias_constraint": null}, "name": "separable_conv1d_92", "inbound_nodes": [[["dropout_15", 0, 0, {}]]]}, {"class_name": "Concatenate", "config": {"axis": 2, "trainable": true, "name": "concatenate_31"}, "name": "concatenate_31", "inbound_nodes": [[["separable_conv1d_91", 0, 0, {}], ["separable_conv1d_92", 0, 0, {}]]]}, {"class_name": "SeparableConv1D", "config": {"padding": "same", "data_format": "channels_last", "filters": 256, "bias_initializer": {"class_name": "Zeros", "config": {}}, "activity_regularizer": null, "strides": [1], "depthwise_regularizer": null, "depthwise_constraint": null, "trainable": true, "name": "separable_conv1d_93", "depthwise_initializer": {"class_name": "VarianceScaling", "config": {"scale": 1.0, "distribution": "uniform", "mode": "fan_avg", "seed": null}}, "pointwise_regularizer": null, "kernel_size": [1], "dilation_rate": [1], "bias_regularizer": null, "activation": "linear", "depth_multiplier": 1, "pointwise_initializer": {"class_name": "VarianceScaling", "config": {"scale": 1.0, "distribution": "uniform", "mode": "fan_avg", "seed": null}}, "use_bias": true, "pointwise_constraint": null, "bias_constraint": null}, "name": "separable_conv1d_93", "inbound_nodes": [[["concatenate_31", 0, 0, {}]]]}, {"class_name": "BatchNormalization", "config": {"epsilon": 0.001, "scale": true, "center": true, "gamma_constraint": null, "beta_constraint": null, "gamma_regularizer": null, "gamma_initializer": {"class_name": "Ones", "config": {}}, "trainable": true, "name": "batch_normalization_61", "moving_mean_initializer": {"class_name": "Zeros", "config": {}}, "beta_initializer": {"class_name": "Zeros", "config": {}}, "beta_regularizer": null, "axis": -1, "momentum": 0.99, "moving_variance_initializer": {"class_name": "Ones", "config": {}}}, "name": "batch_normalization_61", "inbound_nodes": [[["separable_conv1d_93", 0, 0, {}]]]}, {"class_name": "MaxPooling1D", "config": {"padding": "valid", "data_format": "channels_last", "strides": [1], "pool_size": [1], "trainable": true, "name": "max_pooling1d_15"}, "name": "max_pooling1d_15", "inbound_nodes": [[["add_14", 0, 0, {}]]]}, {"class_name": "LeakyReLU", "config": {"alpha": 0.30000001192092896, "trainable": true, "name": "leaky_re_lu_61"}, "name": "leaky_re_lu_61", "inbound_nodes": [[["batch_normalization_61", 0, 0, {}]]]}, {"class_name": "Add", "config": {"trainable": true, "name": "add_15"}, "name": "add_15", "inbound_nodes": [[["max_pooling1d_15", 0, 0, {}], ["leaky_re_lu_61", 0, 0, {}]]]}, {"class_name": "BatchNormalization", "config": {"epsilon": 0.001, "scale": true, "center": true, "gamma_constraint": null, "beta_constraint": null, "gamma_regularizer": null, "gamma_initializer": {"class_name": "Ones", "config": {}}, "trainable": true, "name": "batch_normalization_62", "moving_mean_initializer": {"class_name": "Zeros", "config": {}}, "beta_initializer": {"class_name": "Zeros", "config": {}}, "beta_regularizer": null, "axis": -1, "momentum": 0.99, "moving_variance_initializer": {"class_name": "Ones", "config": {}}}, "name": "batch_normalization_62", "inbound_nodes": [[["add_15", 0, 0, {}]]]}, {"class_name": "LeakyReLU", "config": {"alpha": 0.30000001192092896, "trainable": true, "name": "leaky_re_lu_62"}, "name": "leaky_re_lu_62", "inbound_nodes": [[["batch_normalization_62", 0, 0, {}]]]}, {"class_name": "SeparableConv1D", "config": {"padding": "same", "data_format": "channels_last", "filters": 256, "bias_initializer": {"class_name": "Zeros", "config": {}}, "activity_regularizer": null, "strides": [2], "depthwise_regularizer": null, "depthwise_constraint": null, "trainable": true, "name": "separable_conv1d_94", "depthwise_initializer": {"class_name": "VarianceScaling", "config": {"scale": 1.0, "distribution": "uniform", "mode": "fan_avg", "seed": null}}, "pointwise_regularizer": null, "kernel_size": [16], "dilation_rate": [1], "bias_regularizer": null, "activation": "linear", "depth_multiplier": 1, "pointwise_initializer": {"class_name": "VarianceScaling", "config": {"scale": 1.0, "distribution": "uniform", "mode": "fan_avg", "seed": null}}, "use_bias": true, "pointwise_constraint": null, "bias_constraint": null}, "name": "separable_conv1d_94", "inbound_nodes": [[["leaky_re_lu_62", 0, 0, {}]]]}, {"class_name": "SeparableConv1D", "config": {"padding": "same", "data_format": "channels_last", "filters": 256, "bias_initializer": {"class_name": "Zeros", "config": {}}, "activity_regularizer": null, "strides": [2], "depthwise_regularizer": null, "depthwise_constraint": null, "trainable": true, "name": "separable_conv1d_95", "depthwise_initializer": {"class_name": "VarianceScaling", "config": {"scale": 1.0, "distribution": "uniform", "mode": "fan_avg", "seed": null}}, "pointwise_regularizer": null, "kernel_size": [32], "dilation_rate": [1], "bias_regularizer": null, "activation": "linear", "depth_multiplier": 1, "pointwise_initializer": {"class_name": "VarianceScaling", "config": {"scale": 1.0, "distribution": "uniform", "mode": "fan_avg", "seed": null}}, "use_bias": true, "pointwise_constraint": null, "bias_constraint": null}, "name": "separable_conv1d_95", "inbound_nodes": [[["leaky_re_lu_62", 0, 0, {}]]]}, {"class_name": "Concatenate", "config": {"axis": 2, "trainable": true, "name": "concatenate_32"}, "name": "concatenate_32", "inbound_nodes": [[["separable_conv1d_94", 0, 0, {}], ["separable_conv1d_95", 0, 0, {}]]]}, {"class_name": "SeparableConv1D", "config": {"padding": "same", "data_format": "channels_last", "filters": 256, "bias_initializer": {"class_name": "Zeros", "config": {}}, "activity_regularizer": null, "strides": [1], "depthwise_regularizer": null, "depthwise_constraint": null, "trainable": true, "name": "separable_conv1d_96", "depthwise_initializer": {"class_name": "VarianceScaling", "config": {"scale": 1.0, "distribution": "uniform", "mode": "fan_avg", "seed": null}}, "pointwise_regularizer": null, "kernel_size": [2], "dilation_rate": [1], "bias_regularizer": null, "activation": "linear", "depth_multiplier": 1, "pointwise_initializer": {"class_name": "VarianceScaling", "config": {"scale": 1.0, "distribution": "uniform", "mode": "fan_avg", "seed": null}}, "use_bias": true, "pointwise_constraint": null, "bias_constraint": null}, "name": "separable_conv1d_96", "inbound_nodes": [[["concatenate_32", 0, 0, {}]]]}, {"class_name": "BatchNormalization", "config": {"epsilon": 0.001, "scale": true, "center": true, "gamma_constraint": null, "beta_constraint": null, "gamma_regularizer": null, "gamma_initializer": {"class_name": "Ones", "config": {}}, "trainable": true, "name": "batch_normalization_63", "moving_mean_initializer": {"class_name": "Zeros", "config": {}}, "beta_initializer": {"class_name": "Zeros", "config": {}}, "beta_regularizer": null, "axis": -1, "momentum": 0.99, "moving_variance_initializer": {"class_name": "Ones", "config": {}}}, "name": "batch_normalization_63", "inbound_nodes": [[["separable_conv1d_96", 0, 0, {}]]]}, {"class_name": "LeakyReLU", "config": {"alpha": 0.30000001192092896, "trainable": true, "name": "leaky_re_lu_63"}, "name": "leaky_re_lu_63", "inbound_nodes": [[["batch_normalization_63", 0, 0, {}]]]}, {"class_name": "BatchNormalization", "config": {"epsilon": 0.001, "scale": true, "center": true, "gamma_constraint": null, "beta_constraint": null, "gamma_regularizer": null, "gamma_initializer": {"class_name": "Ones", "config": {}}, "trainable": true, "name": "batch_normalization_64", "moving_mean_initializer": {"class_name": "Zeros", "config": {}}, "beta_initializer": {"class_name": "Zeros", "config": {}}, "beta_regularizer": null, "axis": -1, "momentum": 0.99, "moving_variance_initializer": {"class_name": "Ones", "config": {}}}, "name": "batch_normalization_64", "inbound_nodes": [[["leaky_re_lu_63", 0, 0, {}]]]}, {"class_name": "LeakyReLU", "config": {"alpha": 0.30000001192092896, "trainable": true, "name": "leaky_re_lu_64"}, "name": "leaky_re_lu_64", "inbound_nodes": [[["batch_normalization_64", 0, 0, {}]]]}, {"class_name": "Dropout", "config": {"noise_shape": null, "seed": null, "trainable": true, "name": "dropout_16", "rate": 0.3}, "name": "dropout_16", "inbound_nodes": [[["leaky_re_lu_64", 0, 0, {}]]]}, {"class_name": "SeparableConv1D", "config": {"padding": "same", "data_format": "channels_last", "filters": 256, "bias_initializer": {"class_name": "Zeros", "config": {}}, "activity_regularizer": null, "strides": [1], "depthwise_regularizer": null, "depthwise_constraint": null, "trainable": true, "name": "separable_conv1d_97", "depthwise_initializer": {"class_name": "VarianceScaling", "config": {"scale": 1.0, "distribution": "uniform", "mode": "fan_avg", "seed": null}}, "pointwise_regularizer": null, "kernel_size": [16], "dilation_rate": [1], "bias_regularizer": null, "activation": "linear", "depth_multiplier": 1, "pointwise_initializer": {"class_name": "VarianceScaling", "config": {"scale": 1.0, "distribution": "uniform", "mode": "fan_avg", "seed": null}}, "use_bias": true, "pointwise_constraint": null, "bias_constraint": null}, "name": "separable_conv1d_97", "inbound_nodes": [[["dropout_16", 0, 0, {}]]]}, {"class_name": "SeparableConv1D", "config": {"padding": "same", "data_format": "channels_last", "filters": 256, "bias_initializer": {"class_name": "Zeros", "config": {}}, "activity_regularizer": null, "strides": [1], "depthwise_regularizer": null, "depthwise_constraint": null, "trainable": true, "name": "separable_conv1d_98", "depthwise_initializer": {"class_name": "VarianceScaling", "config": {"scale": 1.0, "distribution": "uniform", "mode": "fan_avg", "seed": null}}, "pointwise_regularizer": null, "kernel_size": [32], "dilation_rate": [1], "bias_regularizer": null, "activation": "linear", "depth_multiplier": 1, "pointwise_initializer": {"class_name": "VarianceScaling", "config": {"scale": 1.0, "distribution": "uniform", "mode": "fan_avg", "seed": null}}, "use_bias": true, "pointwise_constraint": null, "bias_constraint": null}, "name": "separable_conv1d_98", "inbound_nodes": [[["dropout_16", 0, 0, {}]]]}, {"class_name": "Concatenate", "config": {"axis": 2, "trainable": true, "name": "concatenate_33"}, "name": "concatenate_33", "inbound_nodes": [[["separable_conv1d_97", 0, 0, {}], ["separable_conv1d_98", 0, 0, {}]]]}, {"class_name": "SeparableConv1D", "config": {"padding": "same", "data_format": "channels_last", "filters": 256, "bias_initializer": {"class_name": "Zeros", "config": {}}, "activity_regularizer": null, "strides": [1], "depthwise_regularizer": null, "depthwise_constraint": null, "trainable": true, "name": "separable_conv1d_99", "depthwise_initializer": {"class_name": "VarianceScaling", "config": {"scale": 1.0, "distribution": "uniform", "mode": "fan_avg", "seed": null}}, "pointwise_regularizer": null, "kernel_size": [1], "dilation_rate": [1], "bias_regularizer": null, "activation": "linear", "depth_multiplier": 1, "pointwise_initializer": {"class_name": "VarianceScaling", "config": {"scale": 1.0, "distribution": "uniform", "mode": "fan_avg", "seed": null}}, "use_bias": true, "pointwise_constraint": null, "bias_constraint": null}, "name": "separable_conv1d_99", "inbound_nodes": [[["concatenate_33", 0, 0, {}]]]}, {"class_name": "BatchNormalization", "config": {"epsilon": 0.001, "scale": true, "center": true, "gamma_constraint": null, "beta_constraint": null, "gamma_regularizer": null, "gamma_initializer": {"class_name": "Ones", "config": {}}, "trainable": true, "name": "batch_normalization_65", "moving_mean_initializer": {"class_name": "Zeros", "config": {}}, "beta_initializer": {"class_name": "Zeros", "config": {}}, "beta_regularizer": null, "axis": -1, "momentum": 0.99, "moving_variance_initializer": {"class_name": "Ones", "config": {}}}, "name": "batch_normalization_65", "inbound_nodes": [[["separable_conv1d_99", 0, 0, {}]]]}, {"class_name": "MaxPooling1D", "config": {"padding": "valid", "data_format": "channels_last", "strides": [2], "pool_size": [2], "trainable": true, "name": "max_pooling1d_16"}, "name": "max_pooling1d_16", "inbound_nodes": [[["add_15", 0, 0, {}]]]}, {"class_name": "LeakyReLU", "config": {"alpha": 0.30000001192092896, "trainable": true, "name": "leaky_re_lu_65"}, "name": "leaky_re_lu_65", "inbound_nodes": [[["batch_normalization_65", 0, 0, {}]]]}, {"class_name": "Add", "config": {"trainable": true, "name": "add_16"}, "name": "add_16", "inbound_nodes": [[["max_pooling1d_16", 0, 0, {}], ["leaky_re_lu_65", 0, 0, {}]]]}, {"class_name": "BatchNormalization", "config": {"epsilon": 0.001, "scale": true, "center": true, "gamma_constraint": null, "beta_constraint": null, "gamma_regularizer": null, "gamma_initializer": {"class_name": "Ones", "config": {}}, "trainable": true, "name": "batch_normalization_66", "moving_mean_initializer": {"class_name": "Zeros", "config": {}}, "beta_initializer": {"class_name": "Zeros", "config": {}}, "beta_regularizer": null, "axis": -1, "momentum": 0.99, "moving_variance_initializer": {"class_name": "Ones", "config": {}}}, "name": "batch_normalization_66", "inbound_nodes": [[["add_16", 0, 0, {}]]]}, {"class_name": "LeakyReLU", "config": {"alpha": 0.30000001192092896, "trainable": true, "name": "leaky_re_lu_66"}, "name": "leaky_re_lu_66", "inbound_nodes": [[["batch_normalization_66", 0, 0, {}]]]}, {"class_name": "Flatten", "config": {"data_format": "channels_last", "trainable": true, "name": "flatten_1"}, "name": "flatten_1", "inbound_nodes": [[["leaky_re_lu_66", 0, 0, {}]]]}, {"class_name": "Dropout", "config": {"noise_shape": null, "seed": null, "trainable": true, "name": "dropout_17", "rate": 0.3}, "name": "dropout_17", "inbound_nodes": [[["flatten_1", 0, 0, {}]]]}, {"class_name": "Dense", "config": {"units": 9, "bias_initializer": {"class_name": "Zeros", "config": {}}, "activity_regularizer": null, "kernel_initializer": {"class_name": "VarianceScaling", "config": {"scale": 1.0, "distribution": "uniform", "mode": "fan_avg", "seed": null}}, "kernel_constraint": null, "bias_regularizer": null, "trainable": true, "name": "dense_1", "use_bias": true, "activation": "linear", "kernel_regularizer": null, "bias_constraint": null}, "name": "dense_1", "inbound_nodes": [[["dropout_17", 0, 0, {}]]]}, {"class_name": "Activation", "config": {"activation": "sigmoid", "trainable": true, "name": "activation_1"}, "name": "activation_1", "inbound_nodes": [[["dense_1", 0, 0, {}]]]}], "output_layers": [["activation_1", 0, 0]], "name": "model_1"}, "keras_version": "2.2.4", "backend": "tensorflow"}