{"backend": "tensorflow", "config": {"name": "model_1", "layers": [{"inbound_nodes": [], "name": "inputs", "config": {"dtype": "float32", "sparse": false, "batch_input_shape": [null, 4096, 12], "name": "inputs"}, "class_name": "InputLayer"}, {"inbound_nodes": [[["inputs", 0, 0, {}]]], "name": "separable_conv1d_1", "config": {"bias_constraint": null, "name": "separable_conv1d_1", "bias_initializer": {"config": {}, "class_name": "Zeros"}, "use_bias": true, "dilation_rate": [1], "depthwise_constraint": null, "bias_regularizer": null, "depth_multiplier": 1, "depthwise_regularizer": null, "depthwise_initializer": {"config": {"scale": 1.0, "mode": "fan_avg", "seed": null, "distribution": "uniform"}, "class_name": "VarianceScaling"}, "pointwise_constraint": null, "pointwise_regularizer": null, "data_format": "channels_last", "activity_regularizer": null, "kernel_size": [16], "strides": [1], "activation": "linear", "padding": "same", "pointwise_initializer": {"config": {"scale": 1.0, "mode": "fan_avg", "seed": null, "distribution": "uniform"}, "class_name": "VarianceScaling"}, "filters": 32, "trainable": true}, "class_name": "SeparableConv1D"}, {"inbound_nodes": [[["inputs", 0, 0, {}]]], "name": "separable_conv1d_2", "config": {"bias_constraint": null, "name": "separable_conv1d_2", "bias_initializer": {"config": {}, "class_name": "Zeros"}, "use_bias": true, "dilation_rate": [1], "depthwise_constraint": null, "bias_regularizer": null, "depth_multiplier": 1, "depthwise_regularizer": null, "depthwise_initializer": {"config": {"scale": 1.0, "mode": "fan_avg", "seed": null, "distribution": "uniform"}, "class_name": "VarianceScaling"}, "pointwise_constraint": null, "pointwise_regularizer": null, "data_format": "channels_last", "activity_regularizer": null, "kernel_size": [32], "strides": [1], "activation": "linear", "padding": "same", "pointwise_initializer": {"config": {"scale": 1.0, "mode": "fan_avg", "seed": null, "distribution": "uniform"}, "class_name": "VarianceScaling"}, "filters": 32, "trainable": true}, "class_name": "SeparableConv1D"}, {"inbound_nodes": [[["separable_conv1d_1", 0, 0, {}], ["separable_conv1d_2", 0, 0, {}]]], "name": "concatenate_1", "config": {"name": "concatenate_1", "trainable": true, "axis": 2}, "class_name": "Concatenate"}, {"inbound_nodes": [[["concatenate_1", 0, 0, {}]]], "name": "separable_conv1d_3", "config": {"bias_constraint": null, "name": "separable_conv1d_3", "bias_initializer": {"config": {}, "class_name": "Zeros"}, "use_bias": true, "dilation_rate": [1], "depthwise_constraint": null, "bias_regularizer": null, "depth_multiplier": 1, "depthwise_regularizer": null, "depthwise_initializer": {"config": {"scale": 1.0, "mode": "fan_avg", "seed": null, "distribution": "uniform"}, "class_name": "VarianceScaling"}, "pointwise_constraint": null, "pointwise_regularizer": null, "data_format": "channels_last", "activity_regularizer": null, "kernel_size": [1], "strides": [1], "activation": "linear", "padding": "same", "pointwise_initializer": {"config": {"scale": 1.0, "mode": "fan_avg", "seed": null, "distribution": "uniform"}, "class_name": "VarianceScaling"}, "filters": 32, "trainable": true}, "class_name": "SeparableConv1D"}, {"inbound_nodes": [[["separable_conv1d_3", 0, 0, {}]]], "name": "batch_normalization_1", "config": {"moving_variance_initializer": {"config": {}, "class_name": "Ones"}, "trainable": true, "axis": -1, "name": "batch_normalization_1", "gamma_regularizer": null, "gamma_initializer": {"config": {}, "class_name": "Ones"}, "beta_initializer": {"config": {}, "class_name": "Zeros"}, "moving_mean_initializer": {"config": {}, "class_name": "Zeros"}, "scale": true, "center": true, "momentum": 0.99, "beta_regularizer": null, "beta_constraint": null, "gamma_constraint": null, "epsilon": 0.001}, "class_name": "BatchNormalization"}, {"inbound_nodes": [[["batch_normalization_1", 0, 0, {}]]], "name": "leaky_re_lu_1", "config": {"name": "leaky_re_lu_1", "trainable": true, "alpha": 0.30000001192092896}, "class_name": "LeakyReLU"}, {"inbound_nodes": [[["leaky_re_lu_1", 0, 0, {}]]], "name": "batch_normalization_2", "config": {"moving_variance_initializer": {"config": {}, "class_name": "Ones"}, "trainable": true, "axis": -1, "name": "batch_normalization_2", "gamma_regularizer": null, "gamma_initializer": {"config": {}, "class_name": "Ones"}, "beta_initializer": {"config": {}, "class_name": "Zeros"}, "moving_mean_initializer": {"config": {}, "class_name": "Zeros"}, "scale": true, "center": true, "momentum": 0.99, "beta_regularizer": null, "beta_constraint": null, "gamma_constraint": null, "epsilon": 0.001}, "class_name": "BatchNormalization"}, {"inbound_nodes": [[["batch_normalization_2", 0, 0, {}]]], "name": "leaky_re_lu_2", "config": {"name": "leaky_re_lu_2", "trainable": true, "alpha": 0.30000001192092896}, "class_name": "LeakyReLU"}, {"inbound_nodes": [[["leaky_re_lu_2", 0, 0, {}]]], "name": "separable_conv1d_4", "config": {"bias_constraint": null, "name": "separable_conv1d_4", "bias_initializer": {"config": {}, "class_name": "Zeros"}, "use_bias": true, "dilation_rate": [1], "depthwise_constraint": null, "bias_regularizer": null, "depth_multiplier": 1, "depthwise_regularizer": null, "depthwise_initializer": {"config": {"scale": 1.0, "mode": "fan_avg", "seed": null, "distribution": "uniform"}, "class_name": "VarianceScaling"}, "pointwise_constraint": null, "pointwise_regularizer": null, "data_format": "channels_last", "activity_regularizer": null, "kernel_size": [16], "strides": [1], "activation": "linear", "padding": "same", "pointwise_initializer": {"config": {"scale": 1.0, "mode": "fan_avg", "seed": null, "distribution": "uniform"}, "class_name": "VarianceScaling"}, "filters": 32, "trainable": true}, "class_name": "SeparableConv1D"}, {"inbound_nodes": [[["leaky_re_lu_2", 0, 0, {}]]], "name": "separable_conv1d_5", "config": {"bias_constraint": null, "name": "separable_conv1d_5", "bias_initializer": {"config": {}, "class_name": "Zeros"}, "use_bias": true, "dilation_rate": [1], "depthwise_constraint": null, "bias_regularizer": null, "depth_multiplier": 1, "depthwise_regularizer": null, "depthwise_initializer": {"config": {"scale": 1.0, "mode": "fan_avg", "seed": null, "distribution": "uniform"}, "class_name": "VarianceScaling"}, "pointwise_constraint": null, "pointwise_regularizer": null, "data_format": "channels_last", "activity_regularizer": null, "kernel_size": [32], "strides": [1], "activation": "linear", "padding": "same", "pointwise_initializer": {"config": {"scale": 1.0, "mode": "fan_avg", "seed": null, "distribution": "uniform"}, "class_name": "VarianceScaling"}, "filters": 32, "trainable": true}, "class_name": "SeparableConv1D"}, {"inbound_nodes": [[["separable_conv1d_4", 0, 0, {}], ["separable_conv1d_5", 0, 0, {}]]], "name": "concatenate_2", "config": {"name": "concatenate_2", "trainable": true, "axis": 2}, "class_name": "Concatenate"}, {"inbound_nodes": [[["concatenate_2", 0, 0, {}]]], "name": "separable_conv1d_6", "config": {"bias_constraint": null, "name": "separable_conv1d_6", "bias_initializer": {"config": {}, "class_name": "Zeros"}, "use_bias": true, "dilation_rate": [1], "depthwise_constraint": null, "bias_regularizer": null, "depth_multiplier": 1, "depthwise_regularizer": null, "depthwise_initializer": {"config": {"scale": 1.0, "mode": "fan_avg", "seed": null, "distribution": "uniform"}, "class_name": "VarianceScaling"}, "pointwise_constraint": null, "pointwise_regularizer": null, "data_format": "channels_last", "activity_regularizer": null, "kernel_size": [1], "strides": [1], "activation": "linear", "padding": "same", "pointwise_initializer": {"config": {"scale": 1.0, "mode": "fan_avg", "seed": null, "distribution": "uniform"}, "class_name": "VarianceScaling"}, "filters": 32, "trainable": true}, "class_name": "SeparableConv1D"}, {"inbound_nodes": [[["separable_conv1d_6", 0, 0, {}]]], "name": "batch_normalization_3", "config": {"moving_variance_initializer": {"config": {}, "class_name": "Ones"}, "trainable": true, "axis": -1, "name": "batch_normalization_3", "gamma_regularizer": null, "gamma_initializer": {"config": {}, "class_name": "Ones"}, "beta_initializer": {"config": {}, "class_name": "Zeros"}, "moving_mean_initializer": {"config": {}, "class_name": "Zeros"}, "scale": true, "center": true, "momentum": 0.99, "beta_regularizer": null, "beta_constraint": null, "gamma_constraint": null, "epsilon": 0.001}, "class_name": "BatchNormalization"}, {"inbound_nodes": [[["batch_normalization_3", 0, 0, {}]]], "name": "leaky_re_lu_3", "config": {"name": "leaky_re_lu_3", "trainable": true, "alpha": 0.30000001192092896}, "class_name": "LeakyReLU"}, {"inbound_nodes": [[["leaky_re_lu_3", 0, 0, {}]]], "name": "batch_normalization_4", "config": {"moving_variance_initializer": {"config": {}, "class_name": "Ones"}, "trainable": true, "axis": -1, "name": "batch_normalization_4", "gamma_regularizer": null, "gamma_initializer": {"config": {}, "class_name": "Ones"}, "beta_initializer": {"config": {}, "class_name": "Zeros"}, "moving_mean_initializer": {"config": {}, "class_name": "Zeros"}, "scale": true, "center": true, "momentum": 0.99, "beta_regularizer": null, "beta_constraint": null, "gamma_constraint": null, "epsilon": 0.001}, "class_name": "BatchNormalization"}, {"inbound_nodes": [[["batch_normalization_4", 0, 0, {}]]], "name": "leaky_re_lu_4", "config": {"name": "leaky_re_lu_4", "trainable": true, "alpha": 0.30000001192092896}, "class_name": "LeakyReLU"}, {"inbound_nodes": [[["leaky_re_lu_4", 0, 0, {}]]], "name": "dropout_1", "config": {"noise_shape": null, "name": "dropout_1", "seed": null, "trainable": true, "rate": 0.3}, "class_name": "Dropout"}, {"inbound_nodes": [[["dropout_1", 0, 0, {}]]], "name": "separable_conv1d_7", "config": {"bias_constraint": null, "name": "separable_conv1d_7", "bias_initializer": {"config": {}, "class_name": "Zeros"}, "use_bias": true, "dilation_rate": [1], "depthwise_constraint": null, "bias_regularizer": null, "depth_multiplier": 1, "depthwise_regularizer": null, "depthwise_initializer": {"config": {"scale": 1.0, "mode": "fan_avg", "seed": null, "distribution": "uniform"}, "class_name": "VarianceScaling"}, "pointwise_constraint": null, "pointwise_regularizer": null, "data_format": "channels_last", "activity_regularizer": null, "kernel_size": [16], "strides": [1], "activation": "linear", "padding": "same", "pointwise_initializer": {"config": {"scale": 1.0, "mode": "fan_avg", "seed": null, "distribution": "uniform"}, "class_name": "VarianceScaling"}, "filters": 32, "trainable": true}, "class_name": "SeparableConv1D"}, {"inbound_nodes": [[["dropout_1", 0, 0, {}]]], "name": "separable_conv1d_8", "config": {"bias_constraint": null, "name": "separable_conv1d_8", "bias_initializer": {"config": {}, "class_name": "Zeros"}, "use_bias": true, "dilation_rate": [1], "depthwise_constraint": null, "bias_regularizer": null, "depth_multiplier": 1, "depthwise_regularizer": null, "depthwise_initializer": {"config": {"scale": 1.0, "mode": "fan_avg", "seed": null, "distribution": "uniform"}, "class_name": "VarianceScaling"}, "pointwise_constraint": null, "pointwise_regularizer": null, "data_format": "channels_last", "activity_regularizer": null, "kernel_size": [32], "strides": [1], "activation": "linear", "padding": "same", "pointwise_initializer": {"config": {"scale": 1.0, "mode": "fan_avg", "seed": null, "distribution": "uniform"}, "class_name": "VarianceScaling"}, "filters": 32, "trainable": true}, "class_name": "SeparableConv1D"}, {"inbound_nodes": [[["separable_conv1d_7", 0, 0, {}], ["separable_conv1d_8", 0, 0, {}]]], "name": "concatenate_3", "config": {"name": "concatenate_3", "trainable": true, "axis": 2}, "class_name": "Concatenate"}, {"inbound_nodes": [[["concatenate_3", 0, 0, {}]]], "name": "separable_conv1d_9", "config": {"bias_constraint": null, "name": "separable_conv1d_9", "bias_initializer": {"config": {}, "class_name": "Zeros"}, "use_bias": true, "dilation_rate": [1], "depthwise_constraint": null, "bias_regularizer": null, "depth_multiplier": 1, "depthwise_regularizer": null, "depthwise_initializer": {"config": {"scale": 1.0, "mode": "fan_avg", "seed": null, "distribution": "uniform"}, "class_name": "VarianceScaling"}, "pointwise_constraint": null, "pointwise_regularizer": null, "data_format": "channels_last", "activity_regularizer": null, "kernel_size": [1], "strides": [1], "activation": "linear", "padding": "same", "pointwise_initializer": {"config": {"scale": 1.0, "mode": "fan_avg", "seed": null, "distribution": "uniform"}, "class_name": "VarianceScaling"}, "filters": 32, "trainable": true}, "class_name": "SeparableConv1D"}, {"inbound_nodes": [[["separable_conv1d_9", 0, 0, {}]]], "name": "batch_normalization_5", "config": {"moving_variance_initializer": {"config": {}, "class_name": "Ones"}, "trainable": true, "axis": -1, "name": "batch_normalization_5", "gamma_regularizer": null, "gamma_initializer": {"config": {}, "class_name": "Ones"}, "beta_initializer": {"config": {}, "class_name": "Zeros"}, "moving_mean_initializer": {"config": {}, "class_name": "Zeros"}, "scale": true, "center": true, "momentum": 0.99, "beta_regularizer": null, "beta_constraint": null, "gamma_constraint": null, "epsilon": 0.001}, "class_name": "BatchNormalization"}, {"inbound_nodes": [[["leaky_re_lu_2", 0, 0, {}]]], "name": "max_pooling1d_1", "config": {"data_format": "channels_last", "name": "max_pooling1d_1", "strides": [1], "trainable": true, "pool_size": [1], "padding": "valid"}, "class_name": "MaxPooling1D"}, {"inbound_nodes": [[["batch_normalization_5", 0, 0, {}]]], "name": "leaky_re_lu_5", "config": {"name": "leaky_re_lu_5", "trainable": true, "alpha": 0.30000001192092896}, "class_name": "LeakyReLU"}, {"inbound_nodes": [[["max_pooling1d_1", 0, 0, {}], ["leaky_re_lu_5", 0, 0, {}]]], "name": "add_1", "config": {"name": "add_1", "trainable": true}, "class_name": "Add"}, {"inbound_nodes": [[["add_1", 0, 0, {}]]], "name": "batch_normalization_6", "config": {"moving_variance_initializer": {"config": {}, "class_name": "Ones"}, "trainable": true, "axis": -1, "name": "batch_normalization_6", "gamma_regularizer": null, "gamma_initializer": {"config": {}, "class_name": "Ones"}, "beta_initializer": {"config": {}, "class_name": "Zeros"}, "moving_mean_initializer": {"config": {}, "class_name": "Zeros"}, "scale": true, "center": true, "momentum": 0.99, "beta_regularizer": null, "beta_constraint": null, "gamma_constraint": null, "epsilon": 0.001}, "class_name": "BatchNormalization"}, {"inbound_nodes": [[["batch_normalization_6", 0, 0, {}]]], "name": "leaky_re_lu_6", "config": {"name": "leaky_re_lu_6", "trainable": true, "alpha": 0.30000001192092896}, "class_name": "LeakyReLU"}, {"inbound_nodes": [[["leaky_re_lu_6", 0, 0, {}]]], "name": "separable_conv1d_10", "config": {"bias_constraint": null, "name": "separable_conv1d_10", "bias_initializer": {"config": {}, "class_name": "Zeros"}, "use_bias": true, "dilation_rate": [1], "depthwise_constraint": null, "bias_regularizer": null, "depth_multiplier": 1, "depthwise_regularizer": null, "depthwise_initializer": {"config": {"scale": 1.0, "mode": "fan_avg", "seed": null, "distribution": "uniform"}, "class_name": "VarianceScaling"}, "pointwise_constraint": null, "pointwise_regularizer": null, "data_format": "channels_last", "activity_regularizer": null, "kernel_size": [16], "strides": [2], "activation": "linear", "padding": "same", "pointwise_initializer": {"config": {"scale": 1.0, "mode": "fan_avg", "seed": null, "distribution": "uniform"}, "class_name": "VarianceScaling"}, "filters": 32, "trainable": true}, "class_name": "SeparableConv1D"}, {"inbound_nodes": [[["leaky_re_lu_6", 0, 0, {}]]], "name": "separable_conv1d_11", "config": {"bias_constraint": null, "name": "separable_conv1d_11", "bias_initializer": {"config": {}, "class_name": "Zeros"}, "use_bias": true, "dilation_rate": [1], "depthwise_constraint": null, "bias_regularizer": null, "depth_multiplier": 1, "depthwise_regularizer": null, "depthwise_initializer": {"config": {"scale": 1.0, "mode": "fan_avg", "seed": null, "distribution": "uniform"}, "class_name": "VarianceScaling"}, "pointwise_constraint": null, "pointwise_regularizer": null, "data_format": "channels_last", "activity_regularizer": null, "kernel_size": [32], "strides": [2], "activation": "linear", "padding": "same", "pointwise_initializer": {"config": {"scale": 1.0, "mode": "fan_avg", "seed": null, "distribution": "uniform"}, "class_name": "VarianceScaling"}, "filters": 32, "trainable": true}, "class_name": "SeparableConv1D"}, {"inbound_nodes": [[["separable_conv1d_10", 0, 0, {}], ["separable_conv1d_11", 0, 0, {}]]], "name": "concatenate_4", "config": {"name": "concatenate_4", "trainable": true, "axis": 2}, "class_name": "Concatenate"}, {"inbound_nodes": [[["concatenate_4", 0, 0, {}]]], "name": "separable_conv1d_12", "config": {"bias_constraint": null, "name": "separable_conv1d_12", "bias_initializer": {"config": {}, "class_name": "Zeros"}, "use_bias": true, "dilation_rate": [1], "depthwise_constraint": null, "bias_regularizer": null, "depth_multiplier": 1, "depthwise_regularizer": null, "depthwise_initializer": {"config": {"scale": 1.0, "mode": "fan_avg", "seed": null, "distribution": "uniform"}, "class_name": "VarianceScaling"}, "pointwise_constraint": null, "pointwise_regularizer": null, "data_format": "channels_last", "activity_regularizer": null, "kernel_size": [2], "strides": [1], "activation": "linear", "padding": "same", "pointwise_initializer": {"config": {"scale": 1.0, "mode": "fan_avg", "seed": null, "distribution": "uniform"}, "class_name": "VarianceScaling"}, "filters": 32, "trainable": true}, "class_name": "SeparableConv1D"}, {"inbound_nodes": [[["separable_conv1d_12", 0, 0, {}]]], "name": "batch_normalization_7", "config": {"moving_variance_initializer": {"config": {}, "class_name": "Ones"}, "trainable": true, "axis": -1, "name": "batch_normalization_7", "gamma_regularizer": null, "gamma_initializer": {"config": {}, "class_name": "Ones"}, "beta_initializer": {"config": {}, "class_name": "Zeros"}, "moving_mean_initializer": {"config": {}, "class_name": "Zeros"}, "scale": true, "center": true, "momentum": 0.99, "beta_regularizer": null, "beta_constraint": null, "gamma_constraint": null, "epsilon": 0.001}, "class_name": "BatchNormalization"}, {"inbound_nodes": [[["batch_normalization_7", 0, 0, {}]]], "name": "leaky_re_lu_7", "config": {"name": "leaky_re_lu_7", "trainable": true, "alpha": 0.30000001192092896}, "class_name": "LeakyReLU"}, {"inbound_nodes": [[["leaky_re_lu_7", 0, 0, {}]]], "name": "batch_normalization_8", "config": {"moving_variance_initializer": {"config": {}, "class_name": "Ones"}, "trainable": true, "axis": -1, "name": "batch_normalization_8", "gamma_regularizer": null, "gamma_initializer": {"config": {}, "class_name": "Ones"}, "beta_initializer": {"config": {}, "class_name": "Zeros"}, "moving_mean_initializer": {"config": {}, "class_name": "Zeros"}, "scale": true, "center": true, "momentum": 0.99, "beta_regularizer": null, "beta_constraint": null, "gamma_constraint": null, "epsilon": 0.001}, "class_name": "BatchNormalization"}, {"inbound_nodes": [[["batch_normalization_8", 0, 0, {}]]], "name": "leaky_re_lu_8", "config": {"name": "leaky_re_lu_8", "trainable": true, "alpha": 0.30000001192092896}, "class_name": "LeakyReLU"}, {"inbound_nodes": [[["leaky_re_lu_8", 0, 0, {}]]], "name": "dropout_2", "config": {"noise_shape": null, "name": "dropout_2", "seed": null, "trainable": true, "rate": 0.3}, "class_name": "Dropout"}, {"inbound_nodes": [[["dropout_2", 0, 0, {}]]], "name": "separable_conv1d_13", "config": {"bias_constraint": null, "name": "separable_conv1d_13", "bias_initializer": {"config": {}, "class_name": "Zeros"}, "use_bias": true, "dilation_rate": [1], "depthwise_constraint": null, "bias_regularizer": null, "depth_multiplier": 1, "depthwise_regularizer": null, "depthwise_initializer": {"config": {"scale": 1.0, "mode": "fan_avg", "seed": null, "distribution": "uniform"}, "class_name": "VarianceScaling"}, "pointwise_constraint": null, "pointwise_regularizer": null, "data_format": "channels_last", "activity_regularizer": null, "kernel_size": [16], "strides": [1], "activation": "linear", "padding": "same", "pointwise_initializer": {"config": {"scale": 1.0, "mode": "fan_avg", "seed": null, "distribution": "uniform"}, "class_name": "VarianceScaling"}, "filters": 32, "trainable": true}, "class_name": "SeparableConv1D"}, {"inbound_nodes": [[["dropout_2", 0, 0, {}]]], "name": "separable_conv1d_14", "config": {"bias_constraint": null, "name": "separable_conv1d_14", "bias_initializer": {"config": {}, "class_name": "Zeros"}, "use_bias": true, "dilation_rate": [1], "depthwise_constraint": null, "bias_regularizer": null, "depth_multiplier": 1, "depthwise_regularizer": null, "depthwise_initializer": {"config": {"scale": 1.0, "mode": "fan_avg", "seed": null, "distribution": "uniform"}, "class_name": "VarianceScaling"}, "pointwise_constraint": null, "pointwise_regularizer": null, "data_format": "channels_last", "activity_regularizer": null, "kernel_size": [32], "strides": [1], "activation": "linear", "padding": "same", "pointwise_initializer": {"config": {"scale": 1.0, "mode": "fan_avg", "seed": null, "distribution": "uniform"}, "class_name": "VarianceScaling"}, "filters": 32, "trainable": true}, "class_name": "SeparableConv1D"}, {"inbound_nodes": [[["separable_conv1d_13", 0, 0, {}], ["separable_conv1d_14", 0, 0, {}]]], "name": "concatenate_5", "config": {"name": "concatenate_5", "trainable": true, "axis": 2}, "class_name": "Concatenate"}, {"inbound_nodes": [[["concatenate_5", 0, 0, {}]]], "name": "separable_conv1d_15", "config": {"bias_constraint": null, "name": "separable_conv1d_15", "bias_initializer": {"config": {}, "class_name": "Zeros"}, "use_bias": true, "dilation_rate": [1], "depthwise_constraint": null, "bias_regularizer": null, "depth_multiplier": 1, "depthwise_regularizer": null, "depthwise_initializer": {"config": {"scale": 1.0, "mode": "fan_avg", "seed": null, "distribution": "uniform"}, "class_name": "VarianceScaling"}, "pointwise_constraint": null, "pointwise_regularizer": null, "data_format": "channels_last", "activity_regularizer": null, "kernel_size": [1], "strides": [1], "activation": "linear", "padding": "same", "pointwise_initializer": {"config": {"scale": 1.0, "mode": "fan_avg", "seed": null, "distribution": "uniform"}, "class_name": "VarianceScaling"}, "filters": 32, "trainable": true}, "class_name": "SeparableConv1D"}, {"inbound_nodes": [[["separable_conv1d_15", 0, 0, {}]]], "name": "batch_normalization_9", "config": {"moving_variance_initializer": {"config": {}, "class_name": "Ones"}, "trainable": true, "axis": -1, "name": "batch_normalization_9", "gamma_regularizer": null, "gamma_initializer": {"config": {}, "class_name": "Ones"}, "beta_initializer": {"config": {}, "class_name": "Zeros"}, "moving_mean_initializer": {"config": {}, "class_name": "Zeros"}, "scale": true, "center": true, "momentum": 0.99, "beta_regularizer": null, "beta_constraint": null, "gamma_constraint": null, "epsilon": 0.001}, "class_name": "BatchNormalization"}, {"inbound_nodes": [[["add_1", 0, 0, {}]]], "name": "max_pooling1d_2", "config": {"data_format": "channels_last", "name": "max_pooling1d_2", "strides": [2], "trainable": true, "pool_size": [2], "padding": "valid"}, "class_name": "MaxPooling1D"}, {"inbound_nodes": [[["batch_normalization_9", 0, 0, {}]]], "name": "leaky_re_lu_9", "config": {"name": "leaky_re_lu_9", "trainable": true, "alpha": 0.30000001192092896}, "class_name": "LeakyReLU"}, {"inbound_nodes": [[["max_pooling1d_2", 0, 0, {}], ["leaky_re_lu_9", 0, 0, {}]]], "name": "add_2", "config": {"name": "add_2", "trainable": true}, "class_name": "Add"}, {"inbound_nodes": [[["add_2", 0, 0, {}]]], "name": "batch_normalization_10", "config": {"moving_variance_initializer": {"config": {}, "class_name": "Ones"}, "trainable": true, "axis": -1, "name": "batch_normalization_10", "gamma_regularizer": null, "gamma_initializer": {"config": {}, "class_name": "Ones"}, "beta_initializer": {"config": {}, "class_name": "Zeros"}, "moving_mean_initializer": {"config": {}, "class_name": "Zeros"}, "scale": true, "center": true, "momentum": 0.99, "beta_regularizer": null, "beta_constraint": null, "gamma_constraint": null, "epsilon": 0.001}, "class_name": "BatchNormalization"}, {"inbound_nodes": [[["batch_normalization_10", 0, 0, {}]]], "name": "leaky_re_lu_10", "config": {"name": "leaky_re_lu_10", "trainable": true, "alpha": 0.30000001192092896}, "class_name": "LeakyReLU"}, {"inbound_nodes": [[["leaky_re_lu_10", 0, 0, {}]]], "name": "separable_conv1d_16", "config": {"bias_constraint": null, "name": "separable_conv1d_16", "bias_initializer": {"config": {}, "class_name": "Zeros"}, "use_bias": true, "dilation_rate": [1], "depthwise_constraint": null, "bias_regularizer": null, "depth_multiplier": 1, "depthwise_regularizer": null, "depthwise_initializer": {"config": {"scale": 1.0, "mode": "fan_avg", "seed": null, "distribution": "uniform"}, "class_name": "VarianceScaling"}, "pointwise_constraint": null, "pointwise_regularizer": null, "data_format": "channels_last", "activity_regularizer": null, "kernel_size": [16], "strides": [1], "activation": "linear", "padding": "same", "pointwise_initializer": {"config": {"scale": 1.0, "mode": "fan_avg", "seed": null, "distribution": "uniform"}, "class_name": "VarianceScaling"}, "filters": 32, "trainable": true}, "class_name": "SeparableConv1D"}, {"inbound_nodes": [[["leaky_re_lu_10", 0, 0, {}]]], "name": "separable_conv1d_17", "config": {"bias_constraint": null, "name": "separable_conv1d_17", "bias_initializer": {"config": {}, "class_name": "Zeros"}, "use_bias": true, "dilation_rate": [1], "depthwise_constraint": null, "bias_regularizer": null, "depth_multiplier": 1, "depthwise_regularizer": null, "depthwise_initializer": {"config": {"scale": 1.0, "mode": "fan_avg", "seed": null, "distribution": "uniform"}, "class_name": "VarianceScaling"}, "pointwise_constraint": null, "pointwise_regularizer": null, "data_format": "channels_last", "activity_regularizer": null, "kernel_size": [32], "strides": [1], "activation": "linear", "padding": "same", "pointwise_initializer": {"config": {"scale": 1.0, "mode": "fan_avg", "seed": null, "distribution": "uniform"}, "class_name": "VarianceScaling"}, "filters": 32, "trainable": true}, "class_name": "SeparableConv1D"}, {"inbound_nodes": [[["separable_conv1d_16", 0, 0, {}], ["separable_conv1d_17", 0, 0, {}]]], "name": "concatenate_6", "config": {"name": "concatenate_6", "trainable": true, "axis": 2}, "class_name": "Concatenate"}, {"inbound_nodes": [[["concatenate_6", 0, 0, {}]]], "name": "separable_conv1d_18", "config": {"bias_constraint": null, "name": "separable_conv1d_18", "bias_initializer": {"config": {}, "class_name": "Zeros"}, "use_bias": true, "dilation_rate": [1], "depthwise_constraint": null, "bias_regularizer": null, "depth_multiplier": 1, "depthwise_regularizer": null, "depthwise_initializer": {"config": {"scale": 1.0, "mode": "fan_avg", "seed": null, "distribution": "uniform"}, "class_name": "VarianceScaling"}, "pointwise_constraint": null, "pointwise_regularizer": null, "data_format": "channels_last", "activity_regularizer": null, "kernel_size": [1], "strides": [1], "activation": "linear", "padding": "same", "pointwise_initializer": {"config": {"scale": 1.0, "mode": "fan_avg", "seed": null, "distribution": "uniform"}, "class_name": "VarianceScaling"}, "filters": 32, "trainable": true}, "class_name": "SeparableConv1D"}, {"inbound_nodes": [[["separable_conv1d_18", 0, 0, {}]]], "name": "batch_normalization_11", "config": {"moving_variance_initializer": {"config": {}, "class_name": "Ones"}, "trainable": true, "axis": -1, "name": "batch_normalization_11", "gamma_regularizer": null, "gamma_initializer": {"config": {}, "class_name": "Ones"}, "beta_initializer": {"config": {}, "class_name": "Zeros"}, "moving_mean_initializer": {"config": {}, "class_name": "Zeros"}, "scale": true, "center": true, "momentum": 0.99, "beta_regularizer": null, "beta_constraint": null, "gamma_constraint": null, "epsilon": 0.001}, "class_name": "BatchNormalization"}, {"inbound_nodes": [[["batch_normalization_11", 0, 0, {}]]], "name": "leaky_re_lu_11", "config": {"name": "leaky_re_lu_11", "trainable": true, "alpha": 0.30000001192092896}, "class_name": "LeakyReLU"}, {"inbound_nodes": [[["leaky_re_lu_11", 0, 0, {}]]], "name": "batch_normalization_12", "config": {"moving_variance_initializer": {"config": {}, "class_name": "Ones"}, "trainable": true, "axis": -1, "name": "batch_normalization_12", "gamma_regularizer": null, "gamma_initializer": {"config": {}, "class_name": "Ones"}, "beta_initializer": {"config": {}, "class_name": "Zeros"}, "moving_mean_initializer": {"config": {}, "class_name": "Zeros"}, "scale": true, "center": true, "momentum": 0.99, "beta_regularizer": null, "beta_constraint": null, "gamma_constraint": null, "epsilon": 0.001}, "class_name": "BatchNormalization"}, {"inbound_nodes": [[["batch_normalization_12", 0, 0, {}]]], "name": "leaky_re_lu_12", "config": {"name": "leaky_re_lu_12", "trainable": true, "alpha": 0.30000001192092896}, "class_name": "LeakyReLU"}, {"inbound_nodes": [[["leaky_re_lu_12", 0, 0, {}]]], "name": "dropout_3", "config": {"noise_shape": null, "name": "dropout_3", "seed": null, "trainable": true, "rate": 0.3}, "class_name": "Dropout"}, {"inbound_nodes": [[["dropout_3", 0, 0, {}]]], "name": "separable_conv1d_19", "config": {"bias_constraint": null, "name": "separable_conv1d_19", "bias_initializer": {"config": {}, "class_name": "Zeros"}, "use_bias": true, "dilation_rate": [1], "depthwise_constraint": null, "bias_regularizer": null, "depth_multiplier": 1, "depthwise_regularizer": null, "depthwise_initializer": {"config": {"scale": 1.0, "mode": "fan_avg", "seed": null, "distribution": "uniform"}, "class_name": "VarianceScaling"}, "pointwise_constraint": null, "pointwise_regularizer": null, "data_format": "channels_last", "activity_regularizer": null, "kernel_size": [16], "strides": [1], "activation": "linear", "padding": "same", "pointwise_initializer": {"config": {"scale": 1.0, "mode": "fan_avg", "seed": null, "distribution": "uniform"}, "class_name": "VarianceScaling"}, "filters": 32, "trainable": true}, "class_name": "SeparableConv1D"}, {"inbound_nodes": [[["dropout_3", 0, 0, {}]]], "name": "separable_conv1d_20", "config": {"bias_constraint": null, "name": "separable_conv1d_20", "bias_initializer": {"config": {}, "class_name": "Zeros"}, "use_bias": true, "dilation_rate": [1], "depthwise_constraint": null, "bias_regularizer": null, "depth_multiplier": 1, "depthwise_regularizer": null, "depthwise_initializer": {"config": {"scale": 1.0, "mode": "fan_avg", "seed": null, "distribution": "uniform"}, "class_name": "VarianceScaling"}, "pointwise_constraint": null, "pointwise_regularizer": null, "data_format": "channels_last", "activity_regularizer": null, "kernel_size": [32], "strides": [1], "activation": "linear", "padding": "same", "pointwise_initializer": {"config": {"scale": 1.0, "mode": "fan_avg", "seed": null, "distribution": "uniform"}, "class_name": "VarianceScaling"}, "filters": 32, "trainable": true}, "class_name": "SeparableConv1D"}, {"inbound_nodes": [[["separable_conv1d_19", 0, 0, {}], ["separable_conv1d_20", 0, 0, {}]]], "name": "concatenate_7", "config": {"name": "concatenate_7", "trainable": true, "axis": 2}, "class_name": "Concatenate"}, {"inbound_nodes": [[["concatenate_7", 0, 0, {}]]], "name": "separable_conv1d_21", "config": {"bias_constraint": null, "name": "separable_conv1d_21", "bias_initializer": {"config": {}, "class_name": "Zeros"}, "use_bias": true, "dilation_rate": [1], "depthwise_constraint": null, "bias_regularizer": null, "depth_multiplier": 1, "depthwise_regularizer": null, "depthwise_initializer": {"config": {"scale": 1.0, "mode": "fan_avg", "seed": null, "distribution": "uniform"}, "class_name": "VarianceScaling"}, "pointwise_constraint": null, "pointwise_regularizer": null, "data_format": "channels_last", "activity_regularizer": null, "kernel_size": [1], "strides": [1], "activation": "linear", "padding": "same", "pointwise_initializer": {"config": {"scale": 1.0, "mode": "fan_avg", "seed": null, "distribution": "uniform"}, "class_name": "VarianceScaling"}, "filters": 32, "trainable": true}, "class_name": "SeparableConv1D"}, {"inbound_nodes": [[["separable_conv1d_21", 0, 0, {}]]], "name": "batch_normalization_13", "config": {"moving_variance_initializer": {"config": {}, "class_name": "Ones"}, "trainable": true, "axis": -1, "name": "batch_normalization_13", "gamma_regularizer": null, "gamma_initializer": {"config": {}, "class_name": "Ones"}, "beta_initializer": {"config": {}, "class_name": "Zeros"}, "moving_mean_initializer": {"config": {}, "class_name": "Zeros"}, "scale": true, "center": true, "momentum": 0.99, "beta_regularizer": null, "beta_constraint": null, "gamma_constraint": null, "epsilon": 0.001}, "class_name": "BatchNormalization"}, {"inbound_nodes": [[["add_2", 0, 0, {}]]], "name": "max_pooling1d_3", "config": {"data_format": "channels_last", "name": "max_pooling1d_3", "strides": [1], "trainable": true, "pool_size": [1], "padding": "valid"}, "class_name": "MaxPooling1D"}, {"inbound_nodes": [[["batch_normalization_13", 0, 0, {}]]], "name": "leaky_re_lu_13", "config": {"name": "leaky_re_lu_13", "trainable": true, "alpha": 0.30000001192092896}, "class_name": "LeakyReLU"}, {"inbound_nodes": [[["max_pooling1d_3", 0, 0, {}], ["leaky_re_lu_13", 0, 0, {}]]], "name": "add_3", "config": {"name": "add_3", "trainable": true}, "class_name": "Add"}, {"inbound_nodes": [[["add_3", 0, 0, {}]]], "name": "batch_normalization_14", "config": {"moving_variance_initializer": {"config": {}, "class_name": "Ones"}, "trainable": true, "axis": -1, "name": "batch_normalization_14", "gamma_regularizer": null, "gamma_initializer": {"config": {}, "class_name": "Ones"}, "beta_initializer": {"config": {}, "class_name": "Zeros"}, "moving_mean_initializer": {"config": {}, "class_name": "Zeros"}, "scale": true, "center": true, "momentum": 0.99, "beta_regularizer": null, "beta_constraint": null, "gamma_constraint": null, "epsilon": 0.001}, "class_name": "BatchNormalization"}, {"inbound_nodes": [[["batch_normalization_14", 0, 0, {}]]], "name": "leaky_re_lu_14", "config": {"name": "leaky_re_lu_14", "trainable": true, "alpha": 0.30000001192092896}, "class_name": "LeakyReLU"}, {"inbound_nodes": [[["leaky_re_lu_14", 0, 0, {}]]], "name": "separable_conv1d_22", "config": {"bias_constraint": null, "name": "separable_conv1d_22", "bias_initializer": {"config": {}, "class_name": "Zeros"}, "use_bias": true, "dilation_rate": [1], "depthwise_constraint": null, "bias_regularizer": null, "depth_multiplier": 1, "depthwise_regularizer": null, "depthwise_initializer": {"config": {"scale": 1.0, "mode": "fan_avg", "seed": null, "distribution": "uniform"}, "class_name": "VarianceScaling"}, "pointwise_constraint": null, "pointwise_regularizer": null, "data_format": "channels_last", "activity_regularizer": null, "kernel_size": [16], "strides": [2], "activation": "linear", "padding": "same", "pointwise_initializer": {"config": {"scale": 1.0, "mode": "fan_avg", "seed": null, "distribution": "uniform"}, "class_name": "VarianceScaling"}, "filters": 32, "trainable": true}, "class_name": "SeparableConv1D"}, {"inbound_nodes": [[["leaky_re_lu_14", 0, 0, {}]]], "name": "separable_conv1d_23", "config": {"bias_constraint": null, "name": "separable_conv1d_23", "bias_initializer": {"config": {}, "class_name": "Zeros"}, "use_bias": true, "dilation_rate": [1], "depthwise_constraint": null, "bias_regularizer": null, "depth_multiplier": 1, "depthwise_regularizer": null, "depthwise_initializer": {"config": {"scale": 1.0, "mode": "fan_avg", "seed": null, "distribution": "uniform"}, "class_name": "VarianceScaling"}, "pointwise_constraint": null, "pointwise_regularizer": null, "data_format": "channels_last", "activity_regularizer": null, "kernel_size": [32], "strides": [2], "activation": "linear", "padding": "same", "pointwise_initializer": {"config": {"scale": 1.0, "mode": "fan_avg", "seed": null, "distribution": "uniform"}, "class_name": "VarianceScaling"}, "filters": 32, "trainable": true}, "class_name": "SeparableConv1D"}, {"inbound_nodes": [[["separable_conv1d_22", 0, 0, {}], ["separable_conv1d_23", 0, 0, {}]]], "name": "concatenate_8", "config": {"name": "concatenate_8", "trainable": true, "axis": 2}, "class_name": "Concatenate"}, {"inbound_nodes": [[["concatenate_8", 0, 0, {}]]], "name": "separable_conv1d_24", "config": {"bias_constraint": null, "name": "separable_conv1d_24", "bias_initializer": {"config": {}, "class_name": "Zeros"}, "use_bias": true, "dilation_rate": [1], "depthwise_constraint": null, "bias_regularizer": null, "depth_multiplier": 1, "depthwise_regularizer": null, "depthwise_initializer": {"config": {"scale": 1.0, "mode": "fan_avg", "seed": null, "distribution": "uniform"}, "class_name": "VarianceScaling"}, "pointwise_constraint": null, "pointwise_regularizer": null, "data_format": "channels_last", "activity_regularizer": null, "kernel_size": [2], "strides": [1], "activation": "linear", "padding": "same", "pointwise_initializer": {"config": {"scale": 1.0, "mode": "fan_avg", "seed": null, "distribution": "uniform"}, "class_name": "VarianceScaling"}, "filters": 32, "trainable": true}, "class_name": "SeparableConv1D"}, {"inbound_nodes": [[["separable_conv1d_24", 0, 0, {}]]], "name": "batch_normalization_15", "config": {"moving_variance_initializer": {"config": {}, "class_name": "Ones"}, "trainable": true, "axis": -1, "name": "batch_normalization_15", "gamma_regularizer": null, "gamma_initializer": {"config": {}, "class_name": "Ones"}, "beta_initializer": {"config": {}, "class_name": "Zeros"}, "moving_mean_initializer": {"config": {}, "class_name": "Zeros"}, "scale": true, "center": true, "momentum": 0.99, "beta_regularizer": null, "beta_constraint": null, "gamma_constraint": null, "epsilon": 0.001}, "class_name": "BatchNormalization"}, {"inbound_nodes": [[["batch_normalization_15", 0, 0, {}]]], "name": "leaky_re_lu_15", "config": {"name": "leaky_re_lu_15", "trainable": true, "alpha": 0.30000001192092896}, "class_name": "LeakyReLU"}, {"inbound_nodes": [[["leaky_re_lu_15", 0, 0, {}]]], "name": "batch_normalization_16", "config": {"moving_variance_initializer": {"config": {}, "class_name": "Ones"}, "trainable": true, "axis": -1, "name": "batch_normalization_16", "gamma_regularizer": null, "gamma_initializer": {"config": {}, "class_name": "Ones"}, "beta_initializer": {"config": {}, "class_name": "Zeros"}, "moving_mean_initializer": {"config": {}, "class_name": "Zeros"}, "scale": true, "center": true, "momentum": 0.99, "beta_regularizer": null, "beta_constraint": null, "gamma_constraint": null, "epsilon": 0.001}, "class_name": "BatchNormalization"}, {"inbound_nodes": [[["batch_normalization_16", 0, 0, {}]]], "name": "leaky_re_lu_16", "config": {"name": "leaky_re_lu_16", "trainable": true, "alpha": 0.30000001192092896}, "class_name": "LeakyReLU"}, {"inbound_nodes": [[["leaky_re_lu_16", 0, 0, {}]]], "name": "dropout_4", "config": {"noise_shape": null, "name": "dropout_4", "seed": null, "trainable": true, "rate": 0.3}, "class_name": "Dropout"}, {"inbound_nodes": [[["dropout_4", 0, 0, {}]]], "name": "separable_conv1d_25", "config": {"bias_constraint": null, "name": "separable_conv1d_25", "bias_initializer": {"config": {}, "class_name": "Zeros"}, "use_bias": true, "dilation_rate": [1], "depthwise_constraint": null, "bias_regularizer": null, "depth_multiplier": 1, "depthwise_regularizer": null, "depthwise_initializer": {"config": {"scale": 1.0, "mode": "fan_avg", "seed": null, "distribution": "uniform"}, "class_name": "VarianceScaling"}, "pointwise_constraint": null, "pointwise_regularizer": null, "data_format": "channels_last", "activity_regularizer": null, "kernel_size": [16], "strides": [1], "activation": "linear", "padding": "same", "pointwise_initializer": {"config": {"scale": 1.0, "mode": "fan_avg", "seed": null, "distribution": "uniform"}, "class_name": "VarianceScaling"}, "filters": 32, "trainable": true}, "class_name": "SeparableConv1D"}, {"inbound_nodes": [[["dropout_4", 0, 0, {}]]], "name": "separable_conv1d_26", "config": {"bias_constraint": null, "name": "separable_conv1d_26", "bias_initializer": {"config": {}, "class_name": "Zeros"}, "use_bias": true, "dilation_rate": [1], "depthwise_constraint": null, "bias_regularizer": null, "depth_multiplier": 1, "depthwise_regularizer": null, "depthwise_initializer": {"config": {"scale": 1.0, "mode": "fan_avg", "seed": null, "distribution": "uniform"}, "class_name": "VarianceScaling"}, "pointwise_constraint": null, "pointwise_regularizer": null, "data_format": "channels_last", "activity_regularizer": null, "kernel_size": [32], "strides": [1], "activation": "linear", "padding": "same", "pointwise_initializer": {"config": {"scale": 1.0, "mode": "fan_avg", "seed": null, "distribution": "uniform"}, "class_name": "VarianceScaling"}, "filters": 32, "trainable": true}, "class_name": "SeparableConv1D"}, {"inbound_nodes": [[["separable_conv1d_25", 0, 0, {}], ["separable_conv1d_26", 0, 0, {}]]], "name": "concatenate_9", "config": {"name": "concatenate_9", "trainable": true, "axis": 2}, "class_name": "Concatenate"}, {"inbound_nodes": [[["concatenate_9", 0, 0, {}]]], "name": "separable_conv1d_27", "config": {"bias_constraint": null, "name": "separable_conv1d_27", "bias_initializer": {"config": {}, "class_name": "Zeros"}, "use_bias": true, "dilation_rate": [1], "depthwise_constraint": null, "bias_regularizer": null, "depth_multiplier": 1, "depthwise_regularizer": null, "depthwise_initializer": {"config": {"scale": 1.0, "mode": "fan_avg", "seed": null, "distribution": "uniform"}, "class_name": "VarianceScaling"}, "pointwise_constraint": null, "pointwise_regularizer": null, "data_format": "channels_last", "activity_regularizer": null, "kernel_size": [1], "strides": [1], "activation": "linear", "padding": "same", "pointwise_initializer": {"config": {"scale": 1.0, "mode": "fan_avg", "seed": null, "distribution": "uniform"}, "class_name": "VarianceScaling"}, "filters": 32, "trainable": true}, "class_name": "SeparableConv1D"}, {"inbound_nodes": [[["separable_conv1d_27", 0, 0, {}]]], "name": "batch_normalization_17", "config": {"moving_variance_initializer": {"config": {}, "class_name": "Ones"}, "trainable": true, "axis": -1, "name": "batch_normalization_17", "gamma_regularizer": null, "gamma_initializer": {"config": {}, "class_name": "Ones"}, "beta_initializer": {"config": {}, "class_name": "Zeros"}, "moving_mean_initializer": {"config": {}, "class_name": "Zeros"}, "scale": true, "center": true, "momentum": 0.99, "beta_regularizer": null, "beta_constraint": null, "gamma_constraint": null, "epsilon": 0.001}, "class_name": "BatchNormalization"}, {"inbound_nodes": [[["add_3", 0, 0, {}]]], "name": "max_pooling1d_4", "config": {"data_format": "channels_last", "name": "max_pooling1d_4", "strides": [2], "trainable": true, "pool_size": [2], "padding": "valid"}, "class_name": "MaxPooling1D"}, {"inbound_nodes": [[["batch_normalization_17", 0, 0, {}]]], "name": "leaky_re_lu_17", "config": {"name": "leaky_re_lu_17", "trainable": true, "alpha": 0.30000001192092896}, "class_name": "LeakyReLU"}, {"inbound_nodes": [[["max_pooling1d_4", 0, 0, {}], ["leaky_re_lu_17", 0, 0, {}]]], "name": "add_4", "config": {"name": "add_4", "trainable": true}, "class_name": "Add"}, {"inbound_nodes": [[["add_4", 0, 0, {}]]], "name": "batch_normalization_18", "config": {"moving_variance_initializer": {"config": {}, "class_name": "Ones"}, "trainable": true, "axis": -1, "name": "batch_normalization_18", "gamma_regularizer": null, "gamma_initializer": {"config": {}, "class_name": "Ones"}, "beta_initializer": {"config": {}, "class_name": "Zeros"}, "moving_mean_initializer": {"config": {}, "class_name": "Zeros"}, "scale": true, "center": true, "momentum": 0.99, "beta_regularizer": null, "beta_constraint": null, "gamma_constraint": null, "epsilon": 0.001}, "class_name": "BatchNormalization"}, {"inbound_nodes": [[["batch_normalization_18", 0, 0, {}]]], "name": "leaky_re_lu_18", "config": {"name": "leaky_re_lu_18", "trainable": true, "alpha": 0.30000001192092896}, "class_name": "LeakyReLU"}, {"inbound_nodes": [[["leaky_re_lu_18", 0, 0, {}]]], "name": "separable_conv1d_28", "config": {"bias_constraint": null, "name": "separable_conv1d_28", "bias_initializer": {"config": {}, "class_name": "Zeros"}, "use_bias": true, "dilation_rate": [1], "depthwise_constraint": null, "bias_regularizer": null, "depth_multiplier": 1, "depthwise_regularizer": null, "depthwise_initializer": {"config": {"scale": 1.0, "mode": "fan_avg", "seed": null, "distribution": "uniform"}, "class_name": "VarianceScaling"}, "pointwise_constraint": null, "pointwise_regularizer": null, "data_format": "channels_last", "activity_regularizer": null, "kernel_size": [16], "strides": [1], "activation": "linear", "padding": "same", "pointwise_initializer": {"config": {"scale": 1.0, "mode": "fan_avg", "seed": null, "distribution": "uniform"}, "class_name": "VarianceScaling"}, "filters": 64, "trainable": true}, "class_name": "SeparableConv1D"}, {"inbound_nodes": [[["leaky_re_lu_18", 0, 0, {}]]], "name": "separable_conv1d_29", "config": {"bias_constraint": null, "name": "separable_conv1d_29", "bias_initializer": {"config": {}, "class_name": "Zeros"}, "use_bias": true, "dilation_rate": [1], "depthwise_constraint": null, "bias_regularizer": null, "depth_multiplier": 1, "depthwise_regularizer": null, "depthwise_initializer": {"config": {"scale": 1.0, "mode": "fan_avg", "seed": null, "distribution": "uniform"}, "class_name": "VarianceScaling"}, "pointwise_constraint": null, "pointwise_regularizer": null, "data_format": "channels_last", "activity_regularizer": null, "kernel_size": [32], "strides": [1], "activation": "linear", "padding": "same", "pointwise_initializer": {"config": {"scale": 1.0, "mode": "fan_avg", "seed": null, "distribution": "uniform"}, "class_name": "VarianceScaling"}, "filters": 64, "trainable": true}, "class_name": "SeparableConv1D"}, {"inbound_nodes": [[["separable_conv1d_28", 0, 0, {}], ["separable_conv1d_29", 0, 0, {}]]], "name": "concatenate_10", "config": {"name": "concatenate_10", "trainable": true, "axis": 2}, "class_name": "Concatenate"}, {"inbound_nodes": [[["concatenate_10", 0, 0, {}]]], "name": "separable_conv1d_30", "config": {"bias_constraint": null, "name": "separable_conv1d_30", "bias_initializer": {"config": {}, "class_name": "Zeros"}, "use_bias": true, "dilation_rate": [1], "depthwise_constraint": null, "bias_regularizer": null, "depth_multiplier": 1, "depthwise_regularizer": null, "depthwise_initializer": {"config": {"scale": 1.0, "mode": "fan_avg", "seed": null, "distribution": "uniform"}, "class_name": "VarianceScaling"}, "pointwise_constraint": null, "pointwise_regularizer": null, "data_format": "channels_last", "activity_regularizer": null, "kernel_size": [1], "strides": [1], "activation": "linear", "padding": "same", "pointwise_initializer": {"config": {"scale": 1.0, "mode": "fan_avg", "seed": null, "distribution": "uniform"}, "class_name": "VarianceScaling"}, "filters": 64, "trainable": true}, "class_name": "SeparableConv1D"}, {"inbound_nodes": [[["separable_conv1d_30", 0, 0, {}]]], "name": "batch_normalization_19", "config": {"moving_variance_initializer": {"config": {}, "class_name": "Ones"}, "trainable": true, "axis": -1, "name": "batch_normalization_19", "gamma_regularizer": null, "gamma_initializer": {"config": {}, "class_name": "Ones"}, "beta_initializer": {"config": {}, "class_name": "Zeros"}, "moving_mean_initializer": {"config": {}, "class_name": "Zeros"}, "scale": true, "center": true, "momentum": 0.99, "beta_regularizer": null, "beta_constraint": null, "gamma_constraint": null, "epsilon": 0.001}, "class_name": "BatchNormalization"}, {"inbound_nodes": [[["batch_normalization_19", 0, 0, {}]]], "name": "leaky_re_lu_19", "config": {"name": "leaky_re_lu_19", "trainable": true, "alpha": 0.30000001192092896}, "class_name": "LeakyReLU"}, {"inbound_nodes": [[["leaky_re_lu_19", 0, 0, {}]]], "name": "batch_normalization_20", "config": {"moving_variance_initializer": {"config": {}, "class_name": "Ones"}, "trainable": true, "axis": -1, "name": "batch_normalization_20", "gamma_regularizer": null, "gamma_initializer": {"config": {}, "class_name": "Ones"}, "beta_initializer": {"config": {}, "class_name": "Zeros"}, "moving_mean_initializer": {"config": {}, "class_name": "Zeros"}, "scale": true, "center": true, "momentum": 0.99, "beta_regularizer": null, "beta_constraint": null, "gamma_constraint": null, "epsilon": 0.001}, "class_name": "BatchNormalization"}, {"inbound_nodes": [[["batch_normalization_20", 0, 0, {}]]], "name": "leaky_re_lu_20", "config": {"name": "leaky_re_lu_20", "trainable": true, "alpha": 0.30000001192092896}, "class_name": "LeakyReLU"}, {"inbound_nodes": [[["leaky_re_lu_20", 0, 0, {}]]], "name": "dropout_5", "config": {"noise_shape": null, "name": "dropout_5", "seed": null, "trainable": true, "rate": 0.3}, "class_name": "Dropout"}, {"inbound_nodes": [[["dropout_5", 0, 0, {}]]], "name": "separable_conv1d_31", "config": {"bias_constraint": null, "name": "separable_conv1d_31", "bias_initializer": {"config": {}, "class_name": "Zeros"}, "use_bias": true, "dilation_rate": [1], "depthwise_constraint": null, "bias_regularizer": null, "depth_multiplier": 1, "depthwise_regularizer": null, "depthwise_initializer": {"config": {"scale": 1.0, "mode": "fan_avg", "seed": null, "distribution": "uniform"}, "class_name": "VarianceScaling"}, "pointwise_constraint": null, "pointwise_regularizer": null, "data_format": "channels_last", "activity_regularizer": null, "kernel_size": [16], "strides": [1], "activation": "linear", "padding": "same", "pointwise_initializer": {"config": {"scale": 1.0, "mode": "fan_avg", "seed": null, "distribution": "uniform"}, "class_name": "VarianceScaling"}, "filters": 64, "trainable": true}, "class_name": "SeparableConv1D"}, {"inbound_nodes": [[["dropout_5", 0, 0, {}]]], "name": "separable_conv1d_32", "config": {"bias_constraint": null, "name": "separable_conv1d_32", "bias_initializer": {"config": {}, "class_name": "Zeros"}, "use_bias": true, "dilation_rate": [1], "depthwise_constraint": null, "bias_regularizer": null, "depth_multiplier": 1, "depthwise_regularizer": null, "depthwise_initializer": {"config": {"scale": 1.0, "mode": "fan_avg", "seed": null, "distribution": "uniform"}, "class_name": "VarianceScaling"}, "pointwise_constraint": null, "pointwise_regularizer": null, "data_format": "channels_last", "activity_regularizer": null, "kernel_size": [32], "strides": [1], "activation": "linear", "padding": "same", "pointwise_initializer": {"config": {"scale": 1.0, "mode": "fan_avg", "seed": null, "distribution": "uniform"}, "class_name": "VarianceScaling"}, "filters": 64, "trainable": true}, "class_name": "SeparableConv1D"}, {"inbound_nodes": [[["separable_conv1d_31", 0, 0, {}], ["separable_conv1d_32", 0, 0, {}]]], "name": "concatenate_11", "config": {"name": "concatenate_11", "trainable": true, "axis": 2}, "class_name": "Concatenate"}, {"inbound_nodes": [[["concatenate_11", 0, 0, {}]]], "name": "separable_conv1d_33", "config": {"bias_constraint": null, "name": "separable_conv1d_33", "bias_initializer": {"config": {}, "class_name": "Zeros"}, "use_bias": true, "dilation_rate": [1], "depthwise_constraint": null, "bias_regularizer": null, "depth_multiplier": 1, "depthwise_regularizer": null, "depthwise_initializer": {"config": {"scale": 1.0, "mode": "fan_avg", "seed": null, "distribution": "uniform"}, "class_name": "VarianceScaling"}, "pointwise_constraint": null, "pointwise_regularizer": null, "data_format": "channels_last", "activity_regularizer": null, "kernel_size": [1], "strides": [1], "activation": "linear", "padding": "same", "pointwise_initializer": {"config": {"scale": 1.0, "mode": "fan_avg", "seed": null, "distribution": "uniform"}, "class_name": "VarianceScaling"}, "filters": 64, "trainable": true}, "class_name": "SeparableConv1D"}, {"inbound_nodes": [[["add_4", 0, 0, {}]]], "name": "max_pooling1d_5", "config": {"data_format": "channels_last", "name": "max_pooling1d_5", "strides": [1], "trainable": true, "pool_size": [1], "padding": "valid"}, "class_name": "MaxPooling1D"}, {"inbound_nodes": [[["separable_conv1d_33", 0, 0, {}]]], "name": "batch_normalization_21", "config": {"moving_variance_initializer": {"config": {}, "class_name": "Ones"}, "trainable": true, "axis": -1, "name": "batch_normalization_21", "gamma_regularizer": null, "gamma_initializer": {"config": {}, "class_name": "Ones"}, "beta_initializer": {"config": {}, "class_name": "Zeros"}, "moving_mean_initializer": {"config": {}, "class_name": "Zeros"}, "scale": true, "center": true, "momentum": 0.99, "beta_regularizer": null, "beta_constraint": null, "gamma_constraint": null, "epsilon": 0.001}, "class_name": "BatchNormalization"}, {"inbound_nodes": [[["max_pooling1d_5", 0, 0, {}]]], "name": "lambda_1", "config": {"name": "lambda_1", "trainable": true, "arguments": {}, "function_type": "lambda", "function": ["4wEAAAAAAAAAAgAAAAQAAABTAAAAcygAAAB0AABqAQB8AACDAQB9AQB0AABqAgB8AAB8AQBnAgBk\nAQBkAgCDAQFTKQNO2gRheGlz6QIAAAApA9oBS9oKemVyb3NfbGlrZdoLY29uY2F0ZW5hdGUpAtoB\neNoBeakAcggAAAD6Ni9tZWRpYS91dXNlci9kYXRhLzk5NS1JQ1UgIHBsdXNlIGZldHVyZS9zcmMv\nbmV0d29yay5wedoHemVyb3BhZKgAAABzBAAAAAABDwE=\n", null, null], "output_shape": ["4wEAAAAAAAAAAgAAAAQAAABTAAAAczwAAAB0AAB8AACDAQB9AQB0AQB8AQCDAQBkAQBrAgBzJAB0\nAgCCAQB8AQBkAgAFGWQCADkDPHQDAHwBAIMBAFMpA07pAwAAAOkCAAAAKQTaBGxpc3TaA2xlbtoO\nQXNzZXJ0aW9uRXJyb3LaBXR1cGxlKQLaC2lucHV0X3NoYXBl2gVzaGFwZakAcgkAAAD6Ni9tZWRp\nYS91dXNlci9kYXRhLzk5NS1JQ1UgIHBsdXNlIGZldHVyZS9zcmMvbmV0d29yay5wedoUemVyb3Bh\nZF9vdXRwdXRfc2hhcGWsAAAAcwgAAAAAAQwBGAEOAQ==\n", null, null], "output_shape_type": "lambda"}, "class_name": "Lambda"}, {"inbound_nodes": [[["batch_normalization_21", 0, 0, {}]]], "name": "leaky_re_lu_21", "config": {"name": "leaky_re_lu_21", "trainable": true, "alpha": 0.30000001192092896}, "class_name": "LeakyReLU"}, {"inbound_nodes": [[["lambda_1", 0, 0, {}], ["leaky_re_lu_21", 0, 0, {}]]], "name": "add_5", "config": {"name": "add_5", "trainable": true}, "class_name": "Add"}, {"inbound_nodes": [[["add_5", 0, 0, {}]]], "name": "batch_normalization_22", "config": {"moving_variance_initializer": {"config": {}, "class_name": "Ones"}, "trainable": true, "axis": -1, "name": "batch_normalization_22", "gamma_regularizer": null, "gamma_initializer": {"config": {}, "class_name": "Ones"}, "beta_initializer": {"config": {}, "class_name": "Zeros"}, "moving_mean_initializer": {"config": {}, "class_name": "Zeros"}, "scale": true, "center": true, "momentum": 0.99, "beta_regularizer": null, "beta_constraint": null, "gamma_constraint": null, "epsilon": 0.001}, "class_name": "BatchNormalization"}, {"inbound_nodes": [[["batch_normalization_22", 0, 0, {}]]], "name": "leaky_re_lu_22", "config": {"name": "leaky_re_lu_22", "trainable": true, "alpha": 0.30000001192092896}, "class_name": "LeakyReLU"}, {"inbound_nodes": [[["leaky_re_lu_22", 0, 0, {}]]], "name": "separable_conv1d_34", "config": {"bias_constraint": null, "name": "separable_conv1d_34", "bias_initializer": {"config": {}, "class_name": "Zeros"}, "use_bias": true, "dilation_rate": [1], "depthwise_constraint": null, "bias_regularizer": null, "depth_multiplier": 1, "depthwise_regularizer": null, "depthwise_initializer": {"config": {"scale": 1.0, "mode": "fan_avg", "seed": null, "distribution": "uniform"}, "class_name": "VarianceScaling"}, "pointwise_constraint": null, "pointwise_regularizer": null, "data_format": "channels_last", "activity_regularizer": null, "kernel_size": [16], "strides": [2], "activation": "linear", "padding": "same", "pointwise_initializer": {"config": {"scale": 1.0, "mode": "fan_avg", "seed": null, "distribution": "uniform"}, "class_name": "VarianceScaling"}, "filters": 64, "trainable": true}, "class_name": "SeparableConv1D"}, {"inbound_nodes": [[["leaky_re_lu_22", 0, 0, {}]]], "name": "separable_conv1d_35", "config": {"bias_constraint": null, "name": "separable_conv1d_35", "bias_initializer": {"config": {}, "class_name": "Zeros"}, "use_bias": true, "dilation_rate": [1], "depthwise_constraint": null, "bias_regularizer": null, "depth_multiplier": 1, "depthwise_regularizer": null, "depthwise_initializer": {"config": {"scale": 1.0, "mode": "fan_avg", "seed": null, "distribution": "uniform"}, "class_name": "VarianceScaling"}, "pointwise_constraint": null, "pointwise_regularizer": null, "data_format": "channels_last", "activity_regularizer": null, "kernel_size": [32], "strides": [2], "activation": "linear", "padding": "same", "pointwise_initializer": {"config": {"scale": 1.0, "mode": "fan_avg", "seed": null, "distribution": "uniform"}, "class_name": "VarianceScaling"}, "filters": 64, "trainable": true}, "class_name": "SeparableConv1D"}, {"inbound_nodes": [[["separable_conv1d_34", 0, 0, {}], ["separable_conv1d_35", 0, 0, {}]]], "name": "concatenate_12", "config": {"name": "concatenate_12", "trainable": true, "axis": 2}, "class_name": "Concatenate"}, {"inbound_nodes": [[["concatenate_12", 0, 0, {}]]], "name": "separable_conv1d_36", "config": {"bias_constraint": null, "name": "separable_conv1d_36", "bias_initializer": {"config": {}, "class_name": "Zeros"}, "use_bias": true, "dilation_rate": [1], "depthwise_constraint": null, "bias_regularizer": null, "depth_multiplier": 1, "depthwise_regularizer": null, "depthwise_initializer": {"config": {"scale": 1.0, "mode": "fan_avg", "seed": null, "distribution": "uniform"}, "class_name": "VarianceScaling"}, "pointwise_constraint": null, "pointwise_regularizer": null, "data_format": "channels_last", "activity_regularizer": null, "kernel_size": [2], "strides": [1], "activation": "linear", "padding": "same", "pointwise_initializer": {"config": {"scale": 1.0, "mode": "fan_avg", "seed": null, "distribution": "uniform"}, "class_name": "VarianceScaling"}, "filters": 64, "trainable": true}, "class_name": "SeparableConv1D"}, {"inbound_nodes": [[["separable_conv1d_36", 0, 0, {}]]], "name": "batch_normalization_23", "config": {"moving_variance_initializer": {"config": {}, "class_name": "Ones"}, "trainable": true, "axis": -1, "name": "batch_normalization_23", "gamma_regularizer": null, "gamma_initializer": {"config": {}, "class_name": "Ones"}, "beta_initializer": {"config": {}, "class_name": "Zeros"}, "moving_mean_initializer": {"config": {}, "class_name": "Zeros"}, "scale": true, "center": true, "momentum": 0.99, "beta_regularizer": null, "beta_constraint": null, "gamma_constraint": null, "epsilon": 0.001}, "class_name": "BatchNormalization"}, {"inbound_nodes": [[["batch_normalization_23", 0, 0, {}]]], "name": "leaky_re_lu_23", "config": {"name": "leaky_re_lu_23", "trainable": true, "alpha": 0.30000001192092896}, "class_name": "LeakyReLU"}, {"inbound_nodes": [[["leaky_re_lu_23", 0, 0, {}]]], "name": "batch_normalization_24", "config": {"moving_variance_initializer": {"config": {}, "class_name": "Ones"}, "trainable": true, "axis": -1, "name": "batch_normalization_24", "gamma_regularizer": null, "gamma_initializer": {"config": {}, "class_name": "Ones"}, "beta_initializer": {"config": {}, "class_name": "Zeros"}, "moving_mean_initializer": {"config": {}, "class_name": "Zeros"}, "scale": true, "center": true, "momentum": 0.99, "beta_regularizer": null, "beta_constraint": null, "gamma_constraint": null, "epsilon": 0.001}, "class_name": "BatchNormalization"}, {"inbound_nodes": [[["batch_normalization_24", 0, 0, {}]]], "name": "leaky_re_lu_24", "config": {"name": "leaky_re_lu_24", "trainable": true, "alpha": 0.30000001192092896}, "class_name": "LeakyReLU"}, {"inbound_nodes": [[["leaky_re_lu_24", 0, 0, {}]]], "name": "dropout_6", "config": {"noise_shape": null, "name": "dropout_6", "seed": null, "trainable": true, "rate": 0.3}, "class_name": "Dropout"}, {"inbound_nodes": [[["dropout_6", 0, 0, {}]]], "name": "separable_conv1d_37", "config": {"bias_constraint": null, "name": "separable_conv1d_37", "bias_initializer": {"config": {}, "class_name": "Zeros"}, "use_bias": true, "dilation_rate": [1], "depthwise_constraint": null, "bias_regularizer": null, "depth_multiplier": 1, "depthwise_regularizer": null, "depthwise_initializer": {"config": {"scale": 1.0, "mode": "fan_avg", "seed": null, "distribution": "uniform"}, "class_name": "VarianceScaling"}, "pointwise_constraint": null, "pointwise_regularizer": null, "data_format": "channels_last", "activity_regularizer": null, "kernel_size": [16], "strides": [1], "activation": "linear", "padding": "same", "pointwise_initializer": {"config": {"scale": 1.0, "mode": "fan_avg", "seed": null, "distribution": "uniform"}, "class_name": "VarianceScaling"}, "filters": 64, "trainable": true}, "class_name": "SeparableConv1D"}, {"inbound_nodes": [[["dropout_6", 0, 0, {}]]], "name": "separable_conv1d_38", "config": {"bias_constraint": null, "name": "separable_conv1d_38", "bias_initializer": {"config": {}, "class_name": "Zeros"}, "use_bias": true, "dilation_rate": [1], "depthwise_constraint": null, "bias_regularizer": null, "depth_multiplier": 1, "depthwise_regularizer": null, "depthwise_initializer": {"config": {"scale": 1.0, "mode": "fan_avg", "seed": null, "distribution": "uniform"}, "class_name": "VarianceScaling"}, "pointwise_constraint": null, "pointwise_regularizer": null, "data_format": "channels_last", "activity_regularizer": null, "kernel_size": [32], "strides": [1], "activation": "linear", "padding": "same", "pointwise_initializer": {"config": {"scale": 1.0, "mode": "fan_avg", "seed": null, "distribution": "uniform"}, "class_name": "VarianceScaling"}, "filters": 64, "trainable": true}, "class_name": "SeparableConv1D"}, {"inbound_nodes": [[["separable_conv1d_37", 0, 0, {}], ["separable_conv1d_38", 0, 0, {}]]], "name": "concatenate_13", "config": {"name": "concatenate_13", "trainable": true, "axis": 2}, "class_name": "Concatenate"}, {"inbound_nodes": [[["concatenate_13", 0, 0, {}]]], "name": "separable_conv1d_39", "config": {"bias_constraint": null, "name": "separable_conv1d_39", "bias_initializer": {"config": {}, "class_name": "Zeros"}, "use_bias": true, "dilation_rate": [1], "depthwise_constraint": null, "bias_regularizer": null, "depth_multiplier": 1, "depthwise_regularizer": null, "depthwise_initializer": {"config": {"scale": 1.0, "mode": "fan_avg", "seed": null, "distribution": "uniform"}, "class_name": "VarianceScaling"}, "pointwise_constraint": null, "pointwise_regularizer": null, "data_format": "channels_last", "activity_regularizer": null, "kernel_size": [1], "strides": [1], "activation": "linear", "padding": "same", "pointwise_initializer": {"config": {"scale": 1.0, "mode": "fan_avg", "seed": null, "distribution": "uniform"}, "class_name": "VarianceScaling"}, "filters": 64, "trainable": true}, "class_name": "SeparableConv1D"}, {"inbound_nodes": [[["separable_conv1d_39", 0, 0, {}]]], "name": "batch_normalization_25", "config": {"moving_variance_initializer": {"config": {}, "class_name": "Ones"}, "trainable": true, "axis": -1, "name": "batch_normalization_25", "gamma_regularizer": null, "gamma_initializer": {"config": {}, "class_name": "Ones"}, "beta_initializer": {"config": {}, "class_name": "Zeros"}, "moving_mean_initializer": {"config": {}, "class_name": "Zeros"}, "scale": true, "center": true, "momentum": 0.99, "beta_regularizer": null, "beta_constraint": null, "gamma_constraint": null, "epsilon": 0.001}, "class_name": "BatchNormalization"}, {"inbound_nodes": [[["add_5", 0, 0, {}]]], "name": "max_pooling1d_6", "config": {"data_format": "channels_last", "name": "max_pooling1d_6", "strides": [2], "trainable": true, "pool_size": [2], "padding": "valid"}, "class_name": "MaxPooling1D"}, {"inbound_nodes": [[["batch_normalization_25", 0, 0, {}]]], "name": "leaky_re_lu_25", "config": {"name": "leaky_re_lu_25", "trainable": true, "alpha": 0.30000001192092896}, "class_name": "LeakyReLU"}, {"inbound_nodes": [[["max_pooling1d_6", 0, 0, {}], ["leaky_re_lu_25", 0, 0, {}]]], "name": "add_6", "config": {"name": "add_6", "trainable": true}, "class_name": "Add"}, {"inbound_nodes": [[["add_6", 0, 0, {}]]], "name": "batch_normalization_26", "config": {"moving_variance_initializer": {"config": {}, "class_name": "Ones"}, "trainable": true, "axis": -1, "name": "batch_normalization_26", "gamma_regularizer": null, "gamma_initializer": {"config": {}, "class_name": "Ones"}, "beta_initializer": {"config": {}, "class_name": "Zeros"}, "moving_mean_initializer": {"config": {}, "class_name": "Zeros"}, "scale": true, "center": true, "momentum": 0.99, "beta_regularizer": null, "beta_constraint": null, "gamma_constraint": null, "epsilon": 0.001}, "class_name": "BatchNormalization"}, {"inbound_nodes": [[["batch_normalization_26", 0, 0, {}]]], "name": "leaky_re_lu_26", "config": {"name": "leaky_re_lu_26", "trainable": true, "alpha": 0.30000001192092896}, "class_name": "LeakyReLU"}, {"inbound_nodes": [[["leaky_re_lu_26", 0, 0, {}]]], "name": "separable_conv1d_40", "config": {"bias_constraint": null, "name": "separable_conv1d_40", "bias_initializer": {"config": {}, "class_name": "Zeros"}, "use_bias": true, "dilation_rate": [1], "depthwise_constraint": null, "bias_regularizer": null, "depth_multiplier": 1, "depthwise_regularizer": null, "depthwise_initializer": {"config": {"scale": 1.0, "mode": "fan_avg", "seed": null, "distribution": "uniform"}, "class_name": "VarianceScaling"}, "pointwise_constraint": null, "pointwise_regularizer": null, "data_format": "channels_last", "activity_regularizer": null, "kernel_size": [16], "strides": [1], "activation": "linear", "padding": "same", "pointwise_initializer": {"config": {"scale": 1.0, "mode": "fan_avg", "seed": null, "distribution": "uniform"}, "class_name": "VarianceScaling"}, "filters": 64, "trainable": true}, "class_name": "SeparableConv1D"}, {"inbound_nodes": [[["leaky_re_lu_26", 0, 0, {}]]], "name": "separable_conv1d_41", "config": {"bias_constraint": null, "name": "separable_conv1d_41", "bias_initializer": {"config": {}, "class_name": "Zeros"}, "use_bias": true, "dilation_rate": [1], "depthwise_constraint": null, "bias_regularizer": null, "depth_multiplier": 1, "depthwise_regularizer": null, "depthwise_initializer": {"config": {"scale": 1.0, "mode": "fan_avg", "seed": null, "distribution": "uniform"}, "class_name": "VarianceScaling"}, "pointwise_constraint": null, "pointwise_regularizer": null, "data_format": "channels_last", "activity_regularizer": null, "kernel_size": [32], "strides": [1], "activation": "linear", "padding": "same", "pointwise_initializer": {"config": {"scale": 1.0, "mode": "fan_avg", "seed": null, "distribution": "uniform"}, "class_name": "VarianceScaling"}, "filters": 64, "trainable": true}, "class_name": "SeparableConv1D"}, {"inbound_nodes": [[["separable_conv1d_40", 0, 0, {}], ["separable_conv1d_41", 0, 0, {}]]], "name": "concatenate_14", "config": {"name": "concatenate_14", "trainable": true, "axis": 2}, "class_name": "Concatenate"}, {"inbound_nodes": [[["concatenate_14", 0, 0, {}]]], "name": "separable_conv1d_42", "config": {"bias_constraint": null, "name": "separable_conv1d_42", "bias_initializer": {"config": {}, "class_name": "Zeros"}, "use_bias": true, "dilation_rate": [1], "depthwise_constraint": null, "bias_regularizer": null, "depth_multiplier": 1, "depthwise_regularizer": null, "depthwise_initializer": {"config": {"scale": 1.0, "mode": "fan_avg", "seed": null, "distribution": "uniform"}, "class_name": "VarianceScaling"}, "pointwise_constraint": null, "pointwise_regularizer": null, "data_format": "channels_last", "activity_regularizer": null, "kernel_size": [1], "strides": [1], "activation": "linear", "padding": "same", "pointwise_initializer": {"config": {"scale": 1.0, "mode": "fan_avg", "seed": null, "distribution": "uniform"}, "class_name": "VarianceScaling"}, "filters": 64, "trainable": true}, "class_name": "SeparableConv1D"}, {"inbound_nodes": [[["separable_conv1d_42", 0, 0, {}]]], "name": "batch_normalization_27", "config": {"moving_variance_initializer": {"config": {}, "class_name": "Ones"}, "trainable": true, "axis": -1, "name": "batch_normalization_27", "gamma_regularizer": null, "gamma_initializer": {"config": {}, "class_name": "Ones"}, "beta_initializer": {"config": {}, "class_name": "Zeros"}, "moving_mean_initializer": {"config": {}, "class_name": "Zeros"}, "scale": true, "center": true, "momentum": 0.99, "beta_regularizer": null, "beta_constraint": null, "gamma_constraint": null, "epsilon": 0.001}, "class_name": "BatchNormalization"}, {"inbound_nodes": [[["batch_normalization_27", 0, 0, {}]]], "name": "leaky_re_lu_27", "config": {"name": "leaky_re_lu_27", "trainable": true, "alpha": 0.30000001192092896}, "class_name": "LeakyReLU"}, {"inbound_nodes": [[["leaky_re_lu_27", 0, 0, {}]]], "name": "batch_normalization_28", "config": {"moving_variance_initializer": {"config": {}, "class_name": "Ones"}, "trainable": true, "axis": -1, "name": "batch_normalization_28", "gamma_regularizer": null, "gamma_initializer": {"config": {}, "class_name": "Ones"}, "beta_initializer": {"config": {}, "class_name": "Zeros"}, "moving_mean_initializer": {"config": {}, "class_name": "Zeros"}, "scale": true, "center": true, "momentum": 0.99, "beta_regularizer": null, "beta_constraint": null, "gamma_constraint": null, "epsilon": 0.001}, "class_name": "BatchNormalization"}, {"inbound_nodes": [[["batch_normalization_28", 0, 0, {}]]], "name": "leaky_re_lu_28", "config": {"name": "leaky_re_lu_28", "trainable": true, "alpha": 0.30000001192092896}, "class_name": "LeakyReLU"}, {"inbound_nodes": [[["leaky_re_lu_28", 0, 0, {}]]], "name": "dropout_7", "config": {"noise_shape": null, "name": "dropout_7", "seed": null, "trainable": true, "rate": 0.3}, "class_name": "Dropout"}, {"inbound_nodes": [[["dropout_7", 0, 0, {}]]], "name": "separable_conv1d_43", "config": {"bias_constraint": null, "name": "separable_conv1d_43", "bias_initializer": {"config": {}, "class_name": "Zeros"}, "use_bias": true, "dilation_rate": [1], "depthwise_constraint": null, "bias_regularizer": null, "depth_multiplier": 1, "depthwise_regularizer": null, "depthwise_initializer": {"config": {"scale": 1.0, "mode": "fan_avg", "seed": null, "distribution": "uniform"}, "class_name": "VarianceScaling"}, "pointwise_constraint": null, "pointwise_regularizer": null, "data_format": "channels_last", "activity_regularizer": null, "kernel_size": [16], "strides": [1], "activation": "linear", "padding": "same", "pointwise_initializer": {"config": {"scale": 1.0, "mode": "fan_avg", "seed": null, "distribution": "uniform"}, "class_name": "VarianceScaling"}, "filters": 64, "trainable": true}, "class_name": "SeparableConv1D"}, {"inbound_nodes": [[["dropout_7", 0, 0, {}]]], "name": "separable_conv1d_44", "config": {"bias_constraint": null, "name": "separable_conv1d_44", "bias_initializer": {"config": {}, "class_name": "Zeros"}, "use_bias": true, "dilation_rate": [1], "depthwise_constraint": null, "bias_regularizer": null, "depth_multiplier": 1, "depthwise_regularizer": null, "depthwise_initializer": {"config": {"scale": 1.0, "mode": "fan_avg", "seed": null, "distribution": "uniform"}, "class_name": "VarianceScaling"}, "pointwise_constraint": null, "pointwise_regularizer": null, "data_format": "channels_last", "activity_regularizer": null, "kernel_size": [32], "strides": [1], "activation": "linear", "padding": "same", "pointwise_initializer": {"config": {"scale": 1.0, "mode": "fan_avg", "seed": null, "distribution": "uniform"}, "class_name": "VarianceScaling"}, "filters": 64, "trainable": true}, "class_name": "SeparableConv1D"}, {"inbound_nodes": [[["separable_conv1d_43", 0, 0, {}], ["separable_conv1d_44", 0, 0, {}]]], "name": "concatenate_15", "config": {"name": "concatenate_15", "trainable": true, "axis": 2}, "class_name": "Concatenate"}, {"inbound_nodes": [[["concatenate_15", 0, 0, {}]]], "name": "separable_conv1d_45", "config": {"bias_constraint": null, "name": "separable_conv1d_45", "bias_initializer": {"config": {}, "class_name": "Zeros"}, "use_bias": true, "dilation_rate": [1], "depthwise_constraint": null, "bias_regularizer": null, "depth_multiplier": 1, "depthwise_regularizer": null, "depthwise_initializer": {"config": {"scale": 1.0, "mode": "fan_avg", "seed": null, "distribution": "uniform"}, "class_name": "VarianceScaling"}, "pointwise_constraint": null, "pointwise_regularizer": null, "data_format": "channels_last", "activity_regularizer": null, "kernel_size": [1], "strides": [1], "activation": "linear", "padding": "same", "pointwise_initializer": {"config": {"scale": 1.0, "mode": "fan_avg", "seed": null, "distribution": "uniform"}, "class_name": "VarianceScaling"}, "filters": 64, "trainable": true}, "class_name": "SeparableConv1D"}, {"inbound_nodes": [[["separable_conv1d_45", 0, 0, {}]]], "name": "batch_normalization_29", "config": {"moving_variance_initializer": {"config": {}, "class_name": "Ones"}, "trainable": true, "axis": -1, "name": "batch_normalization_29", "gamma_regularizer": null, "gamma_initializer": {"config": {}, "class_name": "Ones"}, "beta_initializer": {"config": {}, "class_name": "Zeros"}, "moving_mean_initializer": {"config": {}, "class_name": "Zeros"}, "scale": true, "center": true, "momentum": 0.99, "beta_regularizer": null, "beta_constraint": null, "gamma_constraint": null, "epsilon": 0.001}, "class_name": "BatchNormalization"}, {"inbound_nodes": [[["add_6", 0, 0, {}]]], "name": "max_pooling1d_7", "config": {"data_format": "channels_last", "name": "max_pooling1d_7", "strides": [1], "trainable": true, "pool_size": [1], "padding": "valid"}, "class_name": "MaxPooling1D"}, {"inbound_nodes": [[["batch_normalization_29", 0, 0, {}]]], "name": "leaky_re_lu_29", "config": {"name": "leaky_re_lu_29", "trainable": true, "alpha": 0.30000001192092896}, "class_name": "LeakyReLU"}, {"inbound_nodes": [[["max_pooling1d_7", 0, 0, {}], ["leaky_re_lu_29", 0, 0, {}]]], "name": "add_7", "config": {"name": "add_7", "trainable": true}, "class_name": "Add"}, {"inbound_nodes": [[["add_7", 0, 0, {}]]], "name": "batch_normalization_30", "config": {"moving_variance_initializer": {"config": {}, "class_name": "Ones"}, "trainable": true, "axis": -1, "name": "batch_normalization_30", "gamma_regularizer": null, "gamma_initializer": {"config": {}, "class_name": "Ones"}, "beta_initializer": {"config": {}, "class_name": "Zeros"}, "moving_mean_initializer": {"config": {}, "class_name": "Zeros"}, "scale": true, "center": true, "momentum": 0.99, "beta_regularizer": null, "beta_constraint": null, "gamma_constraint": null, "epsilon": 0.001}, "class_name": "BatchNormalization"}, {"inbound_nodes": [[["batch_normalization_30", 0, 0, {}]]], "name": "leaky_re_lu_30", "config": {"name": "leaky_re_lu_30", "trainable": true, "alpha": 0.30000001192092896}, "class_name": "LeakyReLU"}, {"inbound_nodes": [[["leaky_re_lu_30", 0, 0, {}]]], "name": "separable_conv1d_46", "config": {"bias_constraint": null, "name": "separable_conv1d_46", "bias_initializer": {"config": {}, "class_name": "Zeros"}, "use_bias": true, "dilation_rate": [1], "depthwise_constraint": null, "bias_regularizer": null, "depth_multiplier": 1, "depthwise_regularizer": null, "depthwise_initializer": {"config": {"scale": 1.0, "mode": "fan_avg", "seed": null, "distribution": "uniform"}, "class_name": "VarianceScaling"}, "pointwise_constraint": null, "pointwise_regularizer": null, "data_format": "channels_last", "activity_regularizer": null, "kernel_size": [16], "strides": [2], "activation": "linear", "padding": "same", "pointwise_initializer": {"config": {"scale": 1.0, "mode": "fan_avg", "seed": null, "distribution": "uniform"}, "class_name": "VarianceScaling"}, "filters": 64, "trainable": true}, "class_name": "SeparableConv1D"}, {"inbound_nodes": [[["leaky_re_lu_30", 0, 0, {}]]], "name": "separable_conv1d_47", "config": {"bias_constraint": null, "name": "separable_conv1d_47", "bias_initializer": {"config": {}, "class_name": "Zeros"}, "use_bias": true, "dilation_rate": [1], "depthwise_constraint": null, "bias_regularizer": null, "depth_multiplier": 1, "depthwise_regularizer": null, "depthwise_initializer": {"config": {"scale": 1.0, "mode": "fan_avg", "seed": null, "distribution": "uniform"}, "class_name": "VarianceScaling"}, "pointwise_constraint": null, "pointwise_regularizer": null, "data_format": "channels_last", "activity_regularizer": null, "kernel_size": [32], "strides": [2], "activation": "linear", "padding": "same", "pointwise_initializer": {"config": {"scale": 1.0, "mode": "fan_avg", "seed": null, "distribution": "uniform"}, "class_name": "VarianceScaling"}, "filters": 64, "trainable": true}, "class_name": "SeparableConv1D"}, {"inbound_nodes": [[["separable_conv1d_46", 0, 0, {}], ["separable_conv1d_47", 0, 0, {}]]], "name": "concatenate_16", "config": {"name": "concatenate_16", "trainable": true, "axis": 2}, "class_name": "Concatenate"}, {"inbound_nodes": [[["concatenate_16", 0, 0, {}]]], "name": "separable_conv1d_48", "config": {"bias_constraint": null, "name": "separable_conv1d_48", "bias_initializer": {"config": {}, "class_name": "Zeros"}, "use_bias": true, "dilation_rate": [1], "depthwise_constraint": null, "bias_regularizer": null, "depth_multiplier": 1, "depthwise_regularizer": null, "depthwise_initializer": {"config": {"scale": 1.0, "mode": "fan_avg", "seed": null, "distribution": "uniform"}, "class_name": "VarianceScaling"}, "pointwise_constraint": null, "pointwise_regularizer": null, "data_format": "channels_last", "activity_regularizer": null, "kernel_size": [2], "strides": [1], "activation": "linear", "padding": "same", "pointwise_initializer": {"config": {"scale": 1.0, "mode": "fan_avg", "seed": null, "distribution": "uniform"}, "class_name": "VarianceScaling"}, "filters": 64, "trainable": true}, "class_name": "SeparableConv1D"}, {"inbound_nodes": [[["separable_conv1d_48", 0, 0, {}]]], "name": "batch_normalization_31", "config": {"moving_variance_initializer": {"config": {}, "class_name": "Ones"}, "trainable": true, "axis": -1, "name": "batch_normalization_31", "gamma_regularizer": null, "gamma_initializer": {"config": {}, "class_name": "Ones"}, "beta_initializer": {"config": {}, "class_name": "Zeros"}, "moving_mean_initializer": {"config": {}, "class_name": "Zeros"}, "scale": true, "center": true, "momentum": 0.99, "beta_regularizer": null, "beta_constraint": null, "gamma_constraint": null, "epsilon": 0.001}, "class_name": "BatchNormalization"}, {"inbound_nodes": [[["batch_normalization_31", 0, 0, {}]]], "name": "leaky_re_lu_31", "config": {"name": "leaky_re_lu_31", "trainable": true, "alpha": 0.30000001192092896}, "class_name": "LeakyReLU"}, {"inbound_nodes": [[["leaky_re_lu_31", 0, 0, {}]]], "name": "batch_normalization_32", "config": {"moving_variance_initializer": {"config": {}, "class_name": "Ones"}, "trainable": true, "axis": -1, "name": "batch_normalization_32", "gamma_regularizer": null, "gamma_initializer": {"config": {}, "class_name": "Ones"}, "beta_initializer": {"config": {}, "class_name": "Zeros"}, "moving_mean_initializer": {"config": {}, "class_name": "Zeros"}, "scale": true, "center": true, "momentum": 0.99, "beta_regularizer": null, "beta_constraint": null, "gamma_constraint": null, "epsilon": 0.001}, "class_name": "BatchNormalization"}, {"inbound_nodes": [[["batch_normalization_32", 0, 0, {}]]], "name": "leaky_re_lu_32", "config": {"name": "leaky_re_lu_32", "trainable": true, "alpha": 0.30000001192092896}, "class_name": "LeakyReLU"}, {"inbound_nodes": [[["leaky_re_lu_32", 0, 0, {}]]], "name": "dropout_8", "config": {"noise_shape": null, "name": "dropout_8", "seed": null, "trainable": true, "rate": 0.3}, "class_name": "Dropout"}, {"inbound_nodes": [[["dropout_8", 0, 0, {}]]], "name": "separable_conv1d_49", "config": {"bias_constraint": null, "name": "separable_conv1d_49", "bias_initializer": {"config": {}, "class_name": "Zeros"}, "use_bias": true, "dilation_rate": [1], "depthwise_constraint": null, "bias_regularizer": null, "depth_multiplier": 1, "depthwise_regularizer": null, "depthwise_initializer": {"config": {"scale": 1.0, "mode": "fan_avg", "seed": null, "distribution": "uniform"}, "class_name": "VarianceScaling"}, "pointwise_constraint": null, "pointwise_regularizer": null, "data_format": "channels_last", "activity_regularizer": null, "kernel_size": [16], "strides": [1], "activation": "linear", "padding": "same", "pointwise_initializer": {"config": {"scale": 1.0, "mode": "fan_avg", "seed": null, "distribution": "uniform"}, "class_name": "VarianceScaling"}, "filters": 64, "trainable": true}, "class_name": "SeparableConv1D"}, {"inbound_nodes": [[["dropout_8", 0, 0, {}]]], "name": "separable_conv1d_50", "config": {"bias_constraint": null, "name": "separable_conv1d_50", "bias_initializer": {"config": {}, "class_name": "Zeros"}, "use_bias": true, "dilation_rate": [1], "depthwise_constraint": null, "bias_regularizer": null, "depth_multiplier": 1, "depthwise_regularizer": null, "depthwise_initializer": {"config": {"scale": 1.0, "mode": "fan_avg", "seed": null, "distribution": "uniform"}, "class_name": "VarianceScaling"}, "pointwise_constraint": null, "pointwise_regularizer": null, "data_format": "channels_last", "activity_regularizer": null, "kernel_size": [32], "strides": [1], "activation": "linear", "padding": "same", "pointwise_initializer": {"config": {"scale": 1.0, "mode": "fan_avg", "seed": null, "distribution": "uniform"}, "class_name": "VarianceScaling"}, "filters": 64, "trainable": true}, "class_name": "SeparableConv1D"}, {"inbound_nodes": [[["separable_conv1d_49", 0, 0, {}], ["separable_conv1d_50", 0, 0, {}]]], "name": "concatenate_17", "config": {"name": "concatenate_17", "trainable": true, "axis": 2}, "class_name": "Concatenate"}, {"inbound_nodes": [[["concatenate_17", 0, 0, {}]]], "name": "separable_conv1d_51", "config": {"bias_constraint": null, "name": "separable_conv1d_51", "bias_initializer": {"config": {}, "class_name": "Zeros"}, "use_bias": true, "dilation_rate": [1], "depthwise_constraint": null, "bias_regularizer": null, "depth_multiplier": 1, "depthwise_regularizer": null, "depthwise_initializer": {"config": {"scale": 1.0, "mode": "fan_avg", "seed": null, "distribution": "uniform"}, "class_name": "VarianceScaling"}, "pointwise_constraint": null, "pointwise_regularizer": null, "data_format": "channels_last", "activity_regularizer": null, "kernel_size": [1], "strides": [1], "activation": "linear", "padding": "same", "pointwise_initializer": {"config": {"scale": 1.0, "mode": "fan_avg", "seed": null, "distribution": "uniform"}, "class_name": "VarianceScaling"}, "filters": 64, "trainable": true}, "class_name": "SeparableConv1D"}, {"inbound_nodes": [[["separable_conv1d_51", 0, 0, {}]]], "name": "batch_normalization_33", "config": {"moving_variance_initializer": {"config": {}, "class_name": "Ones"}, "trainable": true, "axis": -1, "name": "batch_normalization_33", "gamma_regularizer": null, "gamma_initializer": {"config": {}, "class_name": "Ones"}, "beta_initializer": {"config": {}, "class_name": "Zeros"}, "moving_mean_initializer": {"config": {}, "class_name": "Zeros"}, "scale": true, "center": true, "momentum": 0.99, "beta_regularizer": null, "beta_constraint": null, "gamma_constraint": null, "epsilon": 0.001}, "class_name": "BatchNormalization"}, {"inbound_nodes": [[["add_7", 0, 0, {}]]], "name": "max_pooling1d_8", "config": {"data_format": "channels_last", "name": "max_pooling1d_8", "strides": [2], "trainable": true, "pool_size": [2], "padding": "valid"}, "class_name": "MaxPooling1D"}, {"inbound_nodes": [[["batch_normalization_33", 0, 0, {}]]], "name": "leaky_re_lu_33", "config": {"name": "leaky_re_lu_33", "trainable": true, "alpha": 0.30000001192092896}, "class_name": "LeakyReLU"}, {"inbound_nodes": [[["max_pooling1d_8", 0, 0, {}], ["leaky_re_lu_33", 0, 0, {}]]], "name": "add_8", "config": {"name": "add_8", "trainable": true}, "class_name": "Add"}, {"inbound_nodes": [[["add_8", 0, 0, {}]]], "name": "batch_normalization_34", "config": {"moving_variance_initializer": {"config": {}, "class_name": "Ones"}, "trainable": true, "axis": -1, "name": "batch_normalization_34", "gamma_regularizer": null, "gamma_initializer": {"config": {}, "class_name": "Ones"}, "beta_initializer": {"config": {}, "class_name": "Zeros"}, "moving_mean_initializer": {"config": {}, "class_name": "Zeros"}, "scale": true, "center": true, "momentum": 0.99, "beta_regularizer": null, "beta_constraint": null, "gamma_constraint": null, "epsilon": 0.001}, "class_name": "BatchNormalization"}, {"inbound_nodes": [[["batch_normalization_34", 0, 0, {}]]], "name": "leaky_re_lu_34", "config": {"name": "leaky_re_lu_34", "trainable": true, "alpha": 0.30000001192092896}, "class_name": "LeakyReLU"}, {"inbound_nodes": [[["leaky_re_lu_34", 0, 0, {}]]], "name": "separable_conv1d_52", "config": {"bias_constraint": null, "name": "separable_conv1d_52", "bias_initializer": {"config": {}, "class_name": "Zeros"}, "use_bias": true, "dilation_rate": [1], "depthwise_constraint": null, "bias_regularizer": null, "depth_multiplier": 1, "depthwise_regularizer": null, "depthwise_initializer": {"config": {"scale": 1.0, "mode": "fan_avg", "seed": null, "distribution": "uniform"}, "class_name": "VarianceScaling"}, "pointwise_constraint": null, "pointwise_regularizer": null, "data_format": "channels_last", "activity_regularizer": null, "kernel_size": [16], "strides": [1], "activation": "linear", "padding": "same", "pointwise_initializer": {"config": {"scale": 1.0, "mode": "fan_avg", "seed": null, "distribution": "uniform"}, "class_name": "VarianceScaling"}, "filters": 128, "trainable": true}, "class_name": "SeparableConv1D"}, {"inbound_nodes": [[["leaky_re_lu_34", 0, 0, {}]]], "name": "separable_conv1d_53", "config": {"bias_constraint": null, "name": "separable_conv1d_53", "bias_initializer": {"config": {}, "class_name": "Zeros"}, "use_bias": true, "dilation_rate": [1], "depthwise_constraint": null, "bias_regularizer": null, "depth_multiplier": 1, "depthwise_regularizer": null, "depthwise_initializer": {"config": {"scale": 1.0, "mode": "fan_avg", "seed": null, "distribution": "uniform"}, "class_name": "VarianceScaling"}, "pointwise_constraint": null, "pointwise_regularizer": null, "data_format": "channels_last", "activity_regularizer": null, "kernel_size": [32], "strides": [1], "activation": "linear", "padding": "same", "pointwise_initializer": {"config": {"scale": 1.0, "mode": "fan_avg", "seed": null, "distribution": "uniform"}, "class_name": "VarianceScaling"}, "filters": 128, "trainable": true}, "class_name": "SeparableConv1D"}, {"inbound_nodes": [[["separable_conv1d_52", 0, 0, {}], ["separable_conv1d_53", 0, 0, {}]]], "name": "concatenate_18", "config": {"name": "concatenate_18", "trainable": true, "axis": 2}, "class_name": "Concatenate"}, {"inbound_nodes": [[["concatenate_18", 0, 0, {}]]], "name": "separable_conv1d_54", "config": {"bias_constraint": null, "name": "separable_conv1d_54", "bias_initializer": {"config": {}, "class_name": "Zeros"}, "use_bias": true, "dilation_rate": [1], "depthwise_constraint": null, "bias_regularizer": null, "depth_multiplier": 1, "depthwise_regularizer": null, "depthwise_initializer": {"config": {"scale": 1.0, "mode": "fan_avg", "seed": null, "distribution": "uniform"}, "class_name": "VarianceScaling"}, "pointwise_constraint": null, "pointwise_regularizer": null, "data_format": "channels_last", "activity_regularizer": null, "kernel_size": [1], "strides": [1], "activation": "linear", "padding": "same", "pointwise_initializer": {"config": {"scale": 1.0, "mode": "fan_avg", "seed": null, "distribution": "uniform"}, "class_name": "VarianceScaling"}, "filters": 128, "trainable": true}, "class_name": "SeparableConv1D"}, {"inbound_nodes": [[["separable_conv1d_54", 0, 0, {}]]], "name": "batch_normalization_35", "config": {"moving_variance_initializer": {"config": {}, "class_name": "Ones"}, "trainable": true, "axis": -1, "name": "batch_normalization_35", "gamma_regularizer": null, "gamma_initializer": {"config": {}, "class_name": "Ones"}, "beta_initializer": {"config": {}, "class_name": "Zeros"}, "moving_mean_initializer": {"config": {}, "class_name": "Zeros"}, "scale": true, "center": true, "momentum": 0.99, "beta_regularizer": null, "beta_constraint": null, "gamma_constraint": null, "epsilon": 0.001}, "class_name": "BatchNormalization"}, {"inbound_nodes": [[["batch_normalization_35", 0, 0, {}]]], "name": "leaky_re_lu_35", "config": {"name": "leaky_re_lu_35", "trainable": true, "alpha": 0.30000001192092896}, "class_name": "LeakyReLU"}, {"inbound_nodes": [[["leaky_re_lu_35", 0, 0, {}]]], "name": "batch_normalization_36", "config": {"moving_variance_initializer": {"config": {}, "class_name": "Ones"}, "trainable": true, "axis": -1, "name": "batch_normalization_36", "gamma_regularizer": null, "gamma_initializer": {"config": {}, "class_name": "Ones"}, "beta_initializer": {"config": {}, "class_name": "Zeros"}, "moving_mean_initializer": {"config": {}, "class_name": "Zeros"}, "scale": true, "center": true, "momentum": 0.99, "beta_regularizer": null, "beta_constraint": null, "gamma_constraint": null, "epsilon": 0.001}, "class_name": "BatchNormalization"}, {"inbound_nodes": [[["batch_normalization_36", 0, 0, {}]]], "name": "leaky_re_lu_36", "config": {"name": "leaky_re_lu_36", "trainable": true, "alpha": 0.30000001192092896}, "class_name": "LeakyReLU"}, {"inbound_nodes": [[["leaky_re_lu_36", 0, 0, {}]]], "name": "dropout_9", "config": {"noise_shape": null, "name": "dropout_9", "seed": null, "trainable": true, "rate": 0.3}, "class_name": "Dropout"}, {"inbound_nodes": [[["dropout_9", 0, 0, {}]]], "name": "separable_conv1d_55", "config": {"bias_constraint": null, "name": "separable_conv1d_55", "bias_initializer": {"config": {}, "class_name": "Zeros"}, "use_bias": true, "dilation_rate": [1], "depthwise_constraint": null, "bias_regularizer": null, "depth_multiplier": 1, "depthwise_regularizer": null, "depthwise_initializer": {"config": {"scale": 1.0, "mode": "fan_avg", "seed": null, "distribution": "uniform"}, "class_name": "VarianceScaling"}, "pointwise_constraint": null, "pointwise_regularizer": null, "data_format": "channels_last", "activity_regularizer": null, "kernel_size": [16], "strides": [1], "activation": "linear", "padding": "same", "pointwise_initializer": {"config": {"scale": 1.0, "mode": "fan_avg", "seed": null, "distribution": "uniform"}, "class_name": "VarianceScaling"}, "filters": 128, "trainable": true}, "class_name": "SeparableConv1D"}, {"inbound_nodes": [[["dropout_9", 0, 0, {}]]], "name": "separable_conv1d_56", "config": {"bias_constraint": null, "name": "separable_conv1d_56", "bias_initializer": {"config": {}, "class_name": "Zeros"}, "use_bias": true, "dilation_rate": [1], "depthwise_constraint": null, "bias_regularizer": null, "depth_multiplier": 1, "depthwise_regularizer": null, "depthwise_initializer": {"config": {"scale": 1.0, "mode": "fan_avg", "seed": null, "distribution": "uniform"}, "class_name": "VarianceScaling"}, "pointwise_constraint": null, "pointwise_regularizer": null, "data_format": "channels_last", "activity_regularizer": null, "kernel_size": [32], "strides": [1], "activation": "linear", "padding": "same", "pointwise_initializer": {"config": {"scale": 1.0, "mode": "fan_avg", "seed": null, "distribution": "uniform"}, "class_name": "VarianceScaling"}, "filters": 128, "trainable": true}, "class_name": "SeparableConv1D"}, {"inbound_nodes": [[["separable_conv1d_55", 0, 0, {}], ["separable_conv1d_56", 0, 0, {}]]], "name": "concatenate_19", "config": {"name": "concatenate_19", "trainable": true, "axis": 2}, "class_name": "Concatenate"}, {"inbound_nodes": [[["concatenate_19", 0, 0, {}]]], "name": "separable_conv1d_57", "config": {"bias_constraint": null, "name": "separable_conv1d_57", "bias_initializer": {"config": {}, "class_name": "Zeros"}, "use_bias": true, "dilation_rate": [1], "depthwise_constraint": null, "bias_regularizer": null, "depth_multiplier": 1, "depthwise_regularizer": null, "depthwise_initializer": {"config": {"scale": 1.0, "mode": "fan_avg", "seed": null, "distribution": "uniform"}, "class_name": "VarianceScaling"}, "pointwise_constraint": null, "pointwise_regularizer": null, "data_format": "channels_last", "activity_regularizer": null, "kernel_size": [1], "strides": [1], "activation": "linear", "padding": "same", "pointwise_initializer": {"config": {"scale": 1.0, "mode": "fan_avg", "seed": null, "distribution": "uniform"}, "class_name": "VarianceScaling"}, "filters": 128, "trainable": true}, "class_name": "SeparableConv1D"}, {"inbound_nodes": [[["add_8", 0, 0, {}]]], "name": "max_pooling1d_9", "config": {"data_format": "channels_last", "name": "max_pooling1d_9", "strides": [1], "trainable": true, "pool_size": [1], "padding": "valid"}, "class_name": "MaxPooling1D"}, {"inbound_nodes": [[["separable_conv1d_57", 0, 0, {}]]], "name": "batch_normalization_37", "config": {"moving_variance_initializer": {"config": {}, "class_name": "Ones"}, "trainable": true, "axis": -1, "name": "batch_normalization_37", "gamma_regularizer": null, "gamma_initializer": {"config": {}, "class_name": "Ones"}, "beta_initializer": {"config": {}, "class_name": "Zeros"}, "moving_mean_initializer": {"config": {}, "class_name": "Zeros"}, "scale": true, "center": true, "momentum": 0.99, "beta_regularizer": null, "beta_constraint": null, "gamma_constraint": null, "epsilon": 0.001}, "class_name": "BatchNormalization"}, {"inbound_nodes": [[["max_pooling1d_9", 0, 0, {}]]], "name": "lambda_2", "config": {"name": "lambda_2", "trainable": true, "arguments": {}, "function_type": "lambda", "function": ["4wEAAAAAAAAAAgAAAAQAAABTAAAAcygAAAB0AABqAQB8AACDAQB9AQB0AABqAgB8AAB8AQBnAgBk\nAQBkAgCDAQFTKQNO2gRheGlz6QIAAAApA9oBS9oKemVyb3NfbGlrZdoLY29uY2F0ZW5hdGUpAtoB\neNoBeakAcggAAAD6Ni9tZWRpYS91dXNlci9kYXRhLzk5NS1JQ1UgIHBsdXNlIGZldHVyZS9zcmMv\nbmV0d29yay5wedoHemVyb3BhZKgAAABzBAAAAAABDwE=\n", null, null], "output_shape": ["4wEAAAAAAAAAAgAAAAQAAABTAAAAczwAAAB0AAB8AACDAQB9AQB0AQB8AQCDAQBkAQBrAgBzJAB0\nAgCCAQB8AQBkAgAFGWQCADkDPHQDAHwBAIMBAFMpA07pAwAAAOkCAAAAKQTaBGxpc3TaA2xlbtoO\nQXNzZXJ0aW9uRXJyb3LaBXR1cGxlKQLaC2lucHV0X3NoYXBl2gVzaGFwZakAcgkAAAD6Ni9tZWRp\nYS91dXNlci9kYXRhLzk5NS1JQ1UgIHBsdXNlIGZldHVyZS9zcmMvbmV0d29yay5wedoUemVyb3Bh\nZF9vdXRwdXRfc2hhcGWsAAAAcwgAAAAAAQwBGAEOAQ==\n", null, null], "output_shape_type": "lambda"}, "class_name": "Lambda"}, {"inbound_nodes": [[["batch_normalization_37", 0, 0, {}]]], "name": "leaky_re_lu_37", "config": {"name": "leaky_re_lu_37", "trainable": true, "alpha": 0.30000001192092896}, "class_name": "LeakyReLU"}, {"inbound_nodes": [[["lambda_2", 0, 0, {}], ["leaky_re_lu_37", 0, 0, {}]]], "name": "add_9", "config": {"name": "add_9", "trainable": true}, "class_name": "Add"}, {"inbound_nodes": [[["add_9", 0, 0, {}]]], "name": "batch_normalization_38", "config": {"moving_variance_initializer": {"config": {}, "class_name": "Ones"}, "trainable": true, "axis": -1, "name": "batch_normalization_38", "gamma_regularizer": null, "gamma_initializer": {"config": {}, "class_name": "Ones"}, "beta_initializer": {"config": {}, "class_name": "Zeros"}, "moving_mean_initializer": {"config": {}, "class_name": "Zeros"}, "scale": true, "center": true, "momentum": 0.99, "beta_regularizer": null, "beta_constraint": null, "gamma_constraint": null, "epsilon": 0.001}, "class_name": "BatchNormalization"}, {"inbound_nodes": [[["batch_normalization_38", 0, 0, {}]]], "name": "leaky_re_lu_38", "config": {"name": "leaky_re_lu_38", "trainable": true, "alpha": 0.30000001192092896}, "class_name": "LeakyReLU"}, {"inbound_nodes": [[["leaky_re_lu_38", 0, 0, {}]]], "name": "separable_conv1d_58", "config": {"bias_constraint": null, "name": "separable_conv1d_58", "bias_initializer": {"config": {}, "class_name": "Zeros"}, "use_bias": true, "dilation_rate": [1], "depthwise_constraint": null, "bias_regularizer": null, "depth_multiplier": 1, "depthwise_regularizer": null, "depthwise_initializer": {"config": {"scale": 1.0, "mode": "fan_avg", "seed": null, "distribution": "uniform"}, "class_name": "VarianceScaling"}, "pointwise_constraint": null, "pointwise_regularizer": null, "data_format": "channels_last", "activity_regularizer": null, "kernel_size": [16], "strides": [2], "activation": "linear", "padding": "same", "pointwise_initializer": {"config": {"scale": 1.0, "mode": "fan_avg", "seed": null, "distribution": "uniform"}, "class_name": "VarianceScaling"}, "filters": 128, "trainable": true}, "class_name": "SeparableConv1D"}, {"inbound_nodes": [[["leaky_re_lu_38", 0, 0, {}]]], "name": "separable_conv1d_59", "config": {"bias_constraint": null, "name": "separable_conv1d_59", "bias_initializer": {"config": {}, "class_name": "Zeros"}, "use_bias": true, "dilation_rate": [1], "depthwise_constraint": null, "bias_regularizer": null, "depth_multiplier": 1, "depthwise_regularizer": null, "depthwise_initializer": {"config": {"scale": 1.0, "mode": "fan_avg", "seed": null, "distribution": "uniform"}, "class_name": "VarianceScaling"}, "pointwise_constraint": null, "pointwise_regularizer": null, "data_format": "channels_last", "activity_regularizer": null, "kernel_size": [32], "strides": [2], "activation": "linear", "padding": "same", "pointwise_initializer": {"config": {"scale": 1.0, "mode": "fan_avg", "seed": null, "distribution": "uniform"}, "class_name": "VarianceScaling"}, "filters": 128, "trainable": true}, "class_name": "SeparableConv1D"}, {"inbound_nodes": [[["separable_conv1d_58", 0, 0, {}], ["separable_conv1d_59", 0, 0, {}]]], "name": "concatenate_20", "config": {"name": "concatenate_20", "trainable": true, "axis": 2}, "class_name": "Concatenate"}, {"inbound_nodes": [[["concatenate_20", 0, 0, {}]]], "name": "separable_conv1d_60", "config": {"bias_constraint": null, "name": "separable_conv1d_60", "bias_initializer": {"config": {}, "class_name": "Zeros"}, "use_bias": true, "dilation_rate": [1], "depthwise_constraint": null, "bias_regularizer": null, "depth_multiplier": 1, "depthwise_regularizer": null, "depthwise_initializer": {"config": {"scale": 1.0, "mode": "fan_avg", "seed": null, "distribution": "uniform"}, "class_name": "VarianceScaling"}, "pointwise_constraint": null, "pointwise_regularizer": null, "data_format": "channels_last", "activity_regularizer": null, "kernel_size": [2], "strides": [1], "activation": "linear", "padding": "same", "pointwise_initializer": {"config": {"scale": 1.0, "mode": "fan_avg", "seed": null, "distribution": "uniform"}, "class_name": "VarianceScaling"}, "filters": 128, "trainable": true}, "class_name": "SeparableConv1D"}, {"inbound_nodes": [[["separable_conv1d_60", 0, 0, {}]]], "name": "batch_normalization_39", "config": {"moving_variance_initializer": {"config": {}, "class_name": "Ones"}, "trainable": true, "axis": -1, "name": "batch_normalization_39", "gamma_regularizer": null, "gamma_initializer": {"config": {}, "class_name": "Ones"}, "beta_initializer": {"config": {}, "class_name": "Zeros"}, "moving_mean_initializer": {"config": {}, "class_name": "Zeros"}, "scale": true, "center": true, "momentum": 0.99, "beta_regularizer": null, "beta_constraint": null, "gamma_constraint": null, "epsilon": 0.001}, "class_name": "BatchNormalization"}, {"inbound_nodes": [[["batch_normalization_39", 0, 0, {}]]], "name": "leaky_re_lu_39", "config": {"name": "leaky_re_lu_39", "trainable": true, "alpha": 0.30000001192092896}, "class_name": "LeakyReLU"}, {"inbound_nodes": [[["leaky_re_lu_39", 0, 0, {}]]], "name": "batch_normalization_40", "config": {"moving_variance_initializer": {"config": {}, "class_name": "Ones"}, "trainable": true, "axis": -1, "name": "batch_normalization_40", "gamma_regularizer": null, "gamma_initializer": {"config": {}, "class_name": "Ones"}, "beta_initializer": {"config": {}, "class_name": "Zeros"}, "moving_mean_initializer": {"config": {}, "class_name": "Zeros"}, "scale": true, "center": true, "momentum": 0.99, "beta_regularizer": null, "beta_constraint": null, "gamma_constraint": null, "epsilon": 0.001}, "class_name": "BatchNormalization"}, {"inbound_nodes": [[["batch_normalization_40", 0, 0, {}]]], "name": "leaky_re_lu_40", "config": {"name": "leaky_re_lu_40", "trainable": true, "alpha": 0.30000001192092896}, "class_name": "LeakyReLU"}, {"inbound_nodes": [[["leaky_re_lu_40", 0, 0, {}]]], "name": "dropout_10", "config": {"noise_shape": null, "name": "dropout_10", "seed": null, "trainable": true, "rate": 0.3}, "class_name": "Dropout"}, {"inbound_nodes": [[["dropout_10", 0, 0, {}]]], "name": "separable_conv1d_61", "config": {"bias_constraint": null, "name": "separable_conv1d_61", "bias_initializer": {"config": {}, "class_name": "Zeros"}, "use_bias": true, "dilation_rate": [1], "depthwise_constraint": null, "bias_regularizer": null, "depth_multiplier": 1, "depthwise_regularizer": null, "depthwise_initializer": {"config": {"scale": 1.0, "mode": "fan_avg", "seed": null, "distribution": "uniform"}, "class_name": "VarianceScaling"}, "pointwise_constraint": null, "pointwise_regularizer": null, "data_format": "channels_last", "activity_regularizer": null, "kernel_size": [16], "strides": [1], "activation": "linear", "padding": "same", "pointwise_initializer": {"config": {"scale": 1.0, "mode": "fan_avg", "seed": null, "distribution": "uniform"}, "class_name": "VarianceScaling"}, "filters": 128, "trainable": true}, "class_name": "SeparableConv1D"}, {"inbound_nodes": [[["dropout_10", 0, 0, {}]]], "name": "separable_conv1d_62", "config": {"bias_constraint": null, "name": "separable_conv1d_62", "bias_initializer": {"config": {}, "class_name": "Zeros"}, "use_bias": true, "dilation_rate": [1], "depthwise_constraint": null, "bias_regularizer": null, "depth_multiplier": 1, "depthwise_regularizer": null, "depthwise_initializer": {"config": {"scale": 1.0, "mode": "fan_avg", "seed": null, "distribution": "uniform"}, "class_name": "VarianceScaling"}, "pointwise_constraint": null, "pointwise_regularizer": null, "data_format": "channels_last", "activity_regularizer": null, "kernel_size": [32], "strides": [1], "activation": "linear", "padding": "same", "pointwise_initializer": {"config": {"scale": 1.0, "mode": "fan_avg", "seed": null, "distribution": "uniform"}, "class_name": "VarianceScaling"}, "filters": 128, "trainable": true}, "class_name": "SeparableConv1D"}, {"inbound_nodes": [[["separable_conv1d_61", 0, 0, {}], ["separable_conv1d_62", 0, 0, {}]]], "name": "concatenate_21", "config": {"name": "concatenate_21", "trainable": true, "axis": 2}, "class_name": "Concatenate"}, {"inbound_nodes": [[["concatenate_21", 0, 0, {}]]], "name": "separable_conv1d_63", "config": {"bias_constraint": null, "name": "separable_conv1d_63", "bias_initializer": {"config": {}, "class_name": "Zeros"}, "use_bias": true, "dilation_rate": [1], "depthwise_constraint": null, "bias_regularizer": null, "depth_multiplier": 1, "depthwise_regularizer": null, "depthwise_initializer": {"config": {"scale": 1.0, "mode": "fan_avg", "seed": null, "distribution": "uniform"}, "class_name": "VarianceScaling"}, "pointwise_constraint": null, "pointwise_regularizer": null, "data_format": "channels_last", "activity_regularizer": null, "kernel_size": [1], "strides": [1], "activation": "linear", "padding": "same", "pointwise_initializer": {"config": {"scale": 1.0, "mode": "fan_avg", "seed": null, "distribution": "uniform"}, "class_name": "VarianceScaling"}, "filters": 128, "trainable": true}, "class_name": "SeparableConv1D"}, {"inbound_nodes": [[["separable_conv1d_63", 0, 0, {}]]], "name": "batch_normalization_41", "config": {"moving_variance_initializer": {"config": {}, "class_name": "Ones"}, "trainable": true, "axis": -1, "name": "batch_normalization_41", "gamma_regularizer": null, "gamma_initializer": {"config": {}, "class_name": "Ones"}, "beta_initializer": {"config": {}, "class_name": "Zeros"}, "moving_mean_initializer": {"config": {}, "class_name": "Zeros"}, "scale": true, "center": true, "momentum": 0.99, "beta_regularizer": null, "beta_constraint": null, "gamma_constraint": null, "epsilon": 0.001}, "class_name": "BatchNormalization"}, {"inbound_nodes": [[["add_9", 0, 0, {}]]], "name": "max_pooling1d_10", "config": {"data_format": "channels_last", "name": "max_pooling1d_10", "strides": [2], "trainable": true, "pool_size": [2], "padding": "valid"}, "class_name": "MaxPooling1D"}, {"inbound_nodes": [[["batch_normalization_41", 0, 0, {}]]], "name": "leaky_re_lu_41", "config": {"name": "leaky_re_lu_41", "trainable": true, "alpha": 0.30000001192092896}, "class_name": "LeakyReLU"}, {"inbound_nodes": [[["max_pooling1d_10", 0, 0, {}], ["leaky_re_lu_41", 0, 0, {}]]], "name": "add_10", "config": {"name": "add_10", "trainable": true}, "class_name": "Add"}, {"inbound_nodes": [[["add_10", 0, 0, {}]]], "name": "batch_normalization_42", "config": {"moving_variance_initializer": {"config": {}, "class_name": "Ones"}, "trainable": true, "axis": -1, "name": "batch_normalization_42", "gamma_regularizer": null, "gamma_initializer": {"config": {}, "class_name": "Ones"}, "beta_initializer": {"config": {}, "class_name": "Zeros"}, "moving_mean_initializer": {"config": {}, "class_name": "Zeros"}, "scale": true, "center": true, "momentum": 0.99, "beta_regularizer": null, "beta_constraint": null, "gamma_constraint": null, "epsilon": 0.001}, "class_name": "BatchNormalization"}, {"inbound_nodes": [[["batch_normalization_42", 0, 0, {}]]], "name": "leaky_re_lu_42", "config": {"name": "leaky_re_lu_42", "trainable": true, "alpha": 0.30000001192092896}, "class_name": "LeakyReLU"}, {"inbound_nodes": [[["leaky_re_lu_42", 0, 0, {}]]], "name": "separable_conv1d_64", "config": {"bias_constraint": null, "name": "separable_conv1d_64", "bias_initializer": {"config": {}, "class_name": "Zeros"}, "use_bias": true, "dilation_rate": [1], "depthwise_constraint": null, "bias_regularizer": null, "depth_multiplier": 1, "depthwise_regularizer": null, "depthwise_initializer": {"config": {"scale": 1.0, "mode": "fan_avg", "seed": null, "distribution": "uniform"}, "class_name": "VarianceScaling"}, "pointwise_constraint": null, "pointwise_regularizer": null, "data_format": "channels_last", "activity_regularizer": null, "kernel_size": [16], "strides": [1], "activation": "linear", "padding": "same", "pointwise_initializer": {"config": {"scale": 1.0, "mode": "fan_avg", "seed": null, "distribution": "uniform"}, "class_name": "VarianceScaling"}, "filters": 128, "trainable": true}, "class_name": "SeparableConv1D"}, {"inbound_nodes": [[["leaky_re_lu_42", 0, 0, {}]]], "name": "separable_conv1d_65", "config": {"bias_constraint": null, "name": "separable_conv1d_65", "bias_initializer": {"config": {}, "class_name": "Zeros"}, "use_bias": true, "dilation_rate": [1], "depthwise_constraint": null, "bias_regularizer": null, "depth_multiplier": 1, "depthwise_regularizer": null, "depthwise_initializer": {"config": {"scale": 1.0, "mode": "fan_avg", "seed": null, "distribution": "uniform"}, "class_name": "VarianceScaling"}, "pointwise_constraint": null, "pointwise_regularizer": null, "data_format": "channels_last", "activity_regularizer": null, "kernel_size": [32], "strides": [1], "activation": "linear", "padding": "same", "pointwise_initializer": {"config": {"scale": 1.0, "mode": "fan_avg", "seed": null, "distribution": "uniform"}, "class_name": "VarianceScaling"}, "filters": 128, "trainable": true}, "class_name": "SeparableConv1D"}, {"inbound_nodes": [[["separable_conv1d_64", 0, 0, {}], ["separable_conv1d_65", 0, 0, {}]]], "name": "concatenate_22", "config": {"name": "concatenate_22", "trainable": true, "axis": 2}, "class_name": "Concatenate"}, {"inbound_nodes": [[["concatenate_22", 0, 0, {}]]], "name": "separable_conv1d_66", "config": {"bias_constraint": null, "name": "separable_conv1d_66", "bias_initializer": {"config": {}, "class_name": "Zeros"}, "use_bias": true, "dilation_rate": [1], "depthwise_constraint": null, "bias_regularizer": null, "depth_multiplier": 1, "depthwise_regularizer": null, "depthwise_initializer": {"config": {"scale": 1.0, "mode": "fan_avg", "seed": null, "distribution": "uniform"}, "class_name": "VarianceScaling"}, "pointwise_constraint": null, "pointwise_regularizer": null, "data_format": "channels_last", "activity_regularizer": null, "kernel_size": [1], "strides": [1], "activation": "linear", "padding": "same", "pointwise_initializer": {"config": {"scale": 1.0, "mode": "fan_avg", "seed": null, "distribution": "uniform"}, "class_name": "VarianceScaling"}, "filters": 128, "trainable": true}, "class_name": "SeparableConv1D"}, {"inbound_nodes": [[["separable_conv1d_66", 0, 0, {}]]], "name": "batch_normalization_43", "config": {"moving_variance_initializer": {"config": {}, "class_name": "Ones"}, "trainable": true, "axis": -1, "name": "batch_normalization_43", "gamma_regularizer": null, "gamma_initializer": {"config": {}, "class_name": "Ones"}, "beta_initializer": {"config": {}, "class_name": "Zeros"}, "moving_mean_initializer": {"config": {}, "class_name": "Zeros"}, "scale": true, "center": true, "momentum": 0.99, "beta_regularizer": null, "beta_constraint": null, "gamma_constraint": null, "epsilon": 0.001}, "class_name": "BatchNormalization"}, {"inbound_nodes": [[["batch_normalization_43", 0, 0, {}]]], "name": "leaky_re_lu_43", "config": {"name": "leaky_re_lu_43", "trainable": true, "alpha": 0.30000001192092896}, "class_name": "LeakyReLU"}, {"inbound_nodes": [[["leaky_re_lu_43", 0, 0, {}]]], "name": "batch_normalization_44", "config": {"moving_variance_initializer": {"config": {}, "class_name": "Ones"}, "trainable": true, "axis": -1, "name": "batch_normalization_44", "gamma_regularizer": null, "gamma_initializer": {"config": {}, "class_name": "Ones"}, "beta_initializer": {"config": {}, "class_name": "Zeros"}, "moving_mean_initializer": {"config": {}, "class_name": "Zeros"}, "scale": true, "center": true, "momentum": 0.99, "beta_regularizer": null, "beta_constraint": null, "gamma_constraint": null, "epsilon": 0.001}, "class_name": "BatchNormalization"}, {"inbound_nodes": [[["batch_normalization_44", 0, 0, {}]]], "name": "leaky_re_lu_44", "config": {"name": "leaky_re_lu_44", "trainable": true, "alpha": 0.30000001192092896}, "class_name": "LeakyReLU"}, {"inbound_nodes": [[["leaky_re_lu_44", 0, 0, {}]]], "name": "dropout_11", "config": {"noise_shape": null, "name": "dropout_11", "seed": null, "trainable": true, "rate": 0.3}, "class_name": "Dropout"}, {"inbound_nodes": [[["dropout_11", 0, 0, {}]]], "name": "separable_conv1d_67", "config": {"bias_constraint": null, "name": "separable_conv1d_67", "bias_initializer": {"config": {}, "class_name": "Zeros"}, "use_bias": true, "dilation_rate": [1], "depthwise_constraint": null, "bias_regularizer": null, "depth_multiplier": 1, "depthwise_regularizer": null, "depthwise_initializer": {"config": {"scale": 1.0, "mode": "fan_avg", "seed": null, "distribution": "uniform"}, "class_name": "VarianceScaling"}, "pointwise_constraint": null, "pointwise_regularizer": null, "data_format": "channels_last", "activity_regularizer": null, "kernel_size": [16], "strides": [1], "activation": "linear", "padding": "same", "pointwise_initializer": {"config": {"scale": 1.0, "mode": "fan_avg", "seed": null, "distribution": "uniform"}, "class_name": "VarianceScaling"}, "filters": 128, "trainable": true}, "class_name": "SeparableConv1D"}, {"inbound_nodes": [[["dropout_11", 0, 0, {}]]], "name": "separable_conv1d_68", "config": {"bias_constraint": null, "name": "separable_conv1d_68", "bias_initializer": {"config": {}, "class_name": "Zeros"}, "use_bias": true, "dilation_rate": [1], "depthwise_constraint": null, "bias_regularizer": null, "depth_multiplier": 1, "depthwise_regularizer": null, "depthwise_initializer": {"config": {"scale": 1.0, "mode": "fan_avg", "seed": null, "distribution": "uniform"}, "class_name": "VarianceScaling"}, "pointwise_constraint": null, "pointwise_regularizer": null, "data_format": "channels_last", "activity_regularizer": null, "kernel_size": [32], "strides": [1], "activation": "linear", "padding": "same", "pointwise_initializer": {"config": {"scale": 1.0, "mode": "fan_avg", "seed": null, "distribution": "uniform"}, "class_name": "VarianceScaling"}, "filters": 128, "trainable": true}, "class_name": "SeparableConv1D"}, {"inbound_nodes": [[["separable_conv1d_67", 0, 0, {}], ["separable_conv1d_68", 0, 0, {}]]], "name": "concatenate_23", "config": {"name": "concatenate_23", "trainable": true, "axis": 2}, "class_name": "Concatenate"}, {"inbound_nodes": [[["concatenate_23", 0, 0, {}]]], "name": "separable_conv1d_69", "config": {"bias_constraint": null, "name": "separable_conv1d_69", "bias_initializer": {"config": {}, "class_name": "Zeros"}, "use_bias": true, "dilation_rate": [1], "depthwise_constraint": null, "bias_regularizer": null, "depth_multiplier": 1, "depthwise_regularizer": null, "depthwise_initializer": {"config": {"scale": 1.0, "mode": "fan_avg", "seed": null, "distribution": "uniform"}, "class_name": "VarianceScaling"}, "pointwise_constraint": null, "pointwise_regularizer": null, "data_format": "channels_last", "activity_regularizer": null, "kernel_size": [1], "strides": [1], "activation": "linear", "padding": "same", "pointwise_initializer": {"config": {"scale": 1.0, "mode": "fan_avg", "seed": null, "distribution": "uniform"}, "class_name": "VarianceScaling"}, "filters": 128, "trainable": true}, "class_name": "SeparableConv1D"}, {"inbound_nodes": [[["separable_conv1d_69", 0, 0, {}]]], "name": "batch_normalization_45", "config": {"moving_variance_initializer": {"config": {}, "class_name": "Ones"}, "trainable": true, "axis": -1, "name": "batch_normalization_45", "gamma_regularizer": null, "gamma_initializer": {"config": {}, "class_name": "Ones"}, "beta_initializer": {"config": {}, "class_name": "Zeros"}, "moving_mean_initializer": {"config": {}, "class_name": "Zeros"}, "scale": true, "center": true, "momentum": 0.99, "beta_regularizer": null, "beta_constraint": null, "gamma_constraint": null, "epsilon": 0.001}, "class_name": "BatchNormalization"}, {"inbound_nodes": [[["add_10", 0, 0, {}]]], "name": "max_pooling1d_11", "config": {"data_format": "channels_last", "name": "max_pooling1d_11", "strides": [1], "trainable": true, "pool_size": [1], "padding": "valid"}, "class_name": "MaxPooling1D"}, {"inbound_nodes": [[["batch_normalization_45", 0, 0, {}]]], "name": "leaky_re_lu_45", "config": {"name": "leaky_re_lu_45", "trainable": true, "alpha": 0.30000001192092896}, "class_name": "LeakyReLU"}, {"inbound_nodes": [[["max_pooling1d_11", 0, 0, {}], ["leaky_re_lu_45", 0, 0, {}]]], "name": "add_11", "config": {"name": "add_11", "trainable": true}, "class_name": "Add"}, {"inbound_nodes": [[["add_11", 0, 0, {}]]], "name": "batch_normalization_46", "config": {"moving_variance_initializer": {"config": {}, "class_name": "Ones"}, "trainable": true, "axis": -1, "name": "batch_normalization_46", "gamma_regularizer": null, "gamma_initializer": {"config": {}, "class_name": "Ones"}, "beta_initializer": {"config": {}, "class_name": "Zeros"}, "moving_mean_initializer": {"config": {}, "class_name": "Zeros"}, "scale": true, "center": true, "momentum": 0.99, "beta_regularizer": null, "beta_constraint": null, "gamma_constraint": null, "epsilon": 0.001}, "class_name": "BatchNormalization"}, {"inbound_nodes": [[["batch_normalization_46", 0, 0, {}]]], "name": "leaky_re_lu_46", "config": {"name": "leaky_re_lu_46", "trainable": true, "alpha": 0.30000001192092896}, "class_name": "LeakyReLU"}, {"inbound_nodes": [[["leaky_re_lu_46", 0, 0, {}]]], "name": "separable_conv1d_70", "config": {"bias_constraint": null, "name": "separable_conv1d_70", "bias_initializer": {"config": {}, "class_name": "Zeros"}, "use_bias": true, "dilation_rate": [1], "depthwise_constraint": null, "bias_regularizer": null, "depth_multiplier": 1, "depthwise_regularizer": null, "depthwise_initializer": {"config": {"scale": 1.0, "mode": "fan_avg", "seed": null, "distribution": "uniform"}, "class_name": "VarianceScaling"}, "pointwise_constraint": null, "pointwise_regularizer": null, "data_format": "channels_last", "activity_regularizer": null, "kernel_size": [16], "strides": [2], "activation": "linear", "padding": "same", "pointwise_initializer": {"config": {"scale": 1.0, "mode": "fan_avg", "seed": null, "distribution": "uniform"}, "class_name": "VarianceScaling"}, "filters": 128, "trainable": true}, "class_name": "SeparableConv1D"}, {"inbound_nodes": [[["leaky_re_lu_46", 0, 0, {}]]], "name": "separable_conv1d_71", "config": {"bias_constraint": null, "name": "separable_conv1d_71", "bias_initializer": {"config": {}, "class_name": "Zeros"}, "use_bias": true, "dilation_rate": [1], "depthwise_constraint": null, "bias_regularizer": null, "depth_multiplier": 1, "depthwise_regularizer": null, "depthwise_initializer": {"config": {"scale": 1.0, "mode": "fan_avg", "seed": null, "distribution": "uniform"}, "class_name": "VarianceScaling"}, "pointwise_constraint": null, "pointwise_regularizer": null, "data_format": "channels_last", "activity_regularizer": null, "kernel_size": [32], "strides": [2], "activation": "linear", "padding": "same", "pointwise_initializer": {"config": {"scale": 1.0, "mode": "fan_avg", "seed": null, "distribution": "uniform"}, "class_name": "VarianceScaling"}, "filters": 128, "trainable": true}, "class_name": "SeparableConv1D"}, {"inbound_nodes": [[["separable_conv1d_70", 0, 0, {}], ["separable_conv1d_71", 0, 0, {}]]], "name": "concatenate_24", "config": {"name": "concatenate_24", "trainable": true, "axis": 2}, "class_name": "Concatenate"}, {"inbound_nodes": [[["concatenate_24", 0, 0, {}]]], "name": "separable_conv1d_72", "config": {"bias_constraint": null, "name": "separable_conv1d_72", "bias_initializer": {"config": {}, "class_name": "Zeros"}, "use_bias": true, "dilation_rate": [1], "depthwise_constraint": null, "bias_regularizer": null, "depth_multiplier": 1, "depthwise_regularizer": null, "depthwise_initializer": {"config": {"scale": 1.0, "mode": "fan_avg", "seed": null, "distribution": "uniform"}, "class_name": "VarianceScaling"}, "pointwise_constraint": null, "pointwise_regularizer": null, "data_format": "channels_last", "activity_regularizer": null, "kernel_size": [2], "strides": [1], "activation": "linear", "padding": "same", "pointwise_initializer": {"config": {"scale": 1.0, "mode": "fan_avg", "seed": null, "distribution": "uniform"}, "class_name": "VarianceScaling"}, "filters": 128, "trainable": true}, "class_name": "SeparableConv1D"}, {"inbound_nodes": [[["separable_conv1d_72", 0, 0, {}]]], "name": "batch_normalization_47", "config": {"moving_variance_initializer": {"config": {}, "class_name": "Ones"}, "trainable": true, "axis": -1, "name": "batch_normalization_47", "gamma_regularizer": null, "gamma_initializer": {"config": {}, "class_name": "Ones"}, "beta_initializer": {"config": {}, "class_name": "Zeros"}, "moving_mean_initializer": {"config": {}, "class_name": "Zeros"}, "scale": true, "center": true, "momentum": 0.99, "beta_regularizer": null, "beta_constraint": null, "gamma_constraint": null, "epsilon": 0.001}, "class_name": "BatchNormalization"}, {"inbound_nodes": [[["batch_normalization_47", 0, 0, {}]]], "name": "leaky_re_lu_47", "config": {"name": "leaky_re_lu_47", "trainable": true, "alpha": 0.30000001192092896}, "class_name": "LeakyReLU"}, {"inbound_nodes": [[["leaky_re_lu_47", 0, 0, {}]]], "name": "batch_normalization_48", "config": {"moving_variance_initializer": {"config": {}, "class_name": "Ones"}, "trainable": true, "axis": -1, "name": "batch_normalization_48", "gamma_regularizer": null, "gamma_initializer": {"config": {}, "class_name": "Ones"}, "beta_initializer": {"config": {}, "class_name": "Zeros"}, "moving_mean_initializer": {"config": {}, "class_name": "Zeros"}, "scale": true, "center": true, "momentum": 0.99, "beta_regularizer": null, "beta_constraint": null, "gamma_constraint": null, "epsilon": 0.001}, "class_name": "BatchNormalization"}, {"inbound_nodes": [[["batch_normalization_48", 0, 0, {}]]], "name": "leaky_re_lu_48", "config": {"name": "leaky_re_lu_48", "trainable": true, "alpha": 0.30000001192092896}, "class_name": "LeakyReLU"}, {"inbound_nodes": [[["leaky_re_lu_48", 0, 0, {}]]], "name": "dropout_12", "config": {"noise_shape": null, "name": "dropout_12", "seed": null, "trainable": true, "rate": 0.3}, "class_name": "Dropout"}, {"inbound_nodes": [[["dropout_12", 0, 0, {}]]], "name": "separable_conv1d_73", "config": {"bias_constraint": null, "name": "separable_conv1d_73", "bias_initializer": {"config": {}, "class_name": "Zeros"}, "use_bias": true, "dilation_rate": [1], "depthwise_constraint": null, "bias_regularizer": null, "depth_multiplier": 1, "depthwise_regularizer": null, "depthwise_initializer": {"config": {"scale": 1.0, "mode": "fan_avg", "seed": null, "distribution": "uniform"}, "class_name": "VarianceScaling"}, "pointwise_constraint": null, "pointwise_regularizer": null, "data_format": "channels_last", "activity_regularizer": null, "kernel_size": [16], "strides": [1], "activation": "linear", "padding": "same", "pointwise_initializer": {"config": {"scale": 1.0, "mode": "fan_avg", "seed": null, "distribution": "uniform"}, "class_name": "VarianceScaling"}, "filters": 128, "trainable": true}, "class_name": "SeparableConv1D"}, {"inbound_nodes": [[["dropout_12", 0, 0, {}]]], "name": "separable_conv1d_74", "config": {"bias_constraint": null, "name": "separable_conv1d_74", "bias_initializer": {"config": {}, "class_name": "Zeros"}, "use_bias": true, "dilation_rate": [1], "depthwise_constraint": null, "bias_regularizer": null, "depth_multiplier": 1, "depthwise_regularizer": null, "depthwise_initializer": {"config": {"scale": 1.0, "mode": "fan_avg", "seed": null, "distribution": "uniform"}, "class_name": "VarianceScaling"}, "pointwise_constraint": null, "pointwise_regularizer": null, "data_format": "channels_last", "activity_regularizer": null, "kernel_size": [32], "strides": [1], "activation": "linear", "padding": "same", "pointwise_initializer": {"config": {"scale": 1.0, "mode": "fan_avg", "seed": null, "distribution": "uniform"}, "class_name": "VarianceScaling"}, "filters": 128, "trainable": true}, "class_name": "SeparableConv1D"}, {"inbound_nodes": [[["separable_conv1d_73", 0, 0, {}], ["separable_conv1d_74", 0, 0, {}]]], "name": "concatenate_25", "config": {"name": "concatenate_25", "trainable": true, "axis": 2}, "class_name": "Concatenate"}, {"inbound_nodes": [[["concatenate_25", 0, 0, {}]]], "name": "separable_conv1d_75", "config": {"bias_constraint": null, "name": "separable_conv1d_75", "bias_initializer": {"config": {}, "class_name": "Zeros"}, "use_bias": true, "dilation_rate": [1], "depthwise_constraint": null, "bias_regularizer": null, "depth_multiplier": 1, "depthwise_regularizer": null, "depthwise_initializer": {"config": {"scale": 1.0, "mode": "fan_avg", "seed": null, "distribution": "uniform"}, "class_name": "VarianceScaling"}, "pointwise_constraint": null, "pointwise_regularizer": null, "data_format": "channels_last", "activity_regularizer": null, "kernel_size": [1], "strides": [1], "activation": "linear", "padding": "same", "pointwise_initializer": {"config": {"scale": 1.0, "mode": "fan_avg", "seed": null, "distribution": "uniform"}, "class_name": "VarianceScaling"}, "filters": 128, "trainable": true}, "class_name": "SeparableConv1D"}, {"inbound_nodes": [[["separable_conv1d_75", 0, 0, {}]]], "name": "batch_normalization_49", "config": {"moving_variance_initializer": {"config": {}, "class_name": "Ones"}, "trainable": true, "axis": -1, "name": "batch_normalization_49", "gamma_regularizer": null, "gamma_initializer": {"config": {}, "class_name": "Ones"}, "beta_initializer": {"config": {}, "class_name": "Zeros"}, "moving_mean_initializer": {"config": {}, "class_name": "Zeros"}, "scale": true, "center": true, "momentum": 0.99, "beta_regularizer": null, "beta_constraint": null, "gamma_constraint": null, "epsilon": 0.001}, "class_name": "BatchNormalization"}, {"inbound_nodes": [[["add_11", 0, 0, {}]]], "name": "max_pooling1d_12", "config": {"data_format": "channels_last", "name": "max_pooling1d_12", "strides": [2], "trainable": true, "pool_size": [2], "padding": "valid"}, "class_name": "MaxPooling1D"}, {"inbound_nodes": [[["batch_normalization_49", 0, 0, {}]]], "name": "leaky_re_lu_49", "config": {"name": "leaky_re_lu_49", "trainable": true, "alpha": 0.30000001192092896}, "class_name": "LeakyReLU"}, {"inbound_nodes": [[["max_pooling1d_12", 0, 0, {}], ["leaky_re_lu_49", 0, 0, {}]]], "name": "add_12", "config": {"name": "add_12", "trainable": true}, "class_name": "Add"}, {"inbound_nodes": [[["add_12", 0, 0, {}]]], "name": "batch_normalization_50", "config": {"moving_variance_initializer": {"config": {}, "class_name": "Ones"}, "trainable": true, "axis": -1, "name": "batch_normalization_50", "gamma_regularizer": null, "gamma_initializer": {"config": {}, "class_name": "Ones"}, "beta_initializer": {"config": {}, "class_name": "Zeros"}, "moving_mean_initializer": {"config": {}, "class_name": "Zeros"}, "scale": true, "center": true, "momentum": 0.99, "beta_regularizer": null, "beta_constraint": null, "gamma_constraint": null, "epsilon": 0.001}, "class_name": "BatchNormalization"}, {"inbound_nodes": [[["batch_normalization_50", 0, 0, {}]]], "name": "leaky_re_lu_50", "config": {"name": "leaky_re_lu_50", "trainable": true, "alpha": 0.30000001192092896}, "class_name": "LeakyReLU"}, {"inbound_nodes": [[["leaky_re_lu_50", 0, 0, {}]]], "name": "separable_conv1d_76", "config": {"bias_constraint": null, "name": "separable_conv1d_76", "bias_initializer": {"config": {}, "class_name": "Zeros"}, "use_bias": true, "dilation_rate": [1], "depthwise_constraint": null, "bias_regularizer": null, "depth_multiplier": 1, "depthwise_regularizer": null, "depthwise_initializer": {"config": {"scale": 1.0, "mode": "fan_avg", "seed": null, "distribution": "uniform"}, "class_name": "VarianceScaling"}, "pointwise_constraint": null, "pointwise_regularizer": null, "data_format": "channels_last", "activity_regularizer": null, "kernel_size": [16], "strides": [1], "activation": "linear", "padding": "same", "pointwise_initializer": {"config": {"scale": 1.0, "mode": "fan_avg", "seed": null, "distribution": "uniform"}, "class_name": "VarianceScaling"}, "filters": 256, "trainable": true}, "class_name": "SeparableConv1D"}, {"inbound_nodes": [[["leaky_re_lu_50", 0, 0, {}]]], "name": "separable_conv1d_77", "config": {"bias_constraint": null, "name": "separable_conv1d_77", "bias_initializer": {"config": {}, "class_name": "Zeros"}, "use_bias": true, "dilation_rate": [1], "depthwise_constraint": null, "bias_regularizer": null, "depth_multiplier": 1, "depthwise_regularizer": null, "depthwise_initializer": {"config": {"scale": 1.0, "mode": "fan_avg", "seed": null, "distribution": "uniform"}, "class_name": "VarianceScaling"}, "pointwise_constraint": null, "pointwise_regularizer": null, "data_format": "channels_last", "activity_regularizer": null, "kernel_size": [32], "strides": [1], "activation": "linear", "padding": "same", "pointwise_initializer": {"config": {"scale": 1.0, "mode": "fan_avg", "seed": null, "distribution": "uniform"}, "class_name": "VarianceScaling"}, "filters": 256, "trainable": true}, "class_name": "SeparableConv1D"}, {"inbound_nodes": [[["separable_conv1d_76", 0, 0, {}], ["separable_conv1d_77", 0, 0, {}]]], "name": "concatenate_26", "config": {"name": "concatenate_26", "trainable": true, "axis": 2}, "class_name": "Concatenate"}, {"inbound_nodes": [[["concatenate_26", 0, 0, {}]]], "name": "separable_conv1d_78", "config": {"bias_constraint": null, "name": "separable_conv1d_78", "bias_initializer": {"config": {}, "class_name": "Zeros"}, "use_bias": true, "dilation_rate": [1], "depthwise_constraint": null, "bias_regularizer": null, "depth_multiplier": 1, "depthwise_regularizer": null, "depthwise_initializer": {"config": {"scale": 1.0, "mode": "fan_avg", "seed": null, "distribution": "uniform"}, "class_name": "VarianceScaling"}, "pointwise_constraint": null, "pointwise_regularizer": null, "data_format": "channels_last", "activity_regularizer": null, "kernel_size": [1], "strides": [1], "activation": "linear", "padding": "same", "pointwise_initializer": {"config": {"scale": 1.0, "mode": "fan_avg", "seed": null, "distribution": "uniform"}, "class_name": "VarianceScaling"}, "filters": 256, "trainable": true}, "class_name": "SeparableConv1D"}, {"inbound_nodes": [[["separable_conv1d_78", 0, 0, {}]]], "name": "batch_normalization_51", "config": {"moving_variance_initializer": {"config": {}, "class_name": "Ones"}, "trainable": true, "axis": -1, "name": "batch_normalization_51", "gamma_regularizer": null, "gamma_initializer": {"config": {}, "class_name": "Ones"}, "beta_initializer": {"config": {}, "class_name": "Zeros"}, "moving_mean_initializer": {"config": {}, "class_name": "Zeros"}, "scale": true, "center": true, "momentum": 0.99, "beta_regularizer": null, "beta_constraint": null, "gamma_constraint": null, "epsilon": 0.001}, "class_name": "BatchNormalization"}, {"inbound_nodes": [[["batch_normalization_51", 0, 0, {}]]], "name": "leaky_re_lu_51", "config": {"name": "leaky_re_lu_51", "trainable": true, "alpha": 0.30000001192092896}, "class_name": "LeakyReLU"}, {"inbound_nodes": [[["leaky_re_lu_51", 0, 0, {}]]], "name": "batch_normalization_52", "config": {"moving_variance_initializer": {"config": {}, "class_name": "Ones"}, "trainable": true, "axis": -1, "name": "batch_normalization_52", "gamma_regularizer": null, "gamma_initializer": {"config": {}, "class_name": "Ones"}, "beta_initializer": {"config": {}, "class_name": "Zeros"}, "moving_mean_initializer": {"config": {}, "class_name": "Zeros"}, "scale": true, "center": true, "momentum": 0.99, "beta_regularizer": null, "beta_constraint": null, "gamma_constraint": null, "epsilon": 0.001}, "class_name": "BatchNormalization"}, {"inbound_nodes": [[["batch_normalization_52", 0, 0, {}]]], "name": "leaky_re_lu_52", "config": {"name": "leaky_re_lu_52", "trainable": true, "alpha": 0.30000001192092896}, "class_name": "LeakyReLU"}, {"inbound_nodes": [[["leaky_re_lu_52", 0, 0, {}]]], "name": "dropout_13", "config": {"noise_shape": null, "name": "dropout_13", "seed": null, "trainable": true, "rate": 0.3}, "class_name": "Dropout"}, {"inbound_nodes": [[["dropout_13", 0, 0, {}]]], "name": "separable_conv1d_79", "config": {"bias_constraint": null, "name": "separable_conv1d_79", "bias_initializer": {"config": {}, "class_name": "Zeros"}, "use_bias": true, "dilation_rate": [1], "depthwise_constraint": null, "bias_regularizer": null, "depth_multiplier": 1, "depthwise_regularizer": null, "depthwise_initializer": {"config": {"scale": 1.0, "mode": "fan_avg", "seed": null, "distribution": "uniform"}, "class_name": "VarianceScaling"}, "pointwise_constraint": null, "pointwise_regularizer": null, "data_format": "channels_last", "activity_regularizer": null, "kernel_size": [16], "strides": [1], "activation": "linear", "padding": "same", "pointwise_initializer": {"config": {"scale": 1.0, "mode": "fan_avg", "seed": null, "distribution": "uniform"}, "class_name": "VarianceScaling"}, "filters": 256, "trainable": true}, "class_name": "SeparableConv1D"}, {"inbound_nodes": [[["dropout_13", 0, 0, {}]]], "name": "separable_conv1d_80", "config": {"bias_constraint": null, "name": "separable_conv1d_80", "bias_initializer": {"config": {}, "class_name": "Zeros"}, "use_bias": true, "dilation_rate": [1], "depthwise_constraint": null, "bias_regularizer": null, "depth_multiplier": 1, "depthwise_regularizer": null, "depthwise_initializer": {"config": {"scale": 1.0, "mode": "fan_avg", "seed": null, "distribution": "uniform"}, "class_name": "VarianceScaling"}, "pointwise_constraint": null, "pointwise_regularizer": null, "data_format": "channels_last", "activity_regularizer": null, "kernel_size": [32], "strides": [1], "activation": "linear", "padding": "same", "pointwise_initializer": {"config": {"scale": 1.0, "mode": "fan_avg", "seed": null, "distribution": "uniform"}, "class_name": "VarianceScaling"}, "filters": 256, "trainable": true}, "class_name": "SeparableConv1D"}, {"inbound_nodes": [[["separable_conv1d_79", 0, 0, {}], ["separable_conv1d_80", 0, 0, {}]]], "name": "concatenate_27", "config": {"name": "concatenate_27", "trainable": true, "axis": 2}, "class_name": "Concatenate"}, {"inbound_nodes": [[["concatenate_27", 0, 0, {}]]], "name": "separable_conv1d_81", "config": {"bias_constraint": null, "name": "separable_conv1d_81", "bias_initializer": {"config": {}, "class_name": "Zeros"}, "use_bias": true, "dilation_rate": [1], "depthwise_constraint": null, "bias_regularizer": null, "depth_multiplier": 1, "depthwise_regularizer": null, "depthwise_initializer": {"config": {"scale": 1.0, "mode": "fan_avg", "seed": null, "distribution": "uniform"}, "class_name": "VarianceScaling"}, "pointwise_constraint": null, "pointwise_regularizer": null, "data_format": "channels_last", "activity_regularizer": null, "kernel_size": [1], "strides": [1], "activation": "linear", "padding": "same", "pointwise_initializer": {"config": {"scale": 1.0, "mode": "fan_avg", "seed": null, "distribution": "uniform"}, "class_name": "VarianceScaling"}, "filters": 256, "trainable": true}, "class_name": "SeparableConv1D"}, {"inbound_nodes": [[["add_12", 0, 0, {}]]], "name": "max_pooling1d_13", "config": {"data_format": "channels_last", "name": "max_pooling1d_13", "strides": [1], "trainable": true, "pool_size": [1], "padding": "valid"}, "class_name": "MaxPooling1D"}, {"inbound_nodes": [[["separable_conv1d_81", 0, 0, {}]]], "name": "batch_normalization_53", "config": {"moving_variance_initializer": {"config": {}, "class_name": "Ones"}, "trainable": true, "axis": -1, "name": "batch_normalization_53", "gamma_regularizer": null, "gamma_initializer": {"config": {}, "class_name": "Ones"}, "beta_initializer": {"config": {}, "class_name": "Zeros"}, "moving_mean_initializer": {"config": {}, "class_name": "Zeros"}, "scale": true, "center": true, "momentum": 0.99, "beta_regularizer": null, "beta_constraint": null, "gamma_constraint": null, "epsilon": 0.001}, "class_name": "BatchNormalization"}, {"inbound_nodes": [[["max_pooling1d_13", 0, 0, {}]]], "name": "lambda_3", "config": {"name": "lambda_3", "trainable": true, "arguments": {}, "function_type": "lambda", "function": ["4wEAAAAAAAAAAgAAAAQAAABTAAAAcygAAAB0AABqAQB8AACDAQB9AQB0AABqAgB8AAB8AQBnAgBk\nAQBkAgCDAQFTKQNO2gRheGlz6QIAAAApA9oBS9oKemVyb3NfbGlrZdoLY29uY2F0ZW5hdGUpAtoB\neNoBeakAcggAAAD6Ni9tZWRpYS91dXNlci9kYXRhLzk5NS1JQ1UgIHBsdXNlIGZldHVyZS9zcmMv\nbmV0d29yay5wedoHemVyb3BhZKgAAABzBAAAAAABDwE=\n", null, null], "output_shape": ["4wEAAAAAAAAAAgAAAAQAAABTAAAAczwAAAB0AAB8AACDAQB9AQB0AQB8AQCDAQBkAQBrAgBzJAB0\nAgCCAQB8AQBkAgAFGWQCADkDPHQDAHwBAIMBAFMpA07pAwAAAOkCAAAAKQTaBGxpc3TaA2xlbtoO\nQXNzZXJ0aW9uRXJyb3LaBXR1cGxlKQLaC2lucHV0X3NoYXBl2gVzaGFwZakAcgkAAAD6Ni9tZWRp\nYS91dXNlci9kYXRhLzk5NS1JQ1UgIHBsdXNlIGZldHVyZS9zcmMvbmV0d29yay5wedoUemVyb3Bh\nZF9vdXRwdXRfc2hhcGWsAAAAcwgAAAAAAQwBGAEOAQ==\n", null, null], "output_shape_type": "lambda"}, "class_name": "Lambda"}, {"inbound_nodes": [[["batch_normalization_53", 0, 0, {}]]], "name": "leaky_re_lu_53", "config": {"name": "leaky_re_lu_53", "trainable": true, "alpha": 0.30000001192092896}, "class_name": "LeakyReLU"}, {"inbound_nodes": [[["lambda_3", 0, 0, {}], ["leaky_re_lu_53", 0, 0, {}]]], "name": "add_13", "config": {"name": "add_13", "trainable": true}, "class_name": "Add"}, {"inbound_nodes": [[["add_13", 0, 0, {}]]], "name": "batch_normalization_54", "config": {"moving_variance_initializer": {"config": {}, "class_name": "Ones"}, "trainable": true, "axis": -1, "name": "batch_normalization_54", "gamma_regularizer": null, "gamma_initializer": {"config": {}, "class_name": "Ones"}, "beta_initializer": {"config": {}, "class_name": "Zeros"}, "moving_mean_initializer": {"config": {}, "class_name": "Zeros"}, "scale": true, "center": true, "momentum": 0.99, "beta_regularizer": null, "beta_constraint": null, "gamma_constraint": null, "epsilon": 0.001}, "class_name": "BatchNormalization"}, {"inbound_nodes": [[["batch_normalization_54", 0, 0, {}]]], "name": "leaky_re_lu_54", "config": {"name": "leaky_re_lu_54", "trainable": true, "alpha": 0.30000001192092896}, "class_name": "LeakyReLU"}, {"inbound_nodes": [[["leaky_re_lu_54", 0, 0, {}]]], "name": "separable_conv1d_82", "config": {"bias_constraint": null, "name": "separable_conv1d_82", "bias_initializer": {"config": {}, "class_name": "Zeros"}, "use_bias": true, "dilation_rate": [1], "depthwise_constraint": null, "bias_regularizer": null, "depth_multiplier": 1, "depthwise_regularizer": null, "depthwise_initializer": {"config": {"scale": 1.0, "mode": "fan_avg", "seed": null, "distribution": "uniform"}, "class_name": "VarianceScaling"}, "pointwise_constraint": null, "pointwise_regularizer": null, "data_format": "channels_last", "activity_regularizer": null, "kernel_size": [16], "strides": [2], "activation": "linear", "padding": "same", "pointwise_initializer": {"config": {"scale": 1.0, "mode": "fan_avg", "seed": null, "distribution": "uniform"}, "class_name": "VarianceScaling"}, "filters": 256, "trainable": true}, "class_name": "SeparableConv1D"}, {"inbound_nodes": [[["leaky_re_lu_54", 0, 0, {}]]], "name": "separable_conv1d_83", "config": {"bias_constraint": null, "name": "separable_conv1d_83", "bias_initializer": {"config": {}, "class_name": "Zeros"}, "use_bias": true, "dilation_rate": [1], "depthwise_constraint": null, "bias_regularizer": null, "depth_multiplier": 1, "depthwise_regularizer": null, "depthwise_initializer": {"config": {"scale": 1.0, "mode": "fan_avg", "seed": null, "distribution": "uniform"}, "class_name": "VarianceScaling"}, "pointwise_constraint": null, "pointwise_regularizer": null, "data_format": "channels_last", "activity_regularizer": null, "kernel_size": [32], "strides": [2], "activation": "linear", "padding": "same", "pointwise_initializer": {"config": {"scale": 1.0, "mode": "fan_avg", "seed": null, "distribution": "uniform"}, "class_name": "VarianceScaling"}, "filters": 256, "trainable": true}, "class_name": "SeparableConv1D"}, {"inbound_nodes": [[["separable_conv1d_82", 0, 0, {}], ["separable_conv1d_83", 0, 0, {}]]], "name": "concatenate_28", "config": {"name": "concatenate_28", "trainable": true, "axis": 2}, "class_name": "Concatenate"}, {"inbound_nodes": [[["concatenate_28", 0, 0, {}]]], "name": "separable_conv1d_84", "config": {"bias_constraint": null, "name": "separable_conv1d_84", "bias_initializer": {"config": {}, "class_name": "Zeros"}, "use_bias": true, "dilation_rate": [1], "depthwise_constraint": null, "bias_regularizer": null, "depth_multiplier": 1, "depthwise_regularizer": null, "depthwise_initializer": {"config": {"scale": 1.0, "mode": "fan_avg", "seed": null, "distribution": "uniform"}, "class_name": "VarianceScaling"}, "pointwise_constraint": null, "pointwise_regularizer": null, "data_format": "channels_last", "activity_regularizer": null, "kernel_size": [2], "strides": [1], "activation": "linear", "padding": "same", "pointwise_initializer": {"config": {"scale": 1.0, "mode": "fan_avg", "seed": null, "distribution": "uniform"}, "class_name": "VarianceScaling"}, "filters": 256, "trainable": true}, "class_name": "SeparableConv1D"}, {"inbound_nodes": [[["separable_conv1d_84", 0, 0, {}]]], "name": "batch_normalization_55", "config": {"moving_variance_initializer": {"config": {}, "class_name": "Ones"}, "trainable": true, "axis": -1, "name": "batch_normalization_55", "gamma_regularizer": null, "gamma_initializer": {"config": {}, "class_name": "Ones"}, "beta_initializer": {"config": {}, "class_name": "Zeros"}, "moving_mean_initializer": {"config": {}, "class_name": "Zeros"}, "scale": true, "center": true, "momentum": 0.99, "beta_regularizer": null, "beta_constraint": null, "gamma_constraint": null, "epsilon": 0.001}, "class_name": "BatchNormalization"}, {"inbound_nodes": [[["batch_normalization_55", 0, 0, {}]]], "name": "leaky_re_lu_55", "config": {"name": "leaky_re_lu_55", "trainable": true, "alpha": 0.30000001192092896}, "class_name": "LeakyReLU"}, {"inbound_nodes": [[["leaky_re_lu_55", 0, 0, {}]]], "name": "batch_normalization_56", "config": {"moving_variance_initializer": {"config": {}, "class_name": "Ones"}, "trainable": true, "axis": -1, "name": "batch_normalization_56", "gamma_regularizer": null, "gamma_initializer": {"config": {}, "class_name": "Ones"}, "beta_initializer": {"config": {}, "class_name": "Zeros"}, "moving_mean_initializer": {"config": {}, "class_name": "Zeros"}, "scale": true, "center": true, "momentum": 0.99, "beta_regularizer": null, "beta_constraint": null, "gamma_constraint": null, "epsilon": 0.001}, "class_name": "BatchNormalization"}, {"inbound_nodes": [[["batch_normalization_56", 0, 0, {}]]], "name": "leaky_re_lu_56", "config": {"name": "leaky_re_lu_56", "trainable": true, "alpha": 0.30000001192092896}, "class_name": "LeakyReLU"}, {"inbound_nodes": [[["leaky_re_lu_56", 0, 0, {}]]], "name": "dropout_14", "config": {"noise_shape": null, "name": "dropout_14", "seed": null, "trainable": true, "rate": 0.3}, "class_name": "Dropout"}, {"inbound_nodes": [[["dropout_14", 0, 0, {}]]], "name": "separable_conv1d_85", "config": {"bias_constraint": null, "name": "separable_conv1d_85", "bias_initializer": {"config": {}, "class_name": "Zeros"}, "use_bias": true, "dilation_rate": [1], "depthwise_constraint": null, "bias_regularizer": null, "depth_multiplier": 1, "depthwise_regularizer": null, "depthwise_initializer": {"config": {"scale": 1.0, "mode": "fan_avg", "seed": null, "distribution": "uniform"}, "class_name": "VarianceScaling"}, "pointwise_constraint": null, "pointwise_regularizer": null, "data_format": "channels_last", "activity_regularizer": null, "kernel_size": [16], "strides": [1], "activation": "linear", "padding": "same", "pointwise_initializer": {"config": {"scale": 1.0, "mode": "fan_avg", "seed": null, "distribution": "uniform"}, "class_name": "VarianceScaling"}, "filters": 256, "trainable": true}, "class_name": "SeparableConv1D"}, {"inbound_nodes": [[["dropout_14", 0, 0, {}]]], "name": "separable_conv1d_86", "config": {"bias_constraint": null, "name": "separable_conv1d_86", "bias_initializer": {"config": {}, "class_name": "Zeros"}, "use_bias": true, "dilation_rate": [1], "depthwise_constraint": null, "bias_regularizer": null, "depth_multiplier": 1, "depthwise_regularizer": null, "depthwise_initializer": {"config": {"scale": 1.0, "mode": "fan_avg", "seed": null, "distribution": "uniform"}, "class_name": "VarianceScaling"}, "pointwise_constraint": null, "pointwise_regularizer": null, "data_format": "channels_last", "activity_regularizer": null, "kernel_size": [32], "strides": [1], "activation": "linear", "padding": "same", "pointwise_initializer": {"config": {"scale": 1.0, "mode": "fan_avg", "seed": null, "distribution": "uniform"}, "class_name": "VarianceScaling"}, "filters": 256, "trainable": true}, "class_name": "SeparableConv1D"}, {"inbound_nodes": [[["separable_conv1d_85", 0, 0, {}], ["separable_conv1d_86", 0, 0, {}]]], "name": "concatenate_29", "config": {"name": "concatenate_29", "trainable": true, "axis": 2}, "class_name": "Concatenate"}, {"inbound_nodes": [[["concatenate_29", 0, 0, {}]]], "name": "separable_conv1d_87", "config": {"bias_constraint": null, "name": "separable_conv1d_87", "bias_initializer": {"config": {}, "class_name": "Zeros"}, "use_bias": true, "dilation_rate": [1], "depthwise_constraint": null, "bias_regularizer": null, "depth_multiplier": 1, "depthwise_regularizer": null, "depthwise_initializer": {"config": {"scale": 1.0, "mode": "fan_avg", "seed": null, "distribution": "uniform"}, "class_name": "VarianceScaling"}, "pointwise_constraint": null, "pointwise_regularizer": null, "data_format": "channels_last", "activity_regularizer": null, "kernel_size": [1], "strides": [1], "activation": "linear", "padding": "same", "pointwise_initializer": {"config": {"scale": 1.0, "mode": "fan_avg", "seed": null, "distribution": "uniform"}, "class_name": "VarianceScaling"}, "filters": 256, "trainable": true}, "class_name": "SeparableConv1D"}, {"inbound_nodes": [[["separable_conv1d_87", 0, 0, {}]]], "name": "batch_normalization_57", "config": {"moving_variance_initializer": {"config": {}, "class_name": "Ones"}, "trainable": true, "axis": -1, "name": "batch_normalization_57", "gamma_regularizer": null, "gamma_initializer": {"config": {}, "class_name": "Ones"}, "beta_initializer": {"config": {}, "class_name": "Zeros"}, "moving_mean_initializer": {"config": {}, "class_name": "Zeros"}, "scale": true, "center": true, "momentum": 0.99, "beta_regularizer": null, "beta_constraint": null, "gamma_constraint": null, "epsilon": 0.001}, "class_name": "BatchNormalization"}, {"inbound_nodes": [[["add_13", 0, 0, {}]]], "name": "max_pooling1d_14", "config": {"data_format": "channels_last", "name": "max_pooling1d_14", "strides": [2], "trainable": true, "pool_size": [2], "padding": "valid"}, "class_name": "MaxPooling1D"}, {"inbound_nodes": [[["batch_normalization_57", 0, 0, {}]]], "name": "leaky_re_lu_57", "config": {"name": "leaky_re_lu_57", "trainable": true, "alpha": 0.30000001192092896}, "class_name": "LeakyReLU"}, {"inbound_nodes": [[["max_pooling1d_14", 0, 0, {}], ["leaky_re_lu_57", 0, 0, {}]]], "name": "add_14", "config": {"name": "add_14", "trainable": true}, "class_name": "Add"}, {"inbound_nodes": [[["add_14", 0, 0, {}]]], "name": "batch_normalization_58", "config": {"moving_variance_initializer": {"config": {}, "class_name": "Ones"}, "trainable": true, "axis": -1, "name": "batch_normalization_58", "gamma_regularizer": null, "gamma_initializer": {"config": {}, "class_name": "Ones"}, "beta_initializer": {"config": {}, "class_name": "Zeros"}, "moving_mean_initializer": {"config": {}, "class_name": "Zeros"}, "scale": true, "center": true, "momentum": 0.99, "beta_regularizer": null, "beta_constraint": null, "gamma_constraint": null, "epsilon": 0.001}, "class_name": "BatchNormalization"}, {"inbound_nodes": [[["batch_normalization_58", 0, 0, {}]]], "name": "leaky_re_lu_58", "config": {"name": "leaky_re_lu_58", "trainable": true, "alpha": 0.30000001192092896}, "class_name": "LeakyReLU"}, {"inbound_nodes": [[["leaky_re_lu_58", 0, 0, {}]]], "name": "separable_conv1d_88", "config": {"bias_constraint": null, "name": "separable_conv1d_88", "bias_initializer": {"config": {}, "class_name": "Zeros"}, "use_bias": true, "dilation_rate": [1], "depthwise_constraint": null, "bias_regularizer": null, "depth_multiplier": 1, "depthwise_regularizer": null, "depthwise_initializer": {"config": {"scale": 1.0, "mode": "fan_avg", "seed": null, "distribution": "uniform"}, "class_name": "VarianceScaling"}, "pointwise_constraint": null, "pointwise_regularizer": null, "data_format": "channels_last", "activity_regularizer": null, "kernel_size": [16], "strides": [1], "activation": "linear", "padding": "same", "pointwise_initializer": {"config": {"scale": 1.0, "mode": "fan_avg", "seed": null, "distribution": "uniform"}, "class_name": "VarianceScaling"}, "filters": 256, "trainable": true}, "class_name": "SeparableConv1D"}, {"inbound_nodes": [[["leaky_re_lu_58", 0, 0, {}]]], "name": "separable_conv1d_89", "config": {"bias_constraint": null, "name": "separable_conv1d_89", "bias_initializer": {"config": {}, "class_name": "Zeros"}, "use_bias": true, "dilation_rate": [1], "depthwise_constraint": null, "bias_regularizer": null, "depth_multiplier": 1, "depthwise_regularizer": null, "depthwise_initializer": {"config": {"scale": 1.0, "mode": "fan_avg", "seed": null, "distribution": "uniform"}, "class_name": "VarianceScaling"}, "pointwise_constraint": null, "pointwise_regularizer": null, "data_format": "channels_last", "activity_regularizer": null, "kernel_size": [32], "strides": [1], "activation": "linear", "padding": "same", "pointwise_initializer": {"config": {"scale": 1.0, "mode": "fan_avg", "seed": null, "distribution": "uniform"}, "class_name": "VarianceScaling"}, "filters": 256, "trainable": true}, "class_name": "SeparableConv1D"}, {"inbound_nodes": [[["separable_conv1d_88", 0, 0, {}], ["separable_conv1d_89", 0, 0, {}]]], "name": "concatenate_30", "config": {"name": "concatenate_30", "trainable": true, "axis": 2}, "class_name": "Concatenate"}, {"inbound_nodes": [[["concatenate_30", 0, 0, {}]]], "name": "separable_conv1d_90", "config": {"bias_constraint": null, "name": "separable_conv1d_90", "bias_initializer": {"config": {}, "class_name": "Zeros"}, "use_bias": true, "dilation_rate": [1], "depthwise_constraint": null, "bias_regularizer": null, "depth_multiplier": 1, "depthwise_regularizer": null, "depthwise_initializer": {"config": {"scale": 1.0, "mode": "fan_avg", "seed": null, "distribution": "uniform"}, "class_name": "VarianceScaling"}, "pointwise_constraint": null, "pointwise_regularizer": null, "data_format": "channels_last", "activity_regularizer": null, "kernel_size": [1], "strides": [1], "activation": "linear", "padding": "same", "pointwise_initializer": {"config": {"scale": 1.0, "mode": "fan_avg", "seed": null, "distribution": "uniform"}, "class_name": "VarianceScaling"}, "filters": 256, "trainable": true}, "class_name": "SeparableConv1D"}, {"inbound_nodes": [[["separable_conv1d_90", 0, 0, {}]]], "name": "batch_normalization_59", "config": {"moving_variance_initializer": {"config": {}, "class_name": "Ones"}, "trainable": true, "axis": -1, "name": "batch_normalization_59", "gamma_regularizer": null, "gamma_initializer": {"config": {}, "class_name": "Ones"}, "beta_initializer": {"config": {}, "class_name": "Zeros"}, "moving_mean_initializer": {"config": {}, "class_name": "Zeros"}, "scale": true, "center": true, "momentum": 0.99, "beta_regularizer": null, "beta_constraint": null, "gamma_constraint": null, "epsilon": 0.001}, "class_name": "BatchNormalization"}, {"inbound_nodes": [[["batch_normalization_59", 0, 0, {}]]], "name": "leaky_re_lu_59", "config": {"name": "leaky_re_lu_59", "trainable": true, "alpha": 0.30000001192092896}, "class_name": "LeakyReLU"}, {"inbound_nodes": [[["leaky_re_lu_59", 0, 0, {}]]], "name": "batch_normalization_60", "config": {"moving_variance_initializer": {"config": {}, "class_name": "Ones"}, "trainable": true, "axis": -1, "name": "batch_normalization_60", "gamma_regularizer": null, "gamma_initializer": {"config": {}, "class_name": "Ones"}, "beta_initializer": {"config": {}, "class_name": "Zeros"}, "moving_mean_initializer": {"config": {}, "class_name": "Zeros"}, "scale": true, "center": true, "momentum": 0.99, "beta_regularizer": null, "beta_constraint": null, "gamma_constraint": null, "epsilon": 0.001}, "class_name": "BatchNormalization"}, {"inbound_nodes": [[["batch_normalization_60", 0, 0, {}]]], "name": "leaky_re_lu_60", "config": {"name": "leaky_re_lu_60", "trainable": true, "alpha": 0.30000001192092896}, "class_name": "LeakyReLU"}, {"inbound_nodes": [[["leaky_re_lu_60", 0, 0, {}]]], "name": "dropout_15", "config": {"noise_shape": null, "name": "dropout_15", "seed": null, "trainable": true, "rate": 0.3}, "class_name": "Dropout"}, {"inbound_nodes": [[["dropout_15", 0, 0, {}]]], "name": "separable_conv1d_91", "config": {"bias_constraint": null, "name": "separable_conv1d_91", "bias_initializer": {"config": {}, "class_name": "Zeros"}, "use_bias": true, "dilation_rate": [1], "depthwise_constraint": null, "bias_regularizer": null, "depth_multiplier": 1, "depthwise_regularizer": null, "depthwise_initializer": {"config": {"scale": 1.0, "mode": "fan_avg", "seed": null, "distribution": "uniform"}, "class_name": "VarianceScaling"}, "pointwise_constraint": null, "pointwise_regularizer": null, "data_format": "channels_last", "activity_regularizer": null, "kernel_size": [16], "strides": [1], "activation": "linear", "padding": "same", "pointwise_initializer": {"config": {"scale": 1.0, "mode": "fan_avg", "seed": null, "distribution": "uniform"}, "class_name": "VarianceScaling"}, "filters": 256, "trainable": true}, "class_name": "SeparableConv1D"}, {"inbound_nodes": [[["dropout_15", 0, 0, {}]]], "name": "separable_conv1d_92", "config": {"bias_constraint": null, "name": "separable_conv1d_92", "bias_initializer": {"config": {}, "class_name": "Zeros"}, "use_bias": true, "dilation_rate": [1], "depthwise_constraint": null, "bias_regularizer": null, "depth_multiplier": 1, "depthwise_regularizer": null, "depthwise_initializer": {"config": {"scale": 1.0, "mode": "fan_avg", "seed": null, "distribution": "uniform"}, "class_name": "VarianceScaling"}, "pointwise_constraint": null, "pointwise_regularizer": null, "data_format": "channels_last", "activity_regularizer": null, "kernel_size": [32], "strides": [1], "activation": "linear", "padding": "same", "pointwise_initializer": {"config": {"scale": 1.0, "mode": "fan_avg", "seed": null, "distribution": "uniform"}, "class_name": "VarianceScaling"}, "filters": 256, "trainable": true}, "class_name": "SeparableConv1D"}, {"inbound_nodes": [[["separable_conv1d_91", 0, 0, {}], ["separable_conv1d_92", 0, 0, {}]]], "name": "concatenate_31", "config": {"name": "concatenate_31", "trainable": true, "axis": 2}, "class_name": "Concatenate"}, {"inbound_nodes": [[["concatenate_31", 0, 0, {}]]], "name": "separable_conv1d_93", "config": {"bias_constraint": null, "name": "separable_conv1d_93", "bias_initializer": {"config": {}, "class_name": "Zeros"}, "use_bias": true, "dilation_rate": [1], "depthwise_constraint": null, "bias_regularizer": null, "depth_multiplier": 1, "depthwise_regularizer": null, "depthwise_initializer": {"config": {"scale": 1.0, "mode": "fan_avg", "seed": null, "distribution": "uniform"}, "class_name": "VarianceScaling"}, "pointwise_constraint": null, "pointwise_regularizer": null, "data_format": "channels_last", "activity_regularizer": null, "kernel_size": [1], "strides": [1], "activation": "linear", "padding": "same", "pointwise_initializer": {"config": {"scale": 1.0, "mode": "fan_avg", "seed": null, "distribution": "uniform"}, "class_name": "VarianceScaling"}, "filters": 256, "trainable": true}, "class_name": "SeparableConv1D"}, {"inbound_nodes": [[["separable_conv1d_93", 0, 0, {}]]], "name": "batch_normalization_61", "config": {"moving_variance_initializer": {"config": {}, "class_name": "Ones"}, "trainable": true, "axis": -1, "name": "batch_normalization_61", "gamma_regularizer": null, "gamma_initializer": {"config": {}, "class_name": "Ones"}, "beta_initializer": {"config": {}, "class_name": "Zeros"}, "moving_mean_initializer": {"config": {}, "class_name": "Zeros"}, "scale": true, "center": true, "momentum": 0.99, "beta_regularizer": null, "beta_constraint": null, "gamma_constraint": null, "epsilon": 0.001}, "class_name": "BatchNormalization"}, {"inbound_nodes": [[["add_14", 0, 0, {}]]], "name": "max_pooling1d_15", "config": {"data_format": "channels_last", "name": "max_pooling1d_15", "strides": [1], "trainable": true, "pool_size": [1], "padding": "valid"}, "class_name": "MaxPooling1D"}, {"inbound_nodes": [[["batch_normalization_61", 0, 0, {}]]], "name": "leaky_re_lu_61", "config": {"name": "leaky_re_lu_61", "trainable": true, "alpha": 0.30000001192092896}, "class_name": "LeakyReLU"}, {"inbound_nodes": [[["max_pooling1d_15", 0, 0, {}], ["leaky_re_lu_61", 0, 0, {}]]], "name": "add_15", "config": {"name": "add_15", "trainable": true}, "class_name": "Add"}, {"inbound_nodes": [[["add_15", 0, 0, {}]]], "name": "batch_normalization_62", "config": {"moving_variance_initializer": {"config": {}, "class_name": "Ones"}, "trainable": true, "axis": -1, "name": "batch_normalization_62", "gamma_regularizer": null, "gamma_initializer": {"config": {}, "class_name": "Ones"}, "beta_initializer": {"config": {}, "class_name": "Zeros"}, "moving_mean_initializer": {"config": {}, "class_name": "Zeros"}, "scale": true, "center": true, "momentum": 0.99, "beta_regularizer": null, "beta_constraint": null, "gamma_constraint": null, "epsilon": 0.001}, "class_name": "BatchNormalization"}, {"inbound_nodes": [[["batch_normalization_62", 0, 0, {}]]], "name": "leaky_re_lu_62", "config": {"name": "leaky_re_lu_62", "trainable": true, "alpha": 0.30000001192092896}, "class_name": "LeakyReLU"}, {"inbound_nodes": [[["leaky_re_lu_62", 0, 0, {}]]], "name": "separable_conv1d_94", "config": {"bias_constraint": null, "name": "separable_conv1d_94", "bias_initializer": {"config": {}, "class_name": "Zeros"}, "use_bias": true, "dilation_rate": [1], "depthwise_constraint": null, "bias_regularizer": null, "depth_multiplier": 1, "depthwise_regularizer": null, "depthwise_initializer": {"config": {"scale": 1.0, "mode": "fan_avg", "seed": null, "distribution": "uniform"}, "class_name": "VarianceScaling"}, "pointwise_constraint": null, "pointwise_regularizer": null, "data_format": "channels_last", "activity_regularizer": null, "kernel_size": [16], "strides": [2], "activation": "linear", "padding": "same", "pointwise_initializer": {"config": {"scale": 1.0, "mode": "fan_avg", "seed": null, "distribution": "uniform"}, "class_name": "VarianceScaling"}, "filters": 256, "trainable": true}, "class_name": "SeparableConv1D"}, {"inbound_nodes": [[["leaky_re_lu_62", 0, 0, {}]]], "name": "separable_conv1d_95", "config": {"bias_constraint": null, "name": "separable_conv1d_95", "bias_initializer": {"config": {}, "class_name": "Zeros"}, "use_bias": true, "dilation_rate": [1], "depthwise_constraint": null, "bias_regularizer": null, "depth_multiplier": 1, "depthwise_regularizer": null, "depthwise_initializer": {"config": {"scale": 1.0, "mode": "fan_avg", "seed": null, "distribution": "uniform"}, "class_name": "VarianceScaling"}, "pointwise_constraint": null, "pointwise_regularizer": null, "data_format": "channels_last", "activity_regularizer": null, "kernel_size": [32], "strides": [2], "activation": "linear", "padding": "same", "pointwise_initializer": {"config": {"scale": 1.0, "mode": "fan_avg", "seed": null, "distribution": "uniform"}, "class_name": "VarianceScaling"}, "filters": 256, "trainable": true}, "class_name": "SeparableConv1D"}, {"inbound_nodes": [[["separable_conv1d_94", 0, 0, {}], ["separable_conv1d_95", 0, 0, {}]]], "name": "concatenate_32", "config": {"name": "concatenate_32", "trainable": true, "axis": 2}, "class_name": "Concatenate"}, {"inbound_nodes": [[["concatenate_32", 0, 0, {}]]], "name": "separable_conv1d_96", "config": {"bias_constraint": null, "name": "separable_conv1d_96", "bias_initializer": {"config": {}, "class_name": "Zeros"}, "use_bias": true, "dilation_rate": [1], "depthwise_constraint": null, "bias_regularizer": null, "depth_multiplier": 1, "depthwise_regularizer": null, "depthwise_initializer": {"config": {"scale": 1.0, "mode": "fan_avg", "seed": null, "distribution": "uniform"}, "class_name": "VarianceScaling"}, "pointwise_constraint": null, "pointwise_regularizer": null, "data_format": "channels_last", "activity_regularizer": null, "kernel_size": [2], "strides": [1], "activation": "linear", "padding": "same", "pointwise_initializer": {"config": {"scale": 1.0, "mode": "fan_avg", "seed": null, "distribution": "uniform"}, "class_name": "VarianceScaling"}, "filters": 256, "trainable": true}, "class_name": "SeparableConv1D"}, {"inbound_nodes": [[["separable_conv1d_96", 0, 0, {}]]], "name": "batch_normalization_63", "config": {"moving_variance_initializer": {"config": {}, "class_name": "Ones"}, "trainable": true, "axis": -1, "name": "batch_normalization_63", "gamma_regularizer": null, "gamma_initializer": {"config": {}, "class_name": "Ones"}, "beta_initializer": {"config": {}, "class_name": "Zeros"}, "moving_mean_initializer": {"config": {}, "class_name": "Zeros"}, "scale": true, "center": true, "momentum": 0.99, "beta_regularizer": null, "beta_constraint": null, "gamma_constraint": null, "epsilon": 0.001}, "class_name": "BatchNormalization"}, {"inbound_nodes": [[["batch_normalization_63", 0, 0, {}]]], "name": "leaky_re_lu_63", "config": {"name": "leaky_re_lu_63", "trainable": true, "alpha": 0.30000001192092896}, "class_name": "LeakyReLU"}, {"inbound_nodes": [[["leaky_re_lu_63", 0, 0, {}]]], "name": "batch_normalization_64", "config": {"moving_variance_initializer": {"config": {}, "class_name": "Ones"}, "trainable": true, "axis": -1, "name": "batch_normalization_64", "gamma_regularizer": null, "gamma_initializer": {"config": {}, "class_name": "Ones"}, "beta_initializer": {"config": {}, "class_name": "Zeros"}, "moving_mean_initializer": {"config": {}, "class_name": "Zeros"}, "scale": true, "center": true, "momentum": 0.99, "beta_regularizer": null, "beta_constraint": null, "gamma_constraint": null, "epsilon": 0.001}, "class_name": "BatchNormalization"}, {"inbound_nodes": [[["batch_normalization_64", 0, 0, {}]]], "name": "leaky_re_lu_64", "config": {"name": "leaky_re_lu_64", "trainable": true, "alpha": 0.30000001192092896}, "class_name": "LeakyReLU"}, {"inbound_nodes": [[["leaky_re_lu_64", 0, 0, {}]]], "name": "dropout_16", "config": {"noise_shape": null, "name": "dropout_16", "seed": null, "trainable": true, "rate": 0.3}, "class_name": "Dropout"}, {"inbound_nodes": [[["dropout_16", 0, 0, {}]]], "name": "separable_conv1d_97", "config": {"bias_constraint": null, "name": "separable_conv1d_97", "bias_initializer": {"config": {}, "class_name": "Zeros"}, "use_bias": true, "dilation_rate": [1], "depthwise_constraint": null, "bias_regularizer": null, "depth_multiplier": 1, "depthwise_regularizer": null, "depthwise_initializer": {"config": {"scale": 1.0, "mode": "fan_avg", "seed": null, "distribution": "uniform"}, "class_name": "VarianceScaling"}, "pointwise_constraint": null, "pointwise_regularizer": null, "data_format": "channels_last", "activity_regularizer": null, "kernel_size": [16], "strides": [1], "activation": "linear", "padding": "same", "pointwise_initializer": {"config": {"scale": 1.0, "mode": "fan_avg", "seed": null, "distribution": "uniform"}, "class_name": "VarianceScaling"}, "filters": 256, "trainable": true}, "class_name": "SeparableConv1D"}, {"inbound_nodes": [[["dropout_16", 0, 0, {}]]], "name": "separable_conv1d_98", "config": {"bias_constraint": null, "name": "separable_conv1d_98", "bias_initializer": {"config": {}, "class_name": "Zeros"}, "use_bias": true, "dilation_rate": [1], "depthwise_constraint": null, "bias_regularizer": null, "depth_multiplier": 1, "depthwise_regularizer": null, "depthwise_initializer": {"config": {"scale": 1.0, "mode": "fan_avg", "seed": null, "distribution": "uniform"}, "class_name": "VarianceScaling"}, "pointwise_constraint": null, "pointwise_regularizer": null, "data_format": "channels_last", "activity_regularizer": null, "kernel_size": [32], "strides": [1], "activation": "linear", "padding": "same", "pointwise_initializer": {"config": {"scale": 1.0, "mode": "fan_avg", "seed": null, "distribution": "uniform"}, "class_name": "VarianceScaling"}, "filters": 256, "trainable": true}, "class_name": "SeparableConv1D"}, {"inbound_nodes": [[["separable_conv1d_97", 0, 0, {}], ["separable_conv1d_98", 0, 0, {}]]], "name": "concatenate_33", "config": {"name": "concatenate_33", "trainable": true, "axis": 2}, "class_name": "Concatenate"}, {"inbound_nodes": [[["concatenate_33", 0, 0, {}]]], "name": "separable_conv1d_99", "config": {"bias_constraint": null, "name": "separable_conv1d_99", "bias_initializer": {"config": {}, "class_name": "Zeros"}, "use_bias": true, "dilation_rate": [1], "depthwise_constraint": null, "bias_regularizer": null, "depth_multiplier": 1, "depthwise_regularizer": null, "depthwise_initializer": {"config": {"scale": 1.0, "mode": "fan_avg", "seed": null, "distribution": "uniform"}, "class_name": "VarianceScaling"}, "pointwise_constraint": null, "pointwise_regularizer": null, "data_format": "channels_last", "activity_regularizer": null, "kernel_size": [1], "strides": [1], "activation": "linear", "padding": "same", "pointwise_initializer": {"config": {"scale": 1.0, "mode": "fan_avg", "seed": null, "distribution": "uniform"}, "class_name": "VarianceScaling"}, "filters": 256, "trainable": true}, "class_name": "SeparableConv1D"}, {"inbound_nodes": [[["separable_conv1d_99", 0, 0, {}]]], "name": "batch_normalization_65", "config": {"moving_variance_initializer": {"config": {}, "class_name": "Ones"}, "trainable": true, "axis": -1, "name": "batch_normalization_65", "gamma_regularizer": null, "gamma_initializer": {"config": {}, "class_name": "Ones"}, "beta_initializer": {"config": {}, "class_name": "Zeros"}, "moving_mean_initializer": {"config": {}, "class_name": "Zeros"}, "scale": true, "center": true, "momentum": 0.99, "beta_regularizer": null, "beta_constraint": null, "gamma_constraint": null, "epsilon": 0.001}, "class_name": "BatchNormalization"}, {"inbound_nodes": [[["add_15", 0, 0, {}]]], "name": "max_pooling1d_16", "config": {"data_format": "channels_last", "name": "max_pooling1d_16", "strides": [2], "trainable": true, "pool_size": [2], "padding": "valid"}, "class_name": "MaxPooling1D"}, {"inbound_nodes": [[["batch_normalization_65", 0, 0, {}]]], "name": "leaky_re_lu_65", "config": {"name": "leaky_re_lu_65", "trainable": true, "alpha": 0.30000001192092896}, "class_name": "LeakyReLU"}, {"inbound_nodes": [[["max_pooling1d_16", 0, 0, {}], ["leaky_re_lu_65", 0, 0, {}]]], "name": "add_16", "config": {"name": "add_16", "trainable": true}, "class_name": "Add"}, {"inbound_nodes": [[["add_16", 0, 0, {}]]], "name": "batch_normalization_66", "config": {"moving_variance_initializer": {"config": {}, "class_name": "Ones"}, "trainable": true, "axis": -1, "name": "batch_normalization_66", "gamma_regularizer": null, "gamma_initializer": {"config": {}, "class_name": "Ones"}, "beta_initializer": {"config": {}, "class_name": "Zeros"}, "moving_mean_initializer": {"config": {}, "class_name": "Zeros"}, "scale": true, "center": true, "momentum": 0.99, "beta_regularizer": null, "beta_constraint": null, "gamma_constraint": null, "epsilon": 0.001}, "class_name": "BatchNormalization"}, {"inbound_nodes": [[["batch_normalization_66", 0, 0, {}]]], "name": "leaky_re_lu_66", "config": {"name": "leaky_re_lu_66", "trainable": true, "alpha": 0.30000001192092896}, "class_name": "LeakyReLU"}, {"inbound_nodes": [[["leaky_re_lu_66", 0, 0, {}]]], "name": "flatten_1", "config": {"data_format": "channels_last", "name": "flatten_1", "trainable": true}, "class_name": "Flatten"}, {"inbound_nodes": [[["flatten_1", 0, 0, {}]]], "name": "dropout_17", "config": {"noise_shape": null, "name": "dropout_17", "seed": null, "trainable": true, "rate": 0.3}, "class_name": "Dropout"}, {"inbound_nodes": [[["dropout_17", 0, 0, {}]]], "name": "dense_1", "config": {"bias_initializer": {"config": {}, "class_name": "Zeros"}, "use_bias": true, "trainable": true, "name": "dense_1", "bias_regularizer": null, "activation": "linear", "activity_regularizer": null, "bias_constraint": null, "kernel_constraint": null, "kernel_initializer": {"config": {"scale": 1.0, "mode": "fan_avg", "seed": null, "distribution": "uniform"}, "class_name": "VarianceScaling"}, "kernel_regularizer": null, "units": 9}, "class_name": "Dense"}, {"inbound_nodes": [[["dense_1", 0, 0, {}]]], "name": "activation_1", "config": {"name": "activation_1", "trainable": true, "activation": "sigmoid"}, "class_name": "Activation"}], "input_layers": [["inputs", 0, 0]], "output_layers": [["activation_1", 0, 0]]}, "class_name": "Model", "keras_version": "2.2.4"}